saved_models/eth_tag/best_model.pth (torch, 43125 bytes, 30 tensors)

st_gcns.0.gcn.conv.weight f4 [5, 2, 1, 1]
000000 13 46 0a 3f 46 3e 16 3f db 65 29 be e3 4b 26 3f
       0.54013175 0.5868877 -0.16542761 0.64959544
000010 9b 10 1d be e5 dd 12 3e 4b 21 b0 be 1a 8f d4 3e
       -0.15338366 0.14342459 -0.344004 0.41515428
000020 c5 6c 1f 3f 95 b3 04 bf
       0.62275344 -0.5183652

st_gcns.0.gcn.conv.bias f4 [5]
000000 fd 73 1d 3f 21 9d 07 3e cb cd 05 3f c9 04 c7 3d
       0.6150511 0.13243534 0.5226714 0.097177096
000010 b4 6c af 3e
       0.3426262

st_gcns.0.tcn.0.weight f4 [5]
000000 75 01 80 3f 1b 03 80 3f 1f 7b 7f 3f c1 19 80 3f
       1.0000445 1.0000948 0.9979724 1.000786
000010 dd 23 80 3f
       1.0010945

st_gcns.0.tcn.0.bias f4 [5]
000000 3b d2 21 b9 f7 6b 32 3a 88 4d e2 ba e5 82 06 3a
       -0.00015432473 0.0006806249 -0.0017265538 0.0005131199
000010 b3 68 a2 39
       0.00030977055

st_gcns.0.tcn.0.running_mean f4 [5]
000000 71 bc c1 bd 29 b0 29 bd a9 c5 7c 3b 46 c7 b9 bb
       -0.094597705 -0.041427765 0.0038569963 -0.005669507
000010 26 d6 e7 bb
       -0.007075089

st_gcns.0.tcn.0.running_var f4 [5]
000000 cb 8c a9 40 ed c6 08 40 32 1d c3 3f a9 7a ad 3f
       5.2984366 2.1371415 1.5243285 1.3553058
000010 af b0 67 40
       3.620159

st_gcns.0.tcn.2.weight f4 [5, 5, 3, 1]
000000 1a d4 16 bd 8d e3 49 3e e5 5b 11 3d 31 8d fa bd
       -0.03682337 0.1971571 0.035488028 -0.122339614
000010 68 29 85 3d df 5e f4 bd 06 24 00 bd 6f 74 d5 bd
       0.06502038 -0.11932158 -0.031284355 -0.104225986
000020 28 b9 2c 3e be 73 52 be ba 8d f3 bd ca 1e 95 bd
       0.16867507 -0.20551965 -0.118922666 -0.07281263
000030 7f 3a 1d be 43 39 bd 3c ee f3 83 be 2f d6 6d 3e
       -0.15354346 0.023098594 -0.2577204 0.23226236
000040 c0 2d 61 be cf 54 4c 3e 6a 11 2f 3d 12 23 ae bd
       -0.21990108 0.19954227 0.042741217 -0.08502783
000050 bc 05 23 3e 82 97 1d 3d 82 22 55 3e 0d 02 e6 3c
       0.15920156 0.038474567 0.20813945 0.02807715
000060 54 d0 a7 bd d0 38 8c 3d 96 a9 90 bd 06 b9 dc 3d
       -0.08194032 0.068467736 -0.07063596 0.10777478
000070 dd 49 6c 3e e0 41 1a 3e 11 de e8 bd a3 c0 17 3e
       0.23075052 0.15064192 -0.11370481 0.14819579
000080 2d d8 37 3d b7 6a 06 3e 1d 3b 23 be 37 73 83 be
       0.044883896 0.13126646 -0.15940519 -0.2567384
000090 f6 d1 cf bd 0d 25 4b be 60 a6 55 3e b4 3c 98 3d
       -0.10147469 -0.19838353 0.20864248 0.07433453
0000a0 88 85 d6 3d 38 1b a4 3d fb 0f a2 bb 97 9e 4e 3e
       0.10474688 0.08013004 -0.0049457527 0.20177685
0000b0 49 97 3d be 94 19 77 3c 69 7c 35 be 30 d2 a2 3d
       -0.18514742 0.015081782 -0.1772324 0.07950246
0000c0 f3 6c b8 bd 14 c5 a0 3d 70 64 58 bd ee 12 59 3e
       -0.090051554 0.0785009 -0.05283016 0.21198627
0000d0 3f 60 1c be af fe 1d be 1c 1c 1f be 09 5e 6d 3e
       -0.1527109 -0.15429185 -0.15538067 0.23180403
0000e0 13 65 b2 3d 64 e9 7c 3e e6 aa 5b be 9b 73 83 be
       0.087106846 0.24698406 -0.21451911 -0.25674137
0000f0 c5 f9 4f be f2 25 33 be 11 38 d7 3d ea e9 be 3d
       -0.20310123 -0.17494944 0.10508741 0.09321959
000100 37 5f 58 3e 92 45 07 be c1 da 34 be 64 8b 09 3e
       0.21130072 -0.13210133 -0.17661573 0.1343208
000110 aa 84 d1 bd 3c 45 21 3e 2f b9 84 bd 6e ec 18 3e
       -0.10230382 0.15749067 -0.064806335 0.14933941
000120 6e 03 50 be b1 c5 03 be 83 cd 9d 3d
       -0.20313808 -0.12868382 0.07705214

st_gcns.0.tcn.2.bias f4 [5]
000000 b9 94 5f 3d ea d1 86 bd 22 99 1d 3e 15 bd 33 3e
       0.054585192 -0.06583007 0.15390447 0.17552598
000010 91 bb 3f be
       -0.18723895

st_gcns.0.tcn.3.weight f4 [5]
000000 c0 b4 7e 3f 5e 6a 7e 3f 54 ba 7d 3f e5 cf 7d 3f
       0.9949455 0.99381053 0.9911244 0.99145347
000010 c9 19 7e 3f
       0.99258095

st_gcns.0.tcn.3.bias f4 [5]
000000 cf d1 c8 b7 1b 26 1a 3a 0b 61 0c bb 43 3a d2 bb
       -2.3939558e-05 0.0005880312 -0.0021420147 -0.0064156367
000010 41 dc b8 bb
       -0.0056414907

st_gcns.0.tcn.3.running_mean f4 [5]
000000 94 6c 06 be 7f d9 49 3e dd e8 1c 3e b7 5e ad 3d
       -0.13127357 0.19711874 0.15323205 0.08465331
000010 07 83 80 be
       -0.25099966

st_gcns.0.tcn.3.running_var f4 [5]
000000 37 1c 9c 3d 9a c2 01 3e 35 ed 95 3d 27 f4 6d 3e
       0.07622569 0.12671891 0.07320634 0.23237668
000010 f7 66 02 3e
       0.1273459

st_gcns.0.residual.0.weight f4 [5, 2, 1, 1]
000000 62 23 c1 be 48 cb 25 3f c8 2e 76 be d8 ea 7e be
       -0.37722307 0.6476331 -0.24041283 -0.24894273
000010 ad 37 2f bf 98 1c cf be 46 c5 35 3e 0b b0 bb bd
       -0.6844433 -0.40451503 0.17751035 -0.09164437
000020 53 69 03 bf 0e 82 76 3c
       -0.51332587 0.015045656

st_gcns.0.residual.0.bias f4 [5]
000000 4a 4d f7 be 82 93 19 bf 75 5c c7 be 29 6e 1e bf
       -0.48301154 -0.59990704 -0.38937727 -0.6188684
000010 18 86 e6 be
       -0.4502418

st_gcns.0.residual.1.weight f4 [5]
000000 2f 89 7e 3f 61 d8 7e 3f 5b 44 7e 3f f3 fd 7d 3f
       0.99428076 0.9954892 0.9932305 0.9921562
000010 22 22 7e 3f
       0.9927083

st_gcns.0.residual.1.bias f4 [5]
000000 e1 d1 c8 b7 1e 26 1a 3a 0b 61 0c bb 43 3a d2 bb
       -2.393959e-05 0.00058803137 -0.0021420147 -0.0064156367
000010 41 dc b8 bb
       -0.0056414907

st_gcns.0.residual.1.running_mean f4 [5]
000000 34 39 02 bf 80 67 17 bf 2d d8 c0 be cf 62 1d bf
       -0.50868535 -0.59142303 -0.3766493 -0.61478895
000010 5a c2 e7 be
       -0.45265466

st_gcns.0.residual.1.running_var f4 [5]
000000 dd 3f 0e 3f 26 f7 f5 3d bb d1 22 3f 7a 23 23 3d
       0.555662 0.120100304 0.63601273 0.039828755
000010 ea bf 87 3e
       0.26513606

tpcnns.0.weight f4 [12, 8, 3, 3]
000000 b5 00 e3 3d f1 73 95 3c a7 5f 04 3d 9b 56 e3 bd
       0.11084119 0.018243762 0.032317784 -0.11100503
000010 11 18 a1 bd 69 cf 2d bd bb b6 8e 3c e6 b9 d4 bd
       -0.078659184 -0.04243413 0.017421117 -0.1038702
000020 2f 32 50 bd 11 82 93 bd 27 ee 1d bb 82 d9 35 bd
       -0.05082911 -0.072025426 -0.0024098249 -0.044396885
000030 17 e0 2f bc a0 35 a6 bd 71 c4 a9 bd cd 26 90 bd
       -0.0107345795 -0.08115697 -0.08289421 -0.07038651
000040 ae 84 2e bd 71 90 bf bd 4f 2e bd 3d 56 06 e8 bc
       -0.042607002 -0.09353722 0.09237348 -0.028323334
000050 db 51 c6 3d 91 db 05 3d 1f d2 cf bd 1c ab a0 3d
       0.096835814 0.032680098 -0.10147499 0.078451365
000060 37 f4 0b bd 9a 9c 42 bd 46 3b cb bd 21 be f2 bd
       -0.03416845 -0.04751263 -0.09923415 -0.118526705
000070 30 88 fe 3c 24 27 dd bc a0 df 28 3d 57 d1 c7 bd
       0.031070799 -0.026996203 0.04122889 -0.09756725
000080 9e 95 a9 3d b4 21 b2 bd 68 90 b5 bc 9f 70 bc 3c
       0.0828049 -0.086978346 -0.022163585 0.02300292
000090 43 bb 6c 3d ab d3 b9 3d ef a4 d1 3d 76 70 c0 bd
       0.057795774 0.090735756 0.10236537 -0.0939645
0000a0 cc 43 d7 3c a4 02 53 bd 0c f4 76 bc 04 29 b5 bd
       0.026277445 -0.05151619 -0.015072834 -0.08845714
0000b0 48 32 d5 3d 77 1a b4 bd 2b f0 75 3d 58 67 23 3d
       0.10409981 -0.0879411 0.060043495 0.03989348
0000c0 25 0a 0e 3d 45 55 87 bd 2e 51 d3 3d bb 0c c6 3c
       0.034677643 -0.06608061 0.10318218 0.024175992
0000d0 5c 67 4e 3c d8 81 d6 bd 2c 3b 3f 3d 8f 85 ac bc
       0.012597885 -0.104739845 0.04668729 -0.02105978
0000e0 59 76 64 bd da 93 c6 3d f9 45 be 3c d1 af 8b bd
       -0.055776928 0.09696169 0.023226725 -0.06820644
0000f0 9c d6 7c bd cf f9 01 bc 25 ae 7e 3d c0 91 06 bd
       -0.061728105 -0.007933094 0.062177796 -0.03285384
000100 74 87 8d bd f2 b0 30 bd f8 4a b5 bd 3e 18 1e 3d
       -0.06910601 -0.0431375 -0.0885219 0.038597338
000110 bc 4e b2 3d 00 dd e3 bd 88 69 ca 3c 92 1b 73 3d
       0.08706424 -0.11126137 0.024708524 0.059352465
000120 0b 78 a4 3c 05 0a 32 bd 4c 6e 6f 3d 1c 58 73 3d
       0.020076772 -0.043466587 0.058454797 0.0594102
000130 91 2d 2c 3d 16 e5 be bc bc 5f 0a bd 77 c0 35 3c
       0.042035643 -0.023302596 -0.033782706 0.0110932505
000140 89 9f b4 bc bf 9c 13 bd 69 e3 94 3d 3d 48 c8 3d
       -0.022048729 -0.036038157 0.072699375 0.09779403
000150 be c4 4f bc 78 98 ea bc de db c2 ba 56 a8 09 bc
       -0.012681184 -0.028637156 -0.0014866551 -0.008401951
000160 af 5f d4 3c a8 f2 f0 3c bc 20 dc bd 71 c7 34 bd
       0.025924532 0.029412583 -0.10748431 -0.044135515
000170 4e c4 c2 3d 5b fc 30 3d 97 52 d6 bb 40 ff 91 bd
       0.095100984 0.043209415 -0.006540607 -0.07128763
000180 d7 ec 94 bd 42 83 d8 bd 60 5f 22 bd 50 de 1f 3d
       -0.07271736 -0.105719104 -0.039641738 0.039030373
000190 fb c1 91 3d 59 30 54 3d 4a 4d d6 bd a4 03 93 bd
       0.07117077 0.05180392 -0.104639605 -0.07178429
0001a0 10 08 a9 bc 13 32 e2 3d b8 bb 7f 3c ee e5 06 bd
       -0.020633727 0.11044707 0.0156087205 -0.03293412
0001b0 fe 5a 44 3d c1 bd 40 bd d7 e0 9d bd bc de aa 3d
       0.04793834 -0.047055963 -0.077089004 0.083432645
0001c0 cf 2c 61 bd f4 32 d4 bc c7 d0 ee bd f6 75 96 3d
       -0.054974373 -0.025903203 -0.11660915 0.07346718
0001d0 ff b0 b1 3d 47 b9 2b 3d ad 65 ab bd ca ba ed bd
       0.086763375 0.04192474 -0.083690025 -0.11607893
0001e0 e7 de c5 bd f8 47 a7 3d a0 d7 5c 3d 52 dd c4 3d
       -0.09661656 0.08168024 0.053916574 0.09612526
0001f0 cf 58 6a 3d 9b 8c e0 3c cc 19 81 bb 4c 22 b9 bd
       0.0572136 0.027410796 -0.003939843 -0.09039745
000200 b4 3a d1 bd 88 b7 e1 bd 85 d2 33 3d bd a3 76 bd
       -0.10216275 -0.11021334 0.04390194 -0.060214747
000210 f1 f5 d2 bc 22 2d 8d bd 7c 46 c7 bc bc 56 a9 bd
       -0.02575204 -0.06893374 -0.024325602 -0.082684964
000220 89 32 a1 bd 5c 53 19 3d 6b 46 14 bd f2 77 8b 3d
       -0.07870967 0.037433013 -0.03619997 0.06809987
000230 de 75 1f bd 95 8b b1 bd ce 24 c1 bc ed 4e 73 bd
       -0.038930766 -0.08669201 -0.02357712 -0.05940144
000240 ae 21 1c bd d1 40 e7 bd 14 99 80 3d b2 86 ad bd
       -0.038118057 -0.112916596 0.06279197 -0.08472957
000250 38 4c 57 3d 6c 25 4a 3d 65 79 a4 3d 4e 99 b9 bd
       0.052562922 0.049352095 0.08030967 -0.09062444
000260 38 12 a3 3d fc 1d 6a bd d2 cd 26 3d 7c 13 db 3d
       0.07962459 -0.0571575 0.04072363 0.10697076
000270 40 8b 96 bc 75 fd 56 bb f3 c0 ec bc 5b 13 cb bd
       -0.018376946 -0.003280488 -0.0289006 -0.09915801
000280 3d d7 55 3d 86 9b ee bd 64 18 8c 3d 9d 88 a6 3d
       0.05220722 -0.116507575 0.0684059 0.08131526
000290 59 d0 da 3d 1e 40 01 bd 55 1f cd bd f3 9c a7 3c
       0.106842704 -0.031555288 -0.10015742 0.020460581
0002a0 b3 82 7a 3d 92 84 f4 bd dd 03 ed bc 4c 51 94 bd
       0.0611598 -0.11939348 -0.028932506 -0.07242069
0002b0 ae f2 4c bc c3 49 71 bd d8 62 52 bd 4f c5 25 bd
       -0.012509031 -0.058908235 -0.051363796 -0.04047137
0002c0 81 e7 e8 bd 80 16 bd 3d a6 13 bb 3d 6f 2c ae bc
       -0.11372281 0.09232807 0.09134607 -0.021261422
0002d0 df 68 87 bc 89 10 46 bd 4a f3 db bd 17 a3 eb bd
       -0.016529499 -0.048355613 -0.10739763 -0.11505716
0002e0 92 03 27 3d ca 9c 88 bd bc 5b a0 bd af ac 28 bc
       0.04077489 -0.0667053 -0.07829997 -0.010295077
0002f0 4f 91 26 bd bf 52 21 bd 80 71 5a 3b 9a 7c cf bc
       -0.04066592 -0.039385553 0.0033331811 -0.02532797
000300 30 22 30 bd 90 3e 76 bd 3d 99 c2 bd 03 46 c0 3d
       -0.043001354 -0.060118258 -0.09501884 0.09388354
000310 3e 29 49 bd ea 82 e5 3c 6e 5e 31 bd 6b 26 bb 3b
       -0.049111597 0.028016526 -0.043302946 0.005711367
000320 f7 e5 d4 3d 9f 13 4a 3d de 4f d4 bd e7 ac 27 3d
       0.10395425 0.04933512 -0.10366796 0.040936377
000330 6e 46 dc 3d 02 93 d3 3c 01 95 96 3d ef a1 e7 3d
       0.10755621 0.025826935 0.07352639 0.11310183
000340 f2 3c a3 bc d8 64 bf 3c 29 3a ac bd a1 de cc bc
       -0.019926522 0.023363516 -0.08409531 -0.025008501
000350 fd 19 ae 3d 63 6c 6b 3d 79 dc 9c bd 73 0b c2 bd
       0.085010506 0.057476413 -0.07659239 -0.0947484
000360 15 ca a5 bd d0 5d ed bd 38 09 bb bd ce bd fc bc
       -0.08095185 -0.11590159 -0.09132618 -0.030852225
000370 f0 a3 9e 3d fb 3e 80 3c ae 9b b7 bd 58 e9 c3 bd
       0.07746112 0.015655031 -0.089652404 -0.09565991
000380 28 d1 65 3d 1a 71 b1 bd 69 e9 83 bc 1e 04 62 3d
       0.05610767 -0.086641505 -0.01610251 0.055179708
000390 78 15 60 bd 2d 45 73 bc 74 d0 24 bc 1c df e9 bc
       -0.054707974 -0.014848036 -0.010059465 -0.02854877
0003a0 e1 40 78 bd e4 34 d7 bd 3e ea c1 bd 06 61 82 bd
       -0.06060875 -0.10508135 -0.09468506 -0.06366162
0003b0 c6 0d e4 3d 71 26 6e bd c1 c0 a5 bd 4f 66 cd 3c
       0.111354396 -0.05814213 -0.080934055 0.025073199
0003c0 f6 07 fd 3c d9 d2 7e 3d c0 76 ac 3d ba 97 81 3d
       0.030887585 0.0622128 0.08421087 0.06327768
0003d0 e9 05 ee bd 2f 70 1e 3c d5 75 8d 3d 69 fe 3f bc
       -0.11622221 0.009670301 0.0690724 -0.011718371
0003e0 8c 73 8e bd 46 39 e2 3d 0d 94 37 bd e7 3f 8d bd
       -0.069556326 0.1104608 -0.044818927 -0.06896954
0003f0 da 66 d9 bd 02 b4 a7 3b e4 a9 48 3d f1 eb c1 3c
       -0.106153205 0.005117894 0.048990145 0.023672076

tpcnns.0.bias f4 [12]
000000 65 b6 bf 3d 25 87 ba bc 7b 3c 5c bd db d0 8e 3d
       0.09360961 -0.02276952 -0.053768616 0.0697343
000010 1a b9 b0 3d 56 67 dd 3d 64 6b b4 3c 98 8f 3a bd
       0.08629055 0.108107254 0.022023864 -0.045547098
000020 12 b0 48 3d ce c2 b7 3d b8 2c 03 be fd de 80 bc
       0.04899604 0.08972703 -0.12810028 -0.01573133

tpcnns.1.weight f4 [12, 12, 3, 3]
000000 d9 2c 86 bd fa 37 94 3c ca 53 22 3d 1a d6 a3 bc
       -0.06551523 0.018093098 0.03963069 -0.019999553
000010 46 18 1b bc db e7 30 3d 1b b9 85 bc 86 20 a5 bd
       -0.009466236 0.043189865 -0.016323617 -0.08062844
000020 b8 24 9d 3d e5 dd 45 bd 2c e1 2e bc 75 59 15 3c
       0.07673019 -0.04830732 -0.010673802 0.0091155665
000030 a1 ca b8 bb 5d 9b b8 bd 91 f9 34 3d 91 e7 32 bd
       -0.0056393896 -0.09014008 0.044183318 -0.04367787
000040 89 6d 4c bd 5c 75 bd 3c 42 8e 4e bd b5 30 36 bd
       -0.04990915 0.02312725 -0.050428636 -0.044480044
000050 0f 09 04 bd 8b 86 13 bd cf 66 25 bd c3 49 d5 bc
       -0.0322352 -0.036016982 -0.04038125 -0.026036149
000060 3c ce cc 3c f8 4c 9f bd d8 21 6e bd 8e 7d 80 3a
       0.025000684 -0.077783525 -0.058137745 0.0009803043
000070 0f 6f 55 3c 0b ab 59 3d fb 73 8a bd 4d 8a fc 3c
       0.013026967 0.053141635 -0.06760403 0.030827666
000080 04 cb 5f 3d a4 2a 5a 3d 83 8d b7 bd ba 45 15 bd
       0.05463697 0.05326332 -0.08962538 -0.03644345
000090 50 ac a9 bd 78 55 7a bd f5 6e 5b 3d 15 a0 72 bc
       -0.08284819 -0.061116666 0.053572614 -0.014808674
0000a0 88 49 26 3d a1 94 67 bd 2e 52 69 3c ea 4d 6d bd
       0.04059747 -0.056538228 0.014240785 -0.057935633
0000b0 a4 19 44 3d 6e 5d 2e bd 35 83 c7 bc ed 0f ab bd
       0.047876015 -0.04256957 -0.024354557 -0.08352647
0000c0 fd b6 3c ba 7e 46 b8 3d b0 f6 3c 3d fb 85 53 bd
       -0.0007198898 0.0899782 0.046133697 -0.051641446
0000d0 97 59 5b 3a 64 1d 34 bc d7 ff 9e bd 58 5e 9a 3d
       0.0008367537 -0.010993335 -0.07763641 0.07537526
0000e0 da 80 c9 3a d9 f1 a2 3c a7 46 20 bd 6f 7f 39 bd
       0.0015373484 0.019890713 -0.03912988 -0.045287546
0000f0 40 59 82 3c c1 32 11 3d 9f 7b b1 3c 96 6f 3d bd
       0.015911698 0.035448793 0.021665392 -0.046248995
000100 1c 78 bf 3d c0 e5 69 bc 19 8e 72 bd bd 72 39 bd
       0.09349081 -0.014275968 -0.059217546 -0.04527544
000110 29 b7 c1 3d 05 45 fe b6 60 19 5a bc da de 23 bd
       0.09458763 -7.577825e-06 -0.013311714 -0.04000745
000120 8f 8a d1 bc 2e 99 a6 bd d6 0e 9d bd 35 ba 64 3d
       -0.025578765 -0.081346855 -0.07668845 0.055841643
000130 a0 b3 a7 3d 79 2d bb 3d f7 c7 8e bd 31 d1 55 3d
       0.081885576 0.091395326 -0.06971734 0.052201454
000140 32 6a 75 bd d5 b0 6a 3d 55 24 8d 3d a4 25 98 3d
       -0.05991573 0.057297546 0.068916954 0.074290544
000150 f8 81 8c 3d 39 29 76 3d f8 3c c3 3a ff e6 33 3d
       0.06860727 0.060097907 0.001489549 0.043921467
000160 c4 51 0e bd df a3 2a 3d fa 75 fb bc e4 e2 c6 ba
       -0.034745947 0.041660186 -0.030695904 -0.001517382
000170 ed a0 ab bd 9f 0e d1 bc 22 9e 52 bd f2 d7 04 bd
       -0.083803035 -0.025519667 -0.05142034 -0.032432504
000180 b3 e6 7c bd 99 6d b1 bd ab 32 c6 3b 6b ff 7f 3d
       -0.06174345 -0.08663482 0.0060485206 0.062499445
000190 5a 68 b3 3d ef ec 65 3d 77 21 4d bd 4c 55 c3 bd
       0.08760138 0.05613416 -0.050080743 -0.095377535
0001a0 33 2f 16 3d a6 bc 5c 3d 04 a6 a8 bd fa 03 0e 3d
       0.036666106 0.053890847 -0.0823479 0.03467176
0001b0 8e ef a5 3d b1 cb ad 3b d3 31 6b bd 71 e5 9f 3d
       0.08102332 0.005303823 -0.057420563 0.07807434
0001c0 d7 e6 27 3d 42 b1 82 3d 31 46 85 bd a9 ac 62 3d
       0.04099163 0.063814655 -0.065075286 0.055340443
0001d0 08 fb 85 bd e2 4a c2 3d e0 d8 26 bd 1d be 6c 3d
       -0.06542021 0.09486939 -0.040734172 0.057798494
0001e0 68 27 9d 3c 55 c7 c2 3c cf e9 6e bc 82 80 21 3d
       0.01918383 0.02377669 -0.0145821115 0.039429195
0001f0 21 fd 22 bd 64 c9 b9 bd 88 51 16 bd 7b 2f 9a 3d
       -0.039792184 -0.09071615 -0.036698848 0.075285874
000200 c8 e6 cf bc 56 8a f7 3c 35 8a 11 bd 0f 3e 94 3d
       -0.0253786 0.03021733 -0.035532195 0.07238399
000210 82 2f 6d 3d 1b 65 0a 3d b1 0a 48 bd b9 85 a0 bd
       0.057906635 0.033787828 -0.04883832 -0.078380056
000220 fa 86 56 3b 2d c5 66 bd 75 09 a2 3d c0 12 be bd
       0.003273426 -0.056340385 0.0791196 -0.0928092
000230 93 ba 30 3d ed d6 c3 3d dc 09 44 3d ee 81 05 3d
       0.04314668 0.09562478 0.047860965 0.032594614
000240 6f 98 be bd e5 56 bb 3d 40 11 84 bc c9 c7 b7 bd
       -0.09306418 0.09147433 -0.016121507 -0.08973653
000250 2d 63 bf 3d 56 06 20 bd ad 0f f8 bb e6 52 b1 3d
       0.09345088 -0.039068542 -0.007570228 0.0865839
000260 3e c6 89 bd 1a a6 8c bd f0 5b 70 3c f5 5f 57 bc
       -0.06727265 -0.06867619 0.014670357 -0.0131454365
000270 ab 2a b3 3c 36 41 a7 bd 25 2b 03 3b c1 74 2d bd
       0.021870932 -0.08166735 0.002001473 -0.042347673
000280 46 3a 46 bd 7b 3d b5 bd dc b8 4d 3d 42 68 91 3c
       -0.048395418 -0.08849617 0.050225124 0.01774991
000290 20 d2 a6 bd ba 2c 9c 3d 09 41 df 3c 62 7c 92 3c
       -0.08145547 0.076257184 0.02725269 0.017881576
0002a0 59 e5 69 bd ad 68 5b 3c 04 02 be 3d 68 f3 85 3d
       -0.05710349 0.013391656 0.09277728 0.06540567
0002b0 50 83 99 bd 34 6a b3 3d c9 eb ed 3b ef 6b 3b 3d
       -0.07495749 0.08760491 0.007260774 0.04575723
0002c0 28 bf 97 3d ed 3a a7 3d b9 bb 99 bd 7f ab ab 3d
       0.07409507 0.08165536 -0.075065084 0.0838232
0002d0 e4 e1 87 bd 51 0c d3 3b a3 61 88 bd a0 26 bb bc
       -0.06634882 0.006440677 -0.06659248 -0.022845566
0002e0 2a 0d bd bb 10 0c 49 bc 62 2e 81 bc 21 b3 c3 3b
       -0.0057693915 -0.012270942 -0.015769187 0.0059722816
0002f0 c2 2d be 3d fd c0 61 3d 00 59 5b 3d c0 cb 1a 3d
       0.09286071 0.05511569 0.053551674 0.037791967
000300 f3 ca 96 3d 22 91 bd bb 6b 2a e7 3b af b8 9b 3c
       0.07362928 -0.0057851234 0.007054617 0.019008962
000310 e9 a5 ac bd d8 b6 a1 bd c1 37 31 3c 23 92 1c bd
       -0.08430082 -0.07896203 0.010816515 -0.038225304
000320 26 7c 9b ba d2 3b b8 bc d6 eb 66 3c d4 f6 7d 3d
       -0.0011862561 -0.022489462 0.014094314 0.06200297
000330 55 57 03 bd b8 9e 9a 3d 35 aa 9a 3d 73 ff 96 bd
       -0.03206571 0.075498044 0.07551996 -0.07372942
000340 99 91 97 bd c6 3f 9f bd 88 16 57 bd ba ee 18 bd
       -0.074008174 -0.07775836 -0.05251172 -0.037337042
000350 e5 e4 e3 bb ec 7a c0 bc 90 9f 46 bd df 39 f8 bc
       -0.0069547766 -0.023496114 -0.048492014 -0.030301033
000360 8d 11 0e bd 3e c9 c1 3d 9f 15 12 bd e4 28 8d bd
       -0.034684706 0.09462212 -0.03566515 -0.06892565
000370 d2 37 24 3d 69 db ac bb af 0b 95 3d 8c 17 74 3d
       0.040092297 -0.005275179 0.07277619 0.05959277
000380 54 28 b3 3d 38 33 8f bd dc 9c 7c 3d ea d4 a5 3d
       0.08747926 -0.06992191 0.06167303 0.08097251
000390 2a 00 43 bd 04 ec b5 3d 76 3e 93 3d 11 99 58 3a
       -0.04760758 0.08882907 0.07189648 0.0008262555
0003a0 43 ce 3d 3d f1 66 08 bd c8 3e ac bd f2 54 c2 3c
       0.046339285 -0.033301298 -0.08410412 0.023722146
0003b0 3a ca e7 3c d1 7e 80 bd c6 56 33 3d 01 b1 a8 bd
       0.028294671 -0.06274188 0.043783925 -0.08236886
0003c0 bd fb a8 3d 5e c0 bd 3d 35 b3 d0 3c 0b e2 78 bd
       0.0825114 0.09265207 0.025476078 -0.060762446
0003d0 f4 c9 3a 3d f0 f9 83 3c c3 e3 d3 3c b4 1f fa 3c
       0.045602754 0.01611039 0.025865441 0.030532695
0003e0 47 4c 95 3d 58 db 28 bd 43 1f b4 bc 80 84 d5 3c
       0.072899394 -0.041224808 -0.021987563 0.026064157
0003f0 c2 5d 29 3c c2 b5 9d 3d e6 ad 4d bd c5 e1 90 bb
       0.010337295 0.07700683 -0.05021467 -0.004421445

tpcnns.1.bias f4 [12]
000000 cf 6e ba bd 41 b2 97 bb c0 d4 19 3c cf e2 66 bd
       -0.09103166 -0.004629404 0.009389102 -0.056368645
000010 9f 19 6d 3d f0 d9 1f bd 8c 0e 1e bd 67 f7 92 3d
       0.057885762 -0.0390262 -0.03858809 0.071760945
000020 39 cd 9d 3d 63 32 83 bc 03 38 9e bd 0f 1b 45 bd
       0.07705159 -0.016015237 -0.07725527 -0.04812151

tpcnns.2.weight f4 [12, 12, 3, 3]
000000 e6 f4 48 3c 8b 67 69 3d e6 25 43 3d 5c 57 2e bd
       0.01226542 0.056983512 0.047643565 -0.04256378
000010 a0 31 be bd 8e 7c ac bd 8d fc f8 bc 8c cb 05 3b
       -0.09286809 -0.084221944 -0.030393863 0.0020415513
000020 d8 ef 30 bd f0 4e 9b bd 59 1c 25 3c c9 f0 9b bd
       -0.043197483 -0.075834155 0.010077559 -0.076142855
000030 6a 68 97 bd 09 98 9e bd e9 d3 d4 bc e1 26 ae 3d
       -0.07392962 -0.07743842 -0.025979953 0.08503509
000040 70 8f 19 3d cc 7b 39 bc 88 fa 9c 3c 72 97 1d 3d
       0.03749031 -0.011321019 0.019162431 0.038474508
000050 fe e5 7c 3a 33 23 9e bd a8 01 72 bd 26 97 85 bd
       0.00096473086 -0.077215575 -0.05908361 -0.0652297
000060 fe 53 2e bb ec 16 b4 bd 97 51 90 bc 0e 37 11 bd
       -0.0026600356 -0.087934345 -0.01761703 -0.035452895
000070 c3 99 c0 3d ed 31 a0 3d c2 c5 64 3d bc 43 bc 3b
       0.09404328 0.078220226 0.05585266 0.0057453793
000080 52 69 ff bc 50 3d c7 3c f1 59 88 bd 25 95 26 bd
       -0.03117815 0.024321228 -0.0665778 -0.04066958
000090 0e d2 9d bc cc f7 b7 bc 24 e9 ba bd b5 57 1b 3d
       -0.019265201 -0.022457026 -0.09126499 0.03792544
0000a0 f8 99 a2 3d f6 4d 5a bd 50 56 d4 3c 3b 6c 29 bc
       0.079395235 -0.053297006 0.025920063 -0.010340746
0000b0 e8 b9 56 bb 7b f5 a5 3b 15 4d ab 3d aa e9 5c 3c
       -0.0032764617 0.005064664 0.083643116 0.013483444
0000c0 41 d7 7b bd 8e c4 11 bd c2 6f 40 3d d9 46 f6 3c
       -0.06148458 -0.03558784 0.04698158 0.03006308
0000d0 6c 7a 18 3b 0f 40 4f bc 88 d4 19 bd b3 8d 0c bd
       0.0023266328 -0.01264955 -0.0375562 -0.034314822
0000e0 ed b1 4f bd ad 17 7f 3c 19 39 da 3c 2f c2 96 3d
       -0.050706793 0.01556961 0.026638554 0.07361256
0000f0 26 1b ac bc 79 ce f7 3b a2 be 7f 3d d0 6b 2b 3d
       -0.02100904 0.0075624553 0.06243766 0.041850865
000100 87 9c 48 3c e9 fb f1 3c fe 26 9d 3b af 86 a9 bd
       0.01224435 0.029539065 0.004795908 -0.08277642
000110 7c 72 6e 3b 37 f5 a9 bc d0 91 b1 3d dd 47 b2 3d
       0.0036384156 -0.02074681 0.0867039 0.08705113
000120 1f 70 9e 3c c3 b5 b2 3d 16 f7 48 bd 0b fb aa 3d
       0.019340573 0.087260745 -0.049063765 0.08348664
000130 25 8c a9 3d 08 83 70 bb 35 90 9d bd 1f 9d f5 bc
       0.082786836 -0.0036699194 -0.07693521 -0.029982148
000140 c7 4b d1 bc ec 85 f3 3a e6 5a b3 bd 50 55 94 3c
       -0.025548829 0.001857934 -0.08757572 0.018107086
000150 8b 21 25 bd a1 00 c4 bc 0c b2 4b bd 21 24 a4 bc
       -0.040315192 -0.023926081 -0.049730346 -0.020036759
000160 0c 01 b7 bd 42 b2 50 bd 9c b4 1a 3c d2 39 82 3d
       -0.089357466 -0.05095125 0.009442475 0.063586846
000170 0b 92 b3 3d 04 53 95 bd 1b d6 21 3d 84 2b 5c bd
       0.0876809 -0.072912246 0.039510828 -0.053752437
000180 f5 0a 98 bd 4d 26 73 bb d1 27 62 bd 74 a3 a9 bd
       -0.07423965 -0.0037101686 -0.055213753 -0.08283129
000190 83 65 b8 bd 3e 74 83 bd a2 37 a1 3d 01 28 5a 3d
       -0.09003737 -0.06418656 0.07871939 0.053260807
0001a0 c2 88 1b bd 3b a1 83 bd c1 35 97 bd 69 a3 68 bd
       -0.03797222 -0.06427237 -0.073832996 -0.056796465
0001b0 70 0a 23 bd 8c 16 6b 3d 3c 7d 03 3d b0 fe 19 bd
       -0.039804876 0.05739455 0.032101855 -0.037596405
0001c0 60 40 87 3d 18 14 74 bd e5 2c a0 bd a3 ad a8 3c
       0.066040754 -0.059589475 -0.07821063 0.020590609
0001d0 bb d6 57 bd 65 a4 dd 3c 62 70 a6 3d db 33 3b bd
       -0.052695017 0.027055928 0.08126904 -0.04570375
0001e0 76 e2 89 bd 78 fd 0b 3d 26 a2 b1 bd bf 3e af 3d
       -0.06732647 0.034177274 -0.086735055 0.0855689
0001f0 43 bc 39 bd cb 03 3d 3d c4 72 9c bd d6 12 86 bd
       -0.045345556 0.046146195 -0.07639077 -0.065465614
000200 0a a3 31 3c b2 a0 0a 3d b8 f5 98 3d 69 7e a5 3d
       0.010842094 0.033844657 0.07468742 0.080807514
000210 58 06 b7 bb e9 67 4f bc 71 e0 84 3c e1 ce b4 bc
       -0.005585473 -0.012659051 0.016220303 -0.022071304
000220 60 e3 4f 3b e2 12 ba bd d4 c8 a1 bd b6 84 86 3d
       0.003172122 -0.09085633 -0.07899633 0.06568281
000230 eb cc 64 bd ee c4 9a 3d c0 bc 2a 3c 9e af c0 3c
       -0.055859488 0.075570926 0.010420978 0.02352124
000240 56 e9 b1 3d 07 f3 5e bd 90 82 75 bc 32 18 8c 3c
       0.086870834 -0.054430988 -0.014984742 0.017101381
000250 1c 6e 00 3d 60 73 c0 bd e7 d0 07 3d ed 8b 6c bd
       0.03135501 -0.09397006 0.03315821 -0.05775063
000260 0e c5 44 3c 19 37 84 3d 2e 60 29 bc f2 90 40 bb
       0.012009872 0.064558215 -0.010337872 -0.002938327
000270 9c ea e9 bb 45 22 a3 3d 5a 51 5f 3d f7 4f 86 3c
       -0.0071385633 0.07965521 0.054520942 0.016395552
000280 96 47 6f bd da cb 55 bd 46 59 9b 3d 55 25 8c 3d
       -0.05841788 -0.05219636 0.07585387 0.06843058
000290 70 ec 63 3d fc 67 9a bd fa 5a 96 3d 0d c4 1a bc
       0.055645406 -0.07539365 0.07341571 -0.009446156
0002a0 d4 4c 90 3d c9 8c a8 3d 17 ff 2d 3c 6b b3 26 bd
       0.07045904 0.08229978 0.0106199 -0.04069845
0002b0 57 8a b9 3d 39 7b 4e bd 82 d0 7f 3d c0 62 bd bd
       0.09059589 -0.050410483 0.062454708 -0.09247351
0002c0 6d d9 fd bc 9e bd ac bd 25 63 31 bd 96 0c 26 3d
       -0.030987466 -0.08434604 -0.043307442 0.040539347
0002d0 ad dc 8e bd d8 d7 ab bd 41 63 8e 3d 9d 8a 4c 3d
       -0.06975684 -0.08390778 0.06952525 0.04993688
0002e0 c3 0f fb ba 5b 1b 8c bd 6e f6 d5 bc 59 85 04 bd
       -0.0019154478 -0.06841155 -0.026118483 -0.032353733
0002f0 17 f0 6b 3d 45 aa 03 bd e6 2a e3 bc 7c 51 8c bd
       0.057602014 -0.032144804 -0.027730417 -0.068514794
000300 49 67 3b bd c1 80 52 3d 28 a3 7c 3d 97 60 5e 3c
       -0.045752797 0.05139232 0.061679035 0.0135728335
000310 c9 61 14 bd 3c 15 bb 3d 33 8a 92 3c f2 5c 19 bd
       -0.036226068 0.091349095 0.017888164 -0.037442155
000320 05 a1 07 bd aa be 62 bc 7f b6 37 3d d3 33 0c 3d
       -0.033112545 -0.013839403 0.044851776 0.03422911
000330 29 c5 8d 3d 4b 13 bf bb 79 25 a2 3d 4d 51 20 bd
       0.06922371 -0.0058311573 0.079173036 -0.039140034
000340 0e c8 33 bd 6f 9d 11 bd ca 40 b8 bd f6 dc 80 bd
       -0.04389196 -0.03555053 -0.089967325 -0.06292145
000350 7f de b1 bd 49 2d bd bb 3c 0c a5 3a 72 68 ca bc
       -0.08685016 -0.0057732207 0.0012592147 -0.024708007
000360 62 e0 85 bd 8e 8b b3 3d 97 23 03 bd 0d 3a 3a 3d
       -0.06536938 0.08766852 -0.032016363 0.045465518
000370 0c 76 89 3d c6 61 81 bd 2f 90 51 bc 7d 25 62 3d
       0.06711969 -0.06317477 -0.012790724 0.055211533
000380 fb 95 bd 3d ef a0 38 bc d2 c5 8e 3d cc 28 9a bd
       0.09257122 -0.011268838 0.06971325 -0.07527313
000390 91 0f 80 bd 93 11 a4 3d 75 c5 14 bc ad a0 c1 3d
       -0.06252969 0.080111645 -0.009080281 0.094544746
0003a0 f6 ff d7 3b d4 72 22 bd 6d db b8 3d 4c 00 aa 3d
       0.006591792 -0.03966029 0.09026227 0.08300838
0003b0 6e 5b 0c 3c 41 69 71 bd e6 d7 ff bb bc 3a 3f bd
       0.00856672 -0.05893827 -0.0078077195 -0.046686873
0003c0 9a 04 8e 3d 99 fc 89 3b 70 43 a3 3c 28 ef 6c 3d
       0.069344714 0.00421102 0.019929618 0.057845265
0003d0 ba d5 fd 3c c2 bc 75 bd 9a 65 a3 3d a4 f9 6e 3d
       0.030985702 -0.059994467 0.07978363 0.058343545
0003e0 57 46 74 bd ca e0 95 3d fa cb dd 3c 26 75 9c bc
       -0.059637394 0.07318266 0.027074803 -0.01909883
0003f0 0d a2 8d bd 76 e1 88 bc d5 4c c0 bd 29 9e 5a 3d
       -0.06915674 -0.01670907 -0.093896545 0.05337349

tpcnns.2.bias f4 [12]
000000 1a 08 23 3d 3a 95 bf bd 84 d6 e9 bc 14 5d 1f 3d
       0.039802648 -0.093546346 -0.028544672 0.038907126
000010 68 c2 21 bc 31 0a 08 bd de c1 68 bd b4 14 ad 3d
       -0.00987301 -0.033212844 -0.05682551 0.084512144
000020 74 20 a6 bd ab a5 a0 bd ec b1 7d 3d 05 1b 6f bd
       -0.08111659 -0.07844099 0.061937258 -0.058375377

tpcnns.3.weight f4 [12, 12, 3, 3]
000000 0a e7 6d 3d d8 41 58 bd e4 9d 58 bc 94 ff 3e bd
       0.058081664 -0.05279717 -0.013221238 -0.046630457
000010 86 8d 9f 3d 70 4a 88 3d 9d 39 9c 3b c9 43 42 3b
       0.07790665 0.06654823 0.00476761 0.0029642454
000020 e3 83 14 bd 1d 4e 51 bd 0a bf 15 bd fe 53 02 3d
       -0.03625859 -0.051099885 -0.036559142 0.031818382
000030 56 20 8e bc 55 f3 86 3d 55 9b 65 3c bc 6d 75 3a
       -0.017349403 0.06589381 0.014014085 0.000936236
000040 06 19 75 bd c8 01 1f 3d 12 13 b8 bd d0 02 b6 3c
       -0.059838317 0.038820058 -0.089880124 0.022218138
000050 92 c2 0c 3d 62 d5 8f 3c 35 55 8a 3d 83 8a be 3c
       0.034365244 0.017557804 0.06754533 0.023259407
000060 49 16 dc bc 26 94 89 bd 93 a2 b6 bd d9 72 45 3d
       -0.026866095 -0.0671771 -0.08917727 0.04820523
000070 9f 95 54 3d ee 6f 96 bd d0 f5 d1 3c 65 85 0f bd
       0.051900502 -0.07345568 0.025629908 -0.035039324
000080 e6 52 a6 3d 22 37 08 bd 18 02 a3 3d ec ab 8b 3d
       0.0812128 -0.033255704 0.07959384 0.06819901
000090 51 af 59 3d 19 6f 86 3d fc e1 f4 3c ec b9 03 3d
       0.05314571 0.06564159 0.029892914 0.03215973
0000a0 e9 a6 a7 bd a7 0d b5 bc 21 f3 34 bc b9 66 42 3d
       -0.081861325 -0.022101237 -0.011044295 0.047461245
0000b0 fd 9d 18 bd 07 06 32 3d 9e 92 85 3d 89 1a 2a 3d
       -0.037260044 0.04346278 0.06522106 0.041529212
0000c0 5a 9c 48 3d fd ad 5d bc 0d 94 3b 3d c6 5d 07 bd
       0.048977233 -0.013530252 0.04579549 -0.033048414
0000d0 05 e2 aa 3d 16 97 16 bb 11 b3 b8 bb e5 7a ad bd
       0.08343891 -0.0022978238 -0.0056365808 -0.08470706
0000e0 d1 19 b6 3d 28 1e 63 bc d3 96 91 3d b3 22 81 bd
       0.08891643 -0.01386217 0.071088456 -0.063054465
0000f0 fc ec a3 bd ef ac 71 bc 58 b1 9c bd 18 9b 98 3c
       -0.080041856 -0.014750703 -0.07651013 0.018628642
000100 c3 2f b3 3a c7 16 11 bd ac 5c 75 3d fd 7f 7d 3d
       0.001367085 -0.035422113 0.059902832 0.061889637
000110 c0 84 ae bd 4d a6 9d bd 41 d0 65 3d 1b 8c 6e bd
       -0.08521414 -0.07697735 0.05610681 -0.058239084
000120 07 0a 97 3c ad 4a cf bc 84 6e 90 3c 93 36 5b bd
       0.018437399 -0.025304163 0.017630823 -0.053518843
000130 9b ae 21 3a 38 f2 0b bd 1d 00 31 bd b2 a2 3d bd
       0.0006167681 -0.034166545 -0.043213 -0.046297736
000140 6a f2 ae 3c b7 52 80 3d 13 9a 39 bb 9a 37 6b ba
       0.021355826 0.062657766 -0.0028320595 -0.0008972824
000150 ed c2 a1 3d da 6d 9f 3d 59 6a 67 bc fb 12 a1 bd
       0.07898507 0.077846244 -0.014124476 -0.07864948
000160 ae 2a b8 3c 38 5b ec 3c 3e 7a 9b bd b3 65 b0 bd
       0.022481289 0.02885209 -0.07591675 -0.086131476
000170 c8 96 23 3c 3f ac bf 3d 36 a6 b1 bd 8d 62 40 bd
       0.0099846795 0.09359025 -0.0867428 -0.046968985
000180 21 2c 08 bd 0c 74 ad bd 47 2a 73 bd 27 9a 9a 3d
       -0.03324521 -0.084694 -0.05936649 0.075489335
000190 52 f6 95 3d 76 d5 90 bd 04 e6 f6 3a 01 fa a0 bd
       0.073223725 -0.070719644 0.001883686 -0.078601845
0001a0 86 79 24 3d a5 ce 86 bd de e4 48 bd 09 cd 36 bd
       0.040154956 -0.06582383 -0.04904639 -0.04462913
0001b0 58 c5 63 3c da fa 82 3d 39 15 23 bd 95 ab 8d 3c
       0.013902031 0.063955024 -0.03981516 0.01729373
0001c0 66 c1 9c 3d e9 f1 b3 bb 0b 16 22 3c 7c 16 dc 3b
       0.07654075 -0.0054914844 0.009892951 0.0067165475
0001d0 95 f6 90 ba 0f 3a 6b 3d 29 eb 53 3d 36 7a 53 bd
       -0.0011059815 0.057428416 0.051737938 -0.05163022
0001e0 40 c6 bb 3d a8 d7 5c 3d 12 05 74 bc a8 15 ab 3d
       0.091686726 0.053916603 -0.014893787 0.0835374
0001f0 32 3e a9 3b dd 59 77 3d 1d 6b a7 bd 70 10 b0 3d
       0.005164885 0.060388435 -0.08174727 0.08596885
000200 7b 0b ba 3d aa fb 93 bd 2f 8a b0 bd 7a ce e2 bc
       0.09084221 -0.072257355 -0.086201064 -0.027686346
000210 75 d1 72 bd 1b df cd 3c cf 7e 2f 3d 82 74 49 bc
       -0.059281785 0.025130799 0.042845543 -0.012295844
000220 61 75 8a 3d f8 5e 82 3b cb 00 e8 bc e3 44 a8 bd
       0.067606695 0.0039786063 -0.02832069 -0.08216264
000230 36 2c fc 3c 9a e5 b9 bd 38 52 1e ba 50 37 66 3c
       0.0307828 -0.09076996 -0.0006039473 0.014051273
000240 52 24 5e bd cc a3 e5 3c 9b fe 9a 3c e9 a5 83 3d
       -0.054233856 0.028032206 0.018920233 0.06428129
000250 67 68 71 3d 3d 9a 9f bd 95 62 93 bd e4 18 13 bd
       0.058937456 -0.077930905 -0.071965374 -0.03591241
000260 c6 67 8e bd 15 16 f5 3c fd 2f 82 bd 19 24 96 bd
       -0.06953387 0.029917756 -0.06356809 -0.07331104
000270 46 61 e3 3c db 7a 6b 3d 74 63 e4 bc ea 3a c4 bd
       0.027756345 0.05749021 -0.027879454 -0.095815495
000280 d3 c6 52 3c 84 44 4a 3d 45 55 98 3d f0 29 0b 3c
       0.012864786 0.049381748 0.07438139 0.008493885
000290 98 f5 88 3d 0f 44 b1 bd e0 d2 b9 3d 86 17 7e bd
       0.06687468 -0.08655559 0.09073424 -0.062034152
0002a0 52 2c 87 bd 65 d7 8b 3d 9a 52 ae bc 30 b7 70 3d
       -0.0660025 0.068281926 -0.021279622 0.05876845
0002b0 cb 54 8a bd a3 42 94 3d 75 b3 b9 3d cf 5f ea 3c
       -0.06754454 0.072392724 0.09067432 0.028610138
0002c0 7f 20 9d 3d 2f c9 8d bd df 46 b2 bc 0c 3f ec 3c
       0.07672214 -0.06923138 -0.02176231 0.028838657
0002d0 26 de 59 3d b7 3a 54 bd 08 06 7d 3d 3f e7 06 bd
       0.053190373 -0.051813807 0.06177333 -0.032935377
0002e0 e8 23 56 bd 28 a3 93 3c 5a cd 9e bd 88 80 b7 bd
       -0.052280337 0.018022135 -0.077540115 -0.08960062
0002f0 40 87 f7 3c 52 f9 03 3d 0b 3c 18 3d db 1c 51 bc
       0.03021586 0.032220192 0.037166636 -0.012763227
000300 5f a0 90 bd 92 0e 9f bd fc 3f bc 3d 20 31 ab bd
       -0.07061838 -0.07766451 0.091918916 -0.08358979
000310 85 34 ee 3c b4 a6 9e 3d 77 93 94 3d 11 8b 79 bd
       0.029077778 0.0774664 0.07254689 -0.06092364
000320 ce 42 fb bc 30 5a 9e bd dd 4e 73 3d a5 e0 b9 bd
       -0.030671503 -0.07732046 0.05940138 -0.09076051
000330 20 48 b6 bd 76 8e 85 bd e7 be 9f 3d 51 b4 7f 3d
       -0.089004755 -0.06521313 0.078000836 0.062427823
000340 32 83 84 3d c6 07 97 3d e2 69 36 bd 14 12 5b bd
       0.06470336 0.073745295 -0.04453457 -0.053484038
000350 c5 ae 71 bd f4 23 02 3d e9 10 1a 3d c2 c8 a4 3c
       -0.059004564 0.03177257 0.037613783 0.02011526
000360 89 60 97 bd 7c 55 0f 3c ff e5 50 bd a0 0d 9b bc
       -0.073914595 0.008748408 -0.05100059 -0.018927395
000370 b2 94 74 bc 1f 27 a3 3b e8 66 ad bd 75 de a7 3d
       -0.01492803 0.004979029 -0.084668934 0.08196727
000380 27 35 28 bd 6c a4 fa 3c f3 6f 87 3d a8 a6 1f 3d
       -0.041066315 0.03059598 0.066131495 0.038977295
000390 26 a0 89 3d fd 14 60 3d a9 3f 90 3d 7a 8c a5 3c
       0.06719999 0.054707516 0.07043392 0.020208586
0003a0 8d 80 7b 3d 78 22 2b bd f8 f2 55 bd c9 ca 39 3d
       0.061401892 -0.04178092 -0.052233666 0.045359407
0003b0 02 06 d0 3c a3 56 70 bb e9 b6 a9 bd 04 2f 00 3d
       0.02539349 -0.0036672733 -0.082868405 0.031294838
0003c0 e6 12 7e 3d 0f 6a 3b bc 1a c8 b3 3c 87 49 2f 3d
       0.06202974 -0.011438861 0.021946002 0.04279473
0003d0 6c 5f c3 bd 85 25 83 bc 61 b6 12 bd a9 a9 4a bd
       -0.09539685 -0.016009102 -0.03581846 -0.049478207
0003e0 9c 48 70 3d 7f fd c3 3d 27 dd 79 3c 89 8e 74 3d
       0.058662996 0.09569835 0.015250481 0.059706245
0003f0 cd e2 91 bd a5 67 8a 3c 58 bb 45 bc f0 40 74 bd
       -0.07123337 0.016895125 -0.012068592 -0.05963224

tpcnns.3.bias f4 [12]
000000 7e 14 01 3d 36 e7 9e bc cb 62 7a bd a9 25 8b bd
       0.031513683 -0.01939736 -0.061129373 -0.067942925
000010 74 5e 9c bc f6 d6 ca 3c 55 97 25 3d f1 ff d9 bb
       -0.019088008 0.024760704 0.040427525 -0.006652825
000020 09 db 9b 3d e9 ad 3d bd 9a 00 3c 3c fc f7 42 bd
       0.07610137 -0.04630843 0.011474753 -0.047599778

tpcnns.4.weight f4 [12, 12, 3, 3]
000000 4a d1 d3 3c 38 31 a8 3d 08 1b 0a 3d 40 44 d3 3b
       0.025856633 0.08212513 0.033717185 0.006447345
000010 d9 0d 11 bd 95 af a1 bd 2d db 86 bd 46 0b a9 bd
       -0.035413597 -0.07894818 -0.06584773 -0.08254103
000020 d5 10 8c 3d bb 6c 24 bd 87 e4 6b bc 3f 98 b0 bd
       0.06839148 -0.040142756 -0.014397747 -0.08622789
000030 73 cd db bc b3 9e a7 3d b2 ec 90 3c da c1 8c bc
       -0.026831364 0.08184566 0.01769099 -0.01718228
000040 96 6d 4d 3d 4d ee 97 3d 3d 5a 99 3d 83 cf 91 bd
       0.050153337 0.07418499 0.07487915 -0.07119658
000050 09 62 e2 3b bc d3 a1 bd b2 df 87 bd 7a 53 97 3d
       0.0069086594 -0.07901713 -0.06634463 0.07388969
000060 32 02 9d bd b8 4a 41 bd 4e 04 3d 3d 27 be bf 3d
       -0.07666434 -0.047190398 0.046146683 0.093624406
000070 97 6f bf bd 4f 54 7e bd fc 8d 1a bd 37 a9 98 3d
       -0.09347456 -0.06209212 -0.037733063 0.0745415
000080 30 b1 65 3d 03 b7 75 3d 4f 8c 7c 3d bb 46 c5 bc
       0.056077182 0.059988987 0.061657246 -0.024081578
000090 5a 4e 91 3d ea 34 31 bb 67 1f 14 3c 6a 0b d1 bc
       0.070950225 -0.0027039596 0.00904069 -0.025518138
0000a0 92 32 27 3d d3 01 30 3d 76 1d 27 bc cc 7c ad 3d
       0.040819712 0.04297049 -0.010199895 0.08471069
0000b0 0c 27 cc bc 2b 85 c7 3c 60 fd b2 3d 44 10 5e 3d
       -0.024920963 0.024355492 0.08739734 0.05421473
0000c0 9c 85 0f bd 77 89 32 bd 32 22 98 3c d4 2c 3f ba
       -0.03503953 -0.043588128 0.018570993 -0.00072927517
0000d0 70 e9 dd 3b b3 e3 7d 3d 4e c5 09 3d bc 0c 5d bd
       0.0067722127 0.06198473 0.03363543 -0.053967223
0000e0 62 e6 a0 bd fa 4f ba 3d 03 90 2d bc a7 46 1b bd
       -0.07856442 0.090972856 -0.010593417 -0.037909176
0000f0 4a bd 90 bd b8 3d bd 3d 58 e2 46 3d a3 db 79 bd
       -0.07067354 0.092402875 0.048555702 -0.061000478
000100 ab 33 aa bd b0 32 ab 3d 5a b1 29 3d 59 94 67 bc
       -0.08310636 0.08359277 0.0414289 -0.01413449
000110 fd c7 a3 bd ac e3 6e 3d 45 c6 85 bd 31 ae 41 3d
       -0.07997129 0.058322594 -0.065319575 0.047285262
000120 08 2c bb bd 61 b5 af bd 98 0d bd bd be a6 b2 3d
       -0.09139258 -0.08579517 -0.092311084 0.0872321
000130 8c 15 b3 3d da 27 a8 bd 4d 57 98 3d 3d 91 6f bd
       0.08744344 -0.08210726 0.07438526 -0.05848812
000140 82 25 b7 bd d7 ae 3d 3d fd 6b 5f 3d 83 68 5f 3d
       -0.08942701 0.04630932 0.054546345 0.05454303
000150 19 57 8a 3c e8 20 bd 3d 28 c4 a9 bd fd d9 35 3d
       0.016887235 0.09234792 -0.08289367 0.044397343
000160 e8 ca f9 bc f1 b9 9b 3b 82 ea 87 3d 39 1f 8d bd
       -0.030492261 0.0047523906 0.06636526 -0.06890721
000170 4f b9 2c 3d 2e 73 9d bc b6 ef 7e 3d 4a 99 25 bb
       0.04216891 -0.019219961 0.062240325 -0.002526837
000180 e1 8b 43 3d 05 16 bd 3d 17 ba 0c bd 3f 1f c2 bd
       0.04774082 0.092327155 -0.034357157 -0.09478616
000190 f4 e3 b9 3d 05 ff 58 bd e3 24 b4 3c 1e 21 75 3d
       0.09076682 -0.05297758 0.021990245 0.059846036
0001a0 60 d4 74 bc 1e 04 9a 3d 31 6c 7f 3d c1 b3 9e bc
       -0.014943212 0.075203165 0.06235904 -0.019372823
0001b0 20 ad ce 3c 17 f4 ee 3b 52 ca c0 3d c1 6f 88 3d
       0.025229037 0.0072922814 0.094135895 0.0666194
0001c0 90 41 83 bd 55 e7 17 3c f7 94 54 3d f2 a8 96 3d
       -0.064089894 0.009271462 0.051899876 0.073564425
0001d0 40 92 06 3d d1 79 27 3d cb 8a 91 bc e9 c7 08 3b
       0.03285432 0.040887658 -0.017766377 0.002087111
0001e0 6d 64 88 bd 36 3c a2 3d 06 2e 9b 3d c1 07 59 bd
       -0.0665978 0.079216406 0.07577138 -0.05298591
0001f0 28 b8 a8 bd 01 ac 99 3d 12 aa ae bd e7 c4 7c 3d
       -0.0823825 0.0750351 -0.08528532 0.06171122
000200 f4 f3 bf bd 11 81 49 bd 34 e0 26 bd d4 34 b9 3d
       -0.09372702 -0.049195353 -0.04074116 0.09043279
000210 5c 63 85 bc 32 fd a9 3d 01 07 e5 3c bf ea be 3d
       -0.01628273 0.08300246 0.027957441 0.09322118
000220 33 87 82 3d de 22 91 3d 79 d0 ab 3d 9e e5 e8 bc
       0.063734435 0.070867285 0.083893724 -0.028429803
000230 94 bb d8 bc 3c fd fd 3c 37 9b ad 3d be 0b 11 bd
       -0.026456632 0.03100454 0.084768705 -0.03541159
000240 69 04 9b bd cc 28 9a bd 7a 17 36 bd 0e 90 7b 3c
       -0.075692005 -0.07527313 -0.044455983 0.0153541695
000250 76 70 36 bc 91 37 d2 bc 34 42 38 bd ab 08 cd 3c
       -0.011135211 -0.025661262 -0.04498501 0.025028547
000260 3b 54 a2 bd 7f e1 c1 3d 6c 28 74 bc 2c 15 93 3c
       -0.07926222 0.09466838 -0.014902215 0.017954431
000270 83 d6 01 3d 06 5b 19 bd 76 86 9b 3d cc f4 3a ba
       0.031698715 -0.037440322 0.07594006 -0.00071318145
000280 bb 54 01 3c 17 9a bb bd f7 24 43 3c 2c 3d 07 3d
       0.0078937365 -0.0916025 0.011910669 0.033017322
000290 44 b0 5b 3c 40 3e 1c bc 31 ce 94 3d b5 cd 9b 3d
       0.013408724 -0.009536326 0.072658904 0.07607595
0002a0 a6 ac 87 3d 7f d0 88 bc 9e 2b 88 3c dd 98 89 bd
       0.06624727 -0.016700981 0.01662236 -0.067186095
0002b0 ba 88 93 bd 2c c5 89 bc fc 37 30 3c 3b 91 65 bd
       -0.07203813 -0.016817652 0.010755535 -0.056046706
0002c0 00 7e a4 bd dd 4c 33 3d 13 1a 10 3d 39 34 82 bd
       -0.08031845 0.043774474 0.035181116 -0.06357617
0002d0 0b 23 83 3d 3e 4d 93 bd 20 13 95 3d 20 62 51 3d
       0.06403168 -0.07192467 0.072790384 0.05111897
0002e0 a1 34 05 bd f1 9e bb 3d 57 4c 5d bd e5 09 34 bd
       -0.032520894 0.09161175 -0.05402788 -0.04395475
0002f0 5c 12 9d 3d c6 1f cb bc 0d 30 1f bd 9f f1 73 3c
       0.076695174 -0.024795424 -0.038864184 0.01488915
000300 07 33 85 bc a7 4d 78 3d 86 e4 a0 3d d1 51 2f 3d
       -0.016259683 0.06062093 0.078560874 0.042802636
000310 95 7a aa 3c 2e 07 c6 3c 4b 2f 24 3b 30 25 39 3c
       0.020810405 0.024173345 0.0025052603 0.01130037
000320 85 7f ef 3a 55 61 86 3d c1 68 5c 3d 04 83 1e bc
       0.0018272257 0.06561533 0.05381084 -0.009674791
000330 38 d6 14 3d 5c 62 ae 3b 15 48 0b 3d 34 cb a1 3d
       0.036337107 0.005321784 0.03400429 0.07900086
000340 b0 14 86 bd cb 0a 60 3c 63 fe a3 bc 5f a8 c0 bd
       -0.065469146 0.013674448 -0.020018762 -0.09407114
000350 1b 7f bf bd 8e 6e 4e bc d7 0b 8d 3d c3 f1 81 bd
       -0.09350415 -0.0125996005 0.06887024 -0.063449405
000360 a3 62 00 3d 54 29 63 3d c0 a3 8f bd b9 44 29 3d
       0.031344067 0.055459335 -0.07013655 0.041325305
000370 36 c6 94 3c f5 69 b3 bd a0 7e f2 ba 8a 02 b9 bd
       0.01816092 -0.08760444 -0.0018500872 -0.090336874
000380 40 4c ac 3d a1 b9 38 3d 00 05 17 3d 7c 4b 97 3d
       0.08412981 0.045098905 0.036870003 0.073874444
000390 16 b6 96 3d ed a3 c3 3d 3a 9d 22 3d 8d 47 8e bd
       0.07358949 0.09552751 0.039700724 -0.06947241
0003a0 72 0b b7 3d 99 f8 da 3c 7a 5e 1b bd 2d af 12 bd
       0.0893773 0.026729869 -0.037931897 -0.035811592
0003b0 8d 67 b8 3d ee 1b af 3c 0e 3d 8f 3d bc e8 f5 3b
       0.09004126 0.021375623 0.06994067 0.0075045507
0003c0 08 0a b6 3d 9a 33 90 bd 4c df bb 3c d7 18 bc 3c
       0.08888632 -0.07041092 0.022933625 0.022961063
0003d0 53 76 91 ba b3 4e af 3d 8b 4b 9e 3c 65 ce aa 3b
       -0.0011097885 0.085599326 0.019323131 0.0052125924
0003e0 82 81 86 3d d8 ec f8 bb 7e b9 cb bb ac 79 a2 bd
       0.065676704 -0.0075965934 -0.0062171808 -0.07933363
0003f0 3a 44 25 ba 47 f9 37 bd e0 32 64 3d 0b 70 ab 3d
       -0.0006304417 -0.044915464 0.05571258 0.0837098

tpcnns.4.bias f4 [12]
000000 63 f6 99 bd 59 80 db b9 5a b1 54 bd 83 67 5f bd
       -0.07517698 -0.00041866562 -0.051926948 -0.054542076
000010 74 c4 66 bd e8 cb 3e bd 9d 66 6a bd 84 8c 57 bd
       -0.056339696 -0.04658118 -0.057226766 -0.05262424
000020 96 92 0f bd 4f 10 b4 bd 22 be 9d 3d 2f 72 04 3d
       -0.035051905 -0.08792173 0.077022806 0.032335456

tpcnn_ouput.weight f4 [12, 12, 3, 3]
000000 cd 1e c3 bd f3 70 c5 bd 65 06 45 bd 18 4b 16 3d
       -0.09527359 -0.09640684 -0.0481018 0.03669271
000010 38 0d b0 3d 5d 0d 80 bc db 78 6a 3d 9b 79 52 bd
       0.08596271 -0.015631372 0.057244163 -0.051385503
000020 38 55 9e bc bf e0 74 bc af b9 c0 bd 19 14 20 3a
       -0.019327745 -0.014946162 -0.09410416 0.00061065104
000030 fb 8e d2 3c 3d 84 71 3d 42 f0 97 bd 84 89 e6 bc
       0.025702944 0.058964003 -0.074188724 -0.028141744
000040 5c f6 80 3b 63 96 28 3c 93 8c 7d 3c ad 46 92 bd
       0.0039356183 0.010289761 0.01547541 -0.071423866
000050 ba 2c 98 3d f4 ce af bd fd ba 04 bd c1 b6 45 3d
       0.07430406 -0.08584395 -0.03240489 0.04826999
000060 be b8 c0 bc 1b 70 3a bd 9f c5 bf bd f0 5e 86 3d
       -0.023525592 -0.04551707 -0.09363865 0.06561077
000070 8f ed 15 bb 0d 09 3e 3d 21 2e 78 3c 59 94 90 bd
       -0.0022877192 0.04639535 0.015147717 -0.07059545
000080 99 96 08 bd 27 c4 8c 3d d5 47 3d bd a2 8d 33 bd
       -0.033346746 0.068733506 -0.046211082 -0.043836243
000090 81 de 55 3d 41 77 2b bd 28 78 75 3c 3f b3 3f bd
       0.05221415 -0.041861776 0.014982261 -0.0468018
0000a0 f3 be ec 3c 83 32 21 3c df 8c 9a bd 34 40 94 bd
       0.028899645 0.009838703 -0.075464 -0.07238808
0000b0 ea 3b 12 3d a6 36 01 bd 44 11 56 3d 54 c3 8b 3b
       0.03570167 -0.031546257 0.05226256 0.0042652283
0000c0 a6 32 07 bd c4 d7 8e bc 75 fe 33 bd 68 e7 43 3d
       -0.033007286 -0.01743687 -0.04394384 0.047828108
0000d0 1c 7e 9d 3d 6d 70 b3 ba f7 9c 7d bd f9 08 8a 3d
       0.07690069 -0.0013690122 -0.06191727 0.06739993
0000e0 8e e2 9d 3d 78 4b 82 3d 78 2d 0d bb ee 46 ba 3c
       0.077092275 0.06362051 -0.0021541994 0.0227389
0000f0 ee 86 ca 3b a2 5e 0e bd 7f 81 be bd 53 72 35 bc
       0.0061806357 -0.034758218 -0.09302043 -0.01107462
000100 aa 6f 27 3d 9d 01 64 3d e5 5c b2 3c 62 65 2f 3d
       0.040877976 0.0556656 0.021772811 0.042821296
000110 3f 13 73 3d 05 49 96 bc cf 1d 81 3d c6 03 e3 ba
       0.059344526 -0.018345365 0.06304514 -0.001731985
000120 ca f1 0a bd d5 12 1a bd 3c 89 62 bd ea 41 95 bd
       -0.033921994 -0.037615616 -0.05530666 -0.07287963
000130 b4 c6 af 3c c5 98 b2 3d a0 74 64 3c 9c 46 5d 3c
       0.021457054 0.08720545 0.013943821 0.013505604
000140 93 80 0f bd d4 b1 1c bd df d2 f8 bc 0c 27 09 3d
       -0.035034727 -0.038255528 -0.030373989 0.033484504
000150 ad 55 83 3c 7e 7e 0d bd 10 ea 97 3c 0b 80 7f bc
       0.016032064 -0.03454446 0.018544227 -0.015594493
000160 fe a2 d0 bb 17 a1 89 3d 8f ae 20 bd cd ac b5 3d
       -0.0063670864 0.067201786 -0.039228972 0.0887085
000170 33 6a 56 bd e3 df b3 3d 0a dd 10 3d f8 2f 1b 3d
       -0.052347373 0.087829374 0.03536705 0.037887543
000180 a4 de b3 bc fe 11 cc bc 1a f4 8b bd 0a be bc bd
       -0.02195675 -0.024910923 -0.06833668 -0.092159346
000190 8f a0 89 3d ea 0c bf 3d fb 34 e0 3c 48 f0 13 bd
       0.06720077 0.09328635 0.027369013 -0.036117822
0001a0 45 c8 ae 3c 46 f3 66 bb 29 3c aa bd ad 76 9e bd
       0.02133573 -0.0035240217 -0.08312256 -0.07737479
0001b0 87 b2 09 3d 97 5a e5 bc 5e df b5 bc a7 d2 68 bd
       0.033617523 -0.027997298 -0.022201236 -0.05684152
0001c0 f9 fc 2c 3d 80 87 41 bd e0 49 f6 bc 0e bd 52 3d
       0.04223344 -0.047248363 -0.030064523 0.051449828
0001d0 75 88 bc 3d 6c 7b af 3d 0e 7a 18 3d 21 b3 25 3b
       0.092057146 0.08568463 0.037225775 0.002528377
0001e0 97 0a 93 3d 42 2a ab 3d d8 1f 31 3d 07 01 e9 3c
       0.07179754 0.083576694 0.04324326 0.028442873
0001f0 6e 91 b9 3c 14 03 1e 3c 08 25 83 3d 4c 04 e3 3c
       0.022652354 0.009644289 0.064035475 0.02771201
000200 f4 88 a4 bd 8f 9c 62 bd 64 ef b1 bd cc f4 eb bc
       -0.08033934 -0.055325087 -0.08688238 -0.028803252
000210 3a 93 b7 3b 29 97 21 bd 5c d2 b3 bd 72 13 7c bd
       0.0056022676 -0.0394508 -0.08780357 -0.061541982
000220 14 d2 28 3d 13 d6 d6 bb 05 42 82 bc a0 5e 81 3c
       0.04121597 -0.0065562814 -0.015900621 0.015792191
000230 a8 ed a5 bc 50 c7 53 bd 1e d0 31 bd ad d8 1f bd
       -0.020254925 -0.05170375 -0.043411367 -0.039024998
000240 dc d8 b3 bd d9 2b b2 bd f2 99 13 bd d3 26 13 3d
       -0.08781597 -0.086997695 -0.036035486 0.035925698
000250 4b ab be 3d 10 a6 2b bb e8 99 87 3d d7 9a 02 3d
       0.09310015 -0.002619151 0.06621152 0.031885948
000260 de 9a 9c bd 27 cc 3b bd 5d 87 bd bc 7b 47 9c bd
       -0.07646726 -0.04584899 -0.023135835 -0.07630821
000270 8f 69 82 3c ae 4f c7 3c 70 a1 96 bd ae 0e 97 bc
       0.015919475 0.024329986 -0.073550105 -0.018439617
000280 33 e4 a8 bd ce da c3 3d 79 72 6b 3d 98 c7 11 bd
       -0.082466505 0.09563218 0.057482217 -0.035590738
000290 05 3f a8 3d 3c f7 70 bd 15 4e a4 3d b8 ad 1c bd
       0.08215145 -0.05882953 0.080227055 -0.03825161
0002a0 1e 28 ec 3c 74 94 85 3d a7 60 34 3d a3 f6 bf 3c
       0.028827723 0.06522456 0.044037487 0.023433035
0002b0 49 e3 27 bc 89 28 8c 3a a5 6f a6 3d 24 f0 01 bd
       -0.01024706 0.0010693233 0.08126763 -0.031723157
0002c0 47 c5 f8 bc d3 25 49 3c c4 06 3f bd 46 b6 16 bd
       -0.030367507 0.012277084 -0.04663731 -0.036794923
0002d0 ad 8c 1d 3c a5 38 93 3d 35 5c 03 3d e8 91 69 bd
       0.009616059 0.071885385 0.032070357 -0.057023913
0002e0 2b 98 6c 3d 42 07 10 bd d0 de d4 3c b4 76 b0 3b
       0.057762306 -0.03516317 0.025985152 0.0053852443
0002f0 0f 4b 8a 3d e0 73 ac bc e0 b2 18 bd 29 55 95 bc
       0.067525975 -0.021051347 -0.037279963 -0.018229084
000300 46 24 bb 3a 66 65 35 bd 68 40 87 3d 1b 35 4f bd
       0.0014277778 -0.044286154 0.066040814 -0.050587755
000310 8d 83 7a 3c 75 7d 95 bd 23 72 21 bc a1 d6 9a bc
       0.015290153 -0.0729932 -0.0098538725 -0.018901171
000320 99 e4 1a bd 01 6a 54 3d 4a 36 ad bd 2a ec 27 3c
       -0.037815664 0.051858906 -0.084576204 0.010249177
000330 e2 62 e3 bb 79 65 49 bd cd f4 96 3d da 2d 78 3d
       -0.006939278 -0.049169037 0.07370911 0.060590602
000340 2d 4b f1 3c 63 97 c0 3a dc df 59 3d 18 7c 2a bd
       0.029454792 0.0014693554 0.053192005 -0.04162225
000350 1a b6 9f bd ac aa bc 3d 96 fb 12 bd eb db 9e 3c
       -0.07798405 0.092122406 -0.035884462 0.019391974
000360 5f e4 f2 3a 42 65 a3 3d ed d0 c0 3d 4f e2 82 bd
       0.0018531195 0.07978298 0.094148494 -0.06390821
000370 34 86 2b bb b9 a6 a1 bd 1b 58 7a 3d d5 82 b8 3d
       -0.002617252 -0.07893128 0.06111918 0.09009329
000380 05 2c 1c bd 97 f4 89 3c 96 57 b8 bc bf 8f bd bc
       -0.038127918 0.016840262 -0.022502702 -0.023139833
000390 60 cc 9a 3d bb 9b b9 bd a0 65 6b bc a3 b6 a8 b9
       0.07558513 -0.09062906 -0.014367491 -0.00032179532
0003a0 08 be ad bd f9 fd 1f 3d 15 5e 82 3d 0f 5c 9c bd
       -0.08483511 0.039060567 0.06365601 -0.07634746
0003b0 4f 7b 12 3d 5d 8f e4 bb 4f 3d b4 3d 0f ff bb bd
       0.035762127 -0.006975098 0.08800756 -0.09179508
0003c0 82 ce a3 3d 73 44 1a bd 74 e8 a1 3d a9 a1 48 bd
       0.079983726 -0.037662935 0.07905665 -0.048982296
0003d0 2a d8 7d 3c 4b be b5 3c f5 55 6e 3d 98 cf 30 3d
       0.015493432 0.022185465 0.058187444 0.043166727
0003e0 66 12 56 3d 78 7e a9 bc 1d c3 9d bd 82 05 84 39
       0.05226364 -0.020690188 -0.077032305 0.00025181106
0003f0 f4 69 b0 3d b6 ce a4 3d a9 fc 6d bd eb dc 84 3d
       0.08613959 0.080472395 -0.058102284 0.06487449

tpcnn_ouput.bias f4 [12]
000000 3e 3a 66 3c db 08 86 3c 0e 69 b4 bd fe 3a 91 3d
       0.014051972 0.016361644 -0.088091 0.0709133
000010 c6 87 ed 3c ea 88 39 3b f5 44 06 3d ab 28 28 3b
       0.028995406 0.0028310367 0.032780606 0.0025659006
000020 16 9e 4c bd d6 47 aa bc 31 5d a3 bd c0 26 8f 3d
       -0.04995545 -0.020786207 -0.07976759 0.06989813
