saved_models/eth_tag/model_epoch_2.pth (torch, 43263 bytes, 30 tensors)

st_gcns.0.gcn.conv.weight f4 [5, 2, 1, 1]
0.5402652 0.58686477 -0.1652693 0.6496158 -0.15364885 0.14330742 -0.34411508 0.4151294
0.62282157 -0.518432
00000000: d24e 0a3f c53c 163f 5b3c 29be 394d 263f
00000010: 2056 1dbe 2ebf 123e da2f b0be d78b d43e
00000020: 3c71 1f3f f6b7 04bf

st_gcns.0.gcn.conv.bias f4 [5]
0.6149557 0.13253243 0.5226256 0.096889764 0.34240097
00000000: bd6d 1d3f 95b6 073e cbca 053f 246e c63d
00000010: 2e4f af3e

st_gcns.0.tcn.0.weight f4 [5]
0.99996924 1.0001507 0.99839234 1.000609 1.0008727
00000000: fcfd 7f3f f004 803f a496 7f3f f513 803f
00000010: 991c 803f

st_gcns.0.tcn.0.bias f4 [5]
-0.00015981118 0.0005809735 -0.001363891 0.00038934013 0.00027500596
00000000: fd92 27b9 794c 183a 96c4 b2ba 5920 cc39
00000010: ad2e 9039

st_gcns.0.tcn.0.running_mean f4 [5]
0.26993865 -0.0044655707 0.081867896 -0.05648543 0.2199921
00000000: 6635 8a3e ec53 92bb 5baa a73d 445d 67bd
00000010: 9c45 613e

st_gcns.0.tcn.0.running_var f4 [5]
5.719361 2.3331616 1.7253088 1.4894495 4.21283
00000000: 0105 b740 8552 1540 ebd6 dc3f 48a6 be3f
00000010: 81cf 8640

st_gcns.0.tcn.2.weight f4 [5, 5, 3, 1]
-0.03688759 0.19747575 0.03586089 -0.1220853 0.06515384 -0.11924308 -0.031115524 -0.10440237
0.16911507 -0.20519665 -0.11894608 -0.07276919 -0.15386447 0.02327026 -0.257251 0.23239605
-0.21982789 0.19961536 0.0427517 -0.08479108 0.15931542 0.03880598 0.2082762 0.028086904
-0.081860915 0.06864722 -0.07054499 0.107881665 0.23060146 0.15033554 -0.113565855 0.14820406
0.045050796 0.1312171 -0.15919335 -0.25648007 -0.101222105 -0.19836801 0.20915282 0.074306436
0.105120875 0.08042127 -0.004686125 0.20180829 -0.18498568 0.01531475 -0.17703353 0.0794275
-0.08982258 0.078588456 -0.052990843 0.21238722 -0.15286171 -0.15424319 -0.15516594 0.23182194
0.08698766 0.2472126 -0.21424712 -0.2566777 -0.2029439 -0.1745295 0.104770325 0.09306103
0.2120545 -0.1325247 -0.17642274 0.1349595 -0.102879465 0.1573842 -0.06406515 0.14889556
-0.20267946 -0.12894382 0.07727164
00000000: 7117 17bd 1537 4a3e dee2 123d dc07 fabd
00000010: 606f 853d b735 f4bd fce5 febc e9d0 d5bd
00000020: 802c 2d3e 121f 52be 019a f3bd 0308 95bd
00000030: a68e 1dbe 46a1 be3c 67b6 83be 3bf9 6d3e
00000040: 901a 61be f867 4c3e 681c 2f3d f2a6 adbd
00000050: 9523 233e 05f3 1e3d 5b46 553e 8216 e63c
00000060: b2a6 a7bd ea96 8c3d e479 90bd 10f1 dc3d
00000070: ca22 6c3e 8ff1 193e 3795 e8bd cec2 173e
00000080: 2f87 383d c75d 063e 9503 23be 5b51 83be
00000090: 894d cfbd fc20 4bbe 282c 563e f92d 983d
000000a0: 9d49 d73d e8b3 a43d 118e 99bb d5a6 4e3e
000000b0: e36c 3dbe b8ea 7a3c 4748 35be e3aa a23d
000000c0: e7f4 b7bd fcf2 a03d ed0c 59bd 097c 593e
000000d0: c887 1cbe edf1 1dbe d2e3 1ebe bb62 6d3e
000000e0: 9626 b23d 4d25 7d3e 9963 5bbe 426b 83be
000000f0: 87d0 4fbe dcb7 32be d391 d63d c896 be3d
00000100: d124 593e 8eb4 07be 2aa8 34be d332 0a3e
00000110: 78b2 d2bd 5329 213e 9734 83bd 1478 183e
00000120: 348b 4fbe d909 04be 9840 9e3d

st_gcns.0.tcn.2.bias f4 [5]
0.054585192 -0.06583007 0.15390447 0.17552598 -0.18723895
00000000: b994 5f3d ead1 86bd 2299 1d3e 15bd 333e
00000010: 91bb 3fbe

st_gcns.0.tcn.3.weight f4 [5]
0.9957978 0.99491185 0.99260825 0.99293727 0.9938685
00000000: 9bec 7e3f 8bb2 7e3f 931b 7e3f 2331 7e3f
00000010: 2b6e 7e3f

st_gcns.0.tcn.3.bias f4 [5]
-0.000103311504 0.000611922 -0.0019135928 -0.0055068186 -0.0047425153
00000000: f1a8 d8b8 6469 203a 85d1 faba 8b72 b4bb
00000010: 1a67 9bbb

st_gcns.0.tcn.3.running_mean f4 [5]
-0.1291026 0.20121878 0.15148307 0.0919646 -0.25515398
00000000: 7933 04be 4c0c 4e3e 611e 1b3e f057 bc3d
00000010: 8ba3 82be

st_gcns.0.tcn.3.running_var f4 [5]
0.075737245 0.1206287 0.0655702 0.24152744 0.13602906
00000000: 211c 9b3d 2e0c f73d ab49 863d f852 773e
00000010: 344b 0b3e

st_gcns.0.residual.0.weight f4 [5, 2, 1, 1]
-0.37724248 0.64762175 -0.23998185 -0.24935848 -0.68440044 -0.40458754 0.17738219 -0.09189568
-0.51331794 0.015316926
00000000: ed25 c1be 8aca 253f cdbd 75be d457 7fbe
00000010: de34 2fbf 1926 cfbe ada3 353e cd33 bcbd
00000020: ce68 03bf d8f3 7a3c

st_gcns.0.residual.0.bias f4 [5]
-0.48301154 -0.59990704 -0.38937727 -0.6188684 -0.4502418
00000000: 4a4d f7be 8293 19bf 755c c7be 296e 1ebf
00000010: 1886 e6be

st_gcns.0.residual.1.weight f4 [5]
0.99527675 0.99645 0.9943945 0.99342686 0.99404866
00000000: 75ca 7e3f 5917 7f3f a390 7e3f 3951 7e3f
00000010: f979 7e3f

st_gcns.0.residual.1.bias f4 [5]
-0.00010331152 0.0006119222 -0.0019135928 -0.0055068186 -0.0047425153
00000000: f3a8 d8b8 6769 203a 85d1 faba 8b72 b4bb
00000010: 1a67 9bbb

st_gcns.0.residual.1.running_mean f4 [5]
-0.522671 -0.5940538 -0.3870963 -0.61021596 -0.4635139
00000000: c4cd 05bf e913 18bf 7c31 c6be 1d37 1cbf
00000010: b251 edbe

st_gcns.0.residual.1.running_var f4 [5]
0.52465737 0.12637727 0.66722536 0.038058665 0.26538232
00000000: f24f 063f 0b69 013e 48cf 2a3f 67e3 1b3d
00000010: 31e0 873e

tpcnns.0.weight f4 [12, 8, 3, 3]
0.11211834 0.018863382 0.033124205 -0.11086126 -0.0784634 -0.041914757 0.017506484 -0.10393436
-0.050874256 -0.07173567 -0.0018726435 -0.04420911 -0.010326175 -0.08107416 -0.08247803 -0.0700592
-0.042233996 -0.0935102 0.093571685 -0.027475268 0.09754875 0.033397898 -0.10123518 0.07907311
-0.033978224 -0.047134314 -0.0989805 -0.1182663 0.031637523 -0.026842387 0.04206239 -0.097524606
0.08372573 -0.0868973 -0.021817343 0.023289459 0.058211315 0.09145369 0.10336037 -0.09388467
0.026814386 -0.051360685 -0.014682142 -0.08845307 0.10474797 -0.08768997 0.060556628 0.040151563
0.03529166 -0.06572772 0.10382364 0.024515215 0.013021432 -0.10471444 0.047100976 -0.020377161
-0.055523083 0.09757834 0.023660095 -0.06779447 -0.061470777 -0.007578372 0.06282019 -0.03243187
-0.06878335 -0.042595875 -0.088505454 0.03928756 0.08782774 -0.11122761 0.025072936 0.059528347
0.020266233 -0.04324304 0.05895189 0.059729636 0.042389404 -0.022867983 -0.033345763 0.011309876
-0.02193941 -0.035984144 0.07313447 0.09833234 -0.012590929 -0.028277403 -0.0009376513 -0.008231388
0.026341839 0.030026322 -0.10743157 -0.04413179 0.09584451 0.043640085 -0.0065242033 -0.07134062
-0.07267002 -0.10576924 -0.03938128 0.03917032 0.071798325 0.052141543 -0.104648024 -0.07168433
-0.020348193 0.11109215 0.01582219 -0.03246694 0.04810095 -0.046744935 -0.076964825 0.08382175
-0.054814342 -0.025561266 -0.11676197 0.0743647 0.0871989 0.041985363 -0.0834961 -0.116259314
-0.096485004 0.08269187 0.05426948 0.09663636 0.058066897 0.027769811 -0.0034791578 -0.090380915
-0.10205645 -0.11030048 0.04447149 -0.05983951 -0.025466533 -0.06884707 -0.023839444 -0.08280291
-0.07856215 0.037622206 -0.03602763 0.068857685 -0.03876633 -0.086753376 -0.023141501 -0.059189275
-0.03777383 -0.11284451 0.06343333 -0.084289774 0.05392516 0.05014626 0.080883324 -0.090559565
0.080631845 -0.05682448 0.04129915 0.1077307 -0.018054135 -0.0027762316 -0.028614927 -0.099052966
0.052968003 -0.116610475 0.069316685 0.08276608 0.10783716 -0.030828651 -0.09952269 0.021743927
0.061946295 -0.11894823 -0.028618041 -0.07209478 -0.012098269 -0.05870294 -0.05081084 -0.039959967
-0.11333053 0.09295993 0.09285187 -0.0207441 -0.015961938 -0.048234917 -0.10718545 -0.1149528
0.04118723 -0.06630898 -0.077932335 -0.010186995 -0.040351268 -0.03909731 0.0033114234 -0.025180997
-0.042595427 -0.059459645 -0.095120735 0.09470653 -0.048825223 0.0286811 -0.042805474 0.0064616804
0.1050428 0.05020032 -0.10338906 0.04204244 0.108147494 0.026684541 0.07456717 0.11377916
-0.019586477 0.023614043 -0.08371117 -0.024863476 0.085401 0.0580268 -0.076447435 -0.09465991
-0.080907725 -0.11606163 -0.091303 -0.03051639 0.07781339 0.01639317 -0.08965693 -0.095380396
0.05648862 -0.08677737 -0.015850447 0.05550637 -0.054695897 -0.014485522 -0.010065844 -0.02834926
-0.060391273 -0.10509706 -0.09478264 -0.063621104 0.11200021 -0.058033183 -0.08064593 0.025791265
0.031298403 0.06266246 0.08521198 0.063688025 -0.11628228 0.009803715 0.06938367 -0.011577167
-0.069601364 0.11078244 -0.044721626 -0.068654135 -0.10614195 0.0050263116 0.04945008 0.02420104
00000000: 4d9e e53d 6187 9a3c 3fad 073d 3a0b e3bd
00000010: 6bb1 a0bd cfae 2bbd c269 8f3c 8adb d4bd
00000020: 8661 50bd 27ea 92bd 7d73 f5ba 9d14 35bd
00000030: 1e2f 29bc 360a a6bd 3eea a8bd 337b 8fbd
00000040: 8efd 2cbd 4782 bfbd 83a2 bf3d d013 e1bc
00000050: a4c7 c73d 3ccc 083d 6454 cfbd 15f1 a13d
00000060: c02c 0bbd e90f 41bd 4ab6 cabd 9a35 f2bd
00000070: 5996 013d 91e4 dbbc 9d49 2c3d fbba c7bd
00000080: 6578 ab3d 36f7 b1bd 49ba b2bc 89c9 be3c
00000090: fd6e 6e3d 124c bb3d 9aae d33d 9b46 c0bd
000000a0: d8a9 db3c 955f 52bd 5e8d 70bc e226 b5bd
000000b0: 1b86 d63d cd96 b3bd 3a0a 783d f775 243d
000000c0: fd8d 103d 419c 86bd 7da1 d43d 22d4 c83c
000000d0: d857 553c 8674 d6bd f4ec 403d 01ee a6bc
000000e0: 2c6c 63bd 27d7 c73d d1d2 c13c d4d7 8abd
000000f0: c8c8 7bbd fe53 f8bb dfa7 803d 48d7 04bd
00000100: 49de 8cbd 0379 2ebd 5942 b5bd feeb 203d
00000110: 08df b33d 4dcb e3bd c265 cd3c ffd3 733d
00000120: 5f05 a63c 9d1f 31bd 8977 713d 10a7 743d
00000130: 83a0 2d3d a355 bbbc 9195 08bd 0f4d 393c
00000140: 47ba b3bc 1c64 13bd 86c7 953d 7762 c93d
00000150: 2f4a 4ebc 03a6 e7bc b7cc 75ba f2dc 06bc
00000160: d7ca d73c c3f9 f53c 1505 dcbd 89c3 34bd
00000170: 204a c43d f2bf 323d fcc8 d5bb 081b 92bd
00000180: 05d4 94bd 8b9d d8bd 444e 21bd 0f71 203d
00000190: 000b 933d 5f92 553d b451 d6bd 3ccf 92bd
000001a0: 41b1 a6bc 4884 e33d 8a9d 813c 0efc 04bd
000001b0: 8005 453d 9e77 3fbd bc9f 9dbd bdaa ab3d
000001c0: 0185 60bd dc65 d1bc e620 efbd 854c 983d
000001d0: 5695 b23d d8f8 2b3d 0100 abbd 5d19 eebd
000001e0: ee99 c5bd 5b5a a93d ad49 5e3d 49e9 c53d
000001f0: 8ed7 6d3d 847d e33c 9502 64bb a119 b9bd
00000200: f902 d1bd 38e5 e1bd bd27 363d 461a 75bd
00000210: 319f d0bc b1ff 8cbd f04a c3bc 9294 a9bd
00000220: 31e5 a0bd be19 1a3d b591 13bd 4205 8d3d
00000230: 71c9 1ebd c1ab b1bd 3f93 bdbc 7470 72bd
00000240: bbb8 1abd 061b e7bd 55e9 813d 1ea0 acbd
00000250: a1e0 5c3d 2a66 4d3d 28a6 a53d 4b77 b9bd
00000260: 4f22 a53d c9c0 68bd 4c29 293d eaa1 dc3d
00000270: 44e6 93bc 70f1 35bb da69 eabc 48dc cabd
00000280: faf4 583d 79d1 eebd e8f5 8d3d 4381 a93d
00000290: bbd9 dc3d 5e8c fcbc 8dd2 cbbd 5220 b23c
000002a0: 66bb 7d3d 219b f3bd 6270 eabc 6ea6 93bd
000002b0: d137 46bc 7e72 70bd 071f 50bd 10ad 23bd
000002c0: d619 e8bd c761 be3d 1f29 be3d 88ef a9bc
000002d0: 9cc2 82bc fa91 45bd 0c84 dbbd 606c ebbd
000002e0: f1b3 283d 01cd 87bd fd9a 9fbd 5be7 26bc
000002f0: 5f47 25bd 8024 20bd 7704 593b 6148 cebc
00000300: 8b78 2ebd f58b 73bd a9ce c2bd 7ff5 c13d
00000310: f5fc 47bd a0f4 ea3c cb54 2fbd 81bc d33b
00000320: ae20 d73d da9e 4d3d a5bd d3bd b234 2c3d
00000330: 6f7c dd3d 8a99 da3c acb6 983d 0c05 e93d
00000340: d273 a0bc 3d72 c13c c370 abbd 7dae cbbc
00000350: b8e6 ae3d 83ad 6d3d 7990 9cbd 0edd c1bd
00000360: f3b2 a5bd b8b1 edbd 11fd babd 82fd f9bc
00000370: a05c 9f3d f84a 863c 0d9e b7bd cc56 c3bd
00000380: 9c60 673d 55b8 b1bd ccd8 81bc a65a 633d
00000390: ce08 60bd af54 6dbc 36eb 24bc b53c e8bc
000003a0: d75c 77bd 213d d7bd 671d c2bd c84b 82bd
000003b0: 5e60 e53d 34b4 6dbd b129 a5bd 3448 d33c
000003c0: c132 003d 2d55 803d 9e83 ae3d de6e 823d
000003d0: 6725 eebd c39f 203c 0719 8e3d 28ae 3dbc
000003e0: 298b 8ebd e7e1 e23d 062e 37bd 8a9a 8cbd
000003f0: f360 d9bd c2b3 a43b 2b8c 4a3d 4241 c63c

tpcnns.0.bias f4 [12]
0.09481261 -0.021954436 -0.05234198 0.07043221 0.08794099 0.10982418 0.02364148 -0.044589948
0.050630942 0.09143439 -0.12648393 -0.015312688
00000000: 1d2d c23d cad9 b3bc 8b64 56bd c33e 903d
00000010: 681a b43d 80eb e03d c7ab c13c f3a3 36bd
00000020: 6462 4f3d f441 bb3d 0185 01be 12e2 7abc

tpcnns.1.weight f4 [12, 12, 3, 3]
-0.06551862 0.018040387 0.039669275 -0.020000989 -0.009222322 0.043207824 -0.016325463 -0.08067889
0.07677978 -0.0483174 -0.010629928 0.009105776 -0.0056589097 -0.090200216 0.044162247 -0.043678414
-0.04990291 0.023111045 -0.050386827 -0.044493616 -0.032242138 -0.03604872 -0.040361747 -0.026025344
0.024986021 -0.077792786 -0.058164965 0.001053113 0.013113368 0.053164653 -0.067609325 0.030788658
0.054679025 0.053279553 -0.08963106 -0.03648821 -0.08282851 -0.06108763 0.05355879 -0.014766445
0.040637128 -0.056552492 0.014293622 -0.058009878 0.047894802 -0.042514246 -0.024386747 -0.083548225
-0.00057389867 0.09019478 0.046178877 -0.051654078 0.00082530803 -0.010996417 -0.077635765 0.07539637
0.0015396801 0.019952457 -0.039087817 -0.04526282 0.01587823 0.035430036 0.02164493 -0.046292372
0.09347768 -0.014259557 -0.05918925 -0.04523273 0.094608516 1.251131e-05 -0.0132739 -0.040008586
-0.025550082 -0.08133035 -0.07664963 0.055894442 0.08188678 0.091435134 -0.069700815 0.05212056
-0.05990362 0.05727787 0.069015086 0.07427335 0.06866155 0.0600552 0.0015204842 0.043940116
-0.034717493 0.041659873 -0.030768452 -0.0015656 -0.08378465 -0.025489263 -0.05131313 -0.032460347
-0.061718687 -0.086666115 0.006053228 0.06247755 0.087592475 0.056122955 -0.05004641 -0.0953225
0.036626097 0.053881936 -0.08240677 0.034636483 0.0810611 0.0053726267 -0.05752508 0.078144915
0.040957216 0.06376558 -0.065104164 0.05538102 -0.06553281 0.094907224 -0.040746227 0.05782068
0.019210005 0.024098169 -0.0146136535 0.03946059 -0.039846394 -0.090709955 -0.03677441 0.07527638
-0.025381463 0.030206077 -0.03552514 0.0723066 0.057838567 0.033819735 -0.04891522 -0.07848139
0.003316548 -0.05640389 0.07908185 -0.09276654 0.04312939 0.095649324 0.047892828 0.032553185
-0.0930348 0.091576226 -0.016183287 -0.0898448 0.0936339 -0.039131317 -0.007466223 0.08674613
-0.06722811 -0.06865095 0.014779645 -0.013177714 0.021819573 -0.081614904 0.0020109448 -0.042493504
-0.04830892 -0.088531666 0.050322045 0.017840324 -0.08142953 0.07621501 0.02751048 0.017888688
-0.057068314 0.013565127 0.09271658 0.065465435 -0.074978136 0.08764069 0.0072686393 0.045796566
0.07417973 0.08164879 -0.07506188 0.08383919 -0.06628889 0.006480547 -0.06673402 -0.022613792
-0.0056035942 -0.012285942 -0.01581897 0.0061380602 0.093146995 0.055168774 0.053538952 0.037869133
0.07368214 -0.005689262 0.0070876707 0.019104488 -0.08430771 -0.07876083 0.010926174 -0.03816037
-0.0012879629 -0.022494214 0.014175946 0.06203149 -0.032144308 0.075664155 0.075556 -0.0737167
-0.0740723 -0.077748016 -0.052534897 -0.03737195 -0.0069965683 -0.023477597 -0.048513673 -0.030322228
-0.03475196 0.094622806 -0.035688266 -0.06893208 0.0400989 -0.0053181727 0.072929144 0.059683576
0.08764324 -0.070026085 0.061694644 0.0809627 -0.0476126 0.08877142 0.071940355 0.0008777484
0.04638101 -0.03335456 -0.084062174 0.023789486 0.028351124 -0.06274973 0.04427605 -0.082337536
0.08255663 0.092754655 0.025615672 -0.06070737 0.045805812 0.016164824 0.025915358 0.030772053
0.07292121 -0.041284308 -0.021893177 0.026098657 0.010355571 0.07709087 -0.05027829 -0.004277473
00000000: a02e 86bd 6fc9 933c 407c 223d 1dd9 a3bc
00000010: 3919 17bc b0fa 303d fabc 85bc f93a a5bd
00000020: b83e 9d3d 77e8 45bd 2629 2ebc 6530 153c
00000030: 606e b9bb e4ba b8bd 79e3 343d 23e8 32bd
00000040: fe66 4cbd 6053 bd3c 6b62 4ebd f03e 36bd
00000050: 5510 04bd d3a7 13bd 5c52 25bd 1a33 d5bc
00000060: 7caf cc3c d351 9fbd 633e 6ebd 9c08 8a3a
00000070: 74d9 563c 2ec3 593d c276 8abd 7f38 fc3c
00000080: 1df7 5f3d a93b 5a3d 7d90 b7bd a974 15bd
00000090: fea1 a9bd 0637 7abd 7660 5b3d f6ee 71bc
000000a0: 1e73 263d 96a3 67bd cc2f 6a3c c49b 6dbd
000000b0: 572d 443d 6b23 2ebd b7c6 c7bc 551b abbd
000000c0: b071 16ba 0ab8 b83d 1026 3d3d 3a93 53bd
000000d0: 7c59 583a 512a 34bc 80ff 9ebd 6969 9a3d
000000e0: 17cf c93a 5673 a33c 8c1a 20bd 8265 39bd
000000f0: 1013 823c 161f 113d b550 b13c 129d 3dbd
00000100: 3a71 bf3d eba0 69bc 6d70 72bd f545 39bd
00000110: 1cc2 c13d abe7 5137 c67a 59bc 0be0 23bd
00000120: 684e d1bc 8790 a6bd 7bfa 9cbd 92f1 643d
00000130: 42b4 a73d 5842 bb3d 4dbf 8ebd 5e7c 553d
00000140: 805d 75bd 339c 6a3d c857 8d3d a01c 983d
00000150: 6d9e 8c3d 71fc 753d fc4a c73a 8dfa 333d
00000160: ee33 0ebd 8ba3 2a3d 1f0e fcbc d234 cdba
00000170: 4997 abbd dcce d0bc b72d 52bd 24f5 04bd
00000180: bccc 7cbd 017e b1bd 285a c63b 76e8 7f3d
00000190: af63 b33d 2fe1 653d 77fd 4cbd 7138 c3bd
000001a0: 3f05 163d 4eb3 5c3d e1c4 a8bd fcde 0d3d
000001b0: 5d03 a63d dc0c b03b 6b9f 6bbd 710a a03d
000001c0: c1c2 273d 8797 823d 5555 85bd 35d7 623d
000001d0: 1136 86bd b85e c23d 84e5 26bd 61d5 6c3d
000001e0: 4d5e 9d3c 8669 c53c 1b6e 6fbc 6da1 213d
000001f0: f935 23bd 24c6 b9bd c4a0 16bd 812a 9a3d
00000200: c9ec cfbc bc72 f73c cf82 11bd 7c15 943d
00000210: 22e8 6c3d 9086 0a3d 535b 48bd daba a0bd
00000220: 715a 593b c407 67bd aaf5 a13d 62fc bdbd
00000230: 71a8 303d cbe3 c33d 452b 443d 7d56 053d
00000240: 0789 bebd 518c bb3d d092 84bc 8d00 b8bd
00000250: 21c3 bf3d 2948 20bd 38a7 f4bb f4a7 b13d
00000260: e4ae 89bd df98 8cbd 5326 723c 57e7 57bc
00000270: f6be b23c b725 a7bd 0eca 033b ab0d 2ebd
00000280: 93df 45bd 1750 b5bd 7d1e 4e3d df25 923c
00000290: 87c4 a6bd 9d16 9c3d a85d e13c 4c8b 923c
000002a0: 77c0 69bd 4440 5e3c 31e2 bd3d be12 863d
000002b0: 238e 99bd f67c b33d c42d ee3b 2e95 3b3d
000002c0: 8beb 973d 7b37 a73d 0bba 99bd e2b3 ab3d
000002d0: 78c2 87bd c55a d43b d9ab 88bd 8f40 b9bc
000002e0: 5b9e b7bb fa4a 49bc c996 81bc c821 c93b
000002f0: dac3 be3d a7f8 613d a94b 5b3d aa1c 1b3d
00000300: a9e6 963d fd6c babb b13f e83b 0481 9c3c
00000310: 85a9 acbd 5c4d a1bd b203 333c 0c4e 1cbd
00000320: ddd0 a8ba c945 b8bc 3a42 683c bb14 7e3d
00000330: c0a9 03bd cff5 9a3d 1bbd 9a3d c8f8 96bd
00000340: 38b3 97bd 5a3a 9fbd d52e 57bd 5413 19bd
00000350: 7843 e5bb 1754 c0bc 46b6 46bd 5266 f8bc
00000360: 1258 0ebd 9ac9 c13d dc2d 12bd 432c 8dbd
00000370: bf3e 243d 1144 aebb e05b 953d c476 743d
00000380: 4d7e b33d d669 8fbd 86b3 7c3d c6cf a53d
00000390: 6e05 43bd cacd b53d 7755 933d b318 663a
000003a0: 04fa 3d3d cb9e 08bd ca28 acbd 2be2 c23c
000003b0: 9e40 e83c ee82 80bd ce5a 353d 95a0 a8bd
000003c0: 7313 a93d 27f6 bd3d f5d7 d13c 4ba8 78bd
000003d0: e09e 3b3d 186c 843c 724c d43c ac15 fc3c
000003e0: b757 953d bc19 29bd 5259 b3bc dacc d53c
000003f0: 6aaa 293c d1e1 9d3d 9cf0 4dbd 0b2a 8cbb

tpcnns.1.bias f4 [12]
-0.090746686 -0.0041772746 0.010248199 -0.05649327 0.058529455 -0.038548276 -0.03724077 0.072138704
0.077882566 -0.0153199965 -0.07651934 -0.04814827
00000000: 66d9 b9bd 85e1 88bb 10e8 273c 7d65 67bd
00000010: 95bc 6f3d cce4 1dbd c789 18bd 75bd 933d
00000020: e580 9f3d b900 7bbc 2cb6 9cbd 1f37 45bd

tpcnns.2.weight f4 [12, 12, 3, 3]
0.0122668855 0.056867 0.047695782 -0.04256546 -0.09249846 -0.084218174 -0.030437857 0.0018844819
-0.0431966 -0.07589838 0.010137926 -0.07617455 -0.07391759 -0.07754598 -0.025974255 0.085028075
0.03748839 -0.01134131 0.01930684 0.038421948 0.00091267796 -0.07729049 -0.059085563 -0.06527166
-0.0026490323 -0.087977715 -0.017617913 -0.035397537 0.094145074 0.07823049 0.055886913 0.005676935
-0.031140974 0.024359126 -0.06656342 -0.040738348 -0.019303598 -0.02244749 -0.091238275 0.0379221
0.07933595 -0.053272467 0.02590518 -0.01053007 -0.0033598796 0.0051505603 0.08352738 0.013347013
-0.061378278 -0.035399433 0.046930663 0.030021438 0.0021348875 -0.012736926 -0.037551116 -0.034275196
-0.05069626 0.01563225 0.026736308 0.07361992 -0.021148285 0.0074153305 0.0623656 0.041828632
0.012265753 0.029565543 0.004852676 -0.0827313 0.0036333592 -0.020786017 0.08672103 0.08701867
0.019287543 0.08699561 -0.049154192 0.08352848 0.08278488 -0.0036821247 -0.077031925 -0.030235525
-0.025626209 0.0017850705 -0.08749377 0.01804555 -0.040288806 -0.024116583 -0.049745142 -0.020111
-0.089376494 -0.050997242 0.009301686 0.063470714 0.08767121 -0.0729247 0.03965443 -0.053863205
-0.074300855 -0.0038773254 -0.055254724 -0.08285055 -0.09003675 -0.0642418 0.078775145 0.053352993
-0.037988633 -0.064308144 -0.07389314 -0.056822654 -0.03979782 0.057433404 0.03199522 -0.03756959
0.06603752 -0.05963931 -0.07826051 0.020590752 -0.05278394 0.027080158 0.08131368 -0.045664
-0.06730974 0.034530416 -0.08676356 0.08561771 -0.045390103 0.046198368 -0.076458454 -0.065446444
0.010773351 0.033832207 0.07465433 0.080706224 -0.0056151156 -0.012675546 0.016129652 -0.022139879
0.0031972462 -0.09094806 -0.07902839 0.06569604 -0.055889666 0.075593196 0.010412002 0.023449393
0.08689113 -0.05436713 -0.015052496 0.01701986 0.031543113 -0.09398641 0.033321314 -0.057661023
0.012045039 0.06457562 -0.0102910455 -0.0030380571 -0.0072107506 0.079659045 0.054475978 0.016280986
-0.0584086 -0.05230995 0.07592228 0.06849371 0.055643205 -0.075379066 0.073610514 -0.009438304
0.07049017 0.082460545 0.010551164 -0.04062647 0.0905027 -0.050389595 0.06250868 -0.092478886
-0.030871598 -0.08432412 -0.04331819 0.04056454 -0.06971616 -0.083920226 0.06931226 0.05006809
-0.0018980991 -0.06846432 -0.026130978 -0.03234087 0.057830513 -0.032103047 -0.02777536 -0.06849378
-0.045725554 0.05141615 0.06164066 0.01361319 -0.036259335 0.09149174 0.01795083 -0.037497982
-0.033190154 -0.013879701 0.04484746 0.0342513 0.06918584 -0.005732029 0.0791721 -0.03910143
-0.043960143 -0.0355347 -0.090011165 -0.06294733 -0.08687357 -0.0057545905 0.0012239028 -0.024739025
-0.065458804 0.087637626 -0.032023314 0.045522913 0.06712079 -0.063172184 -0.012649778 0.05528504
0.0927239 -0.011460774 0.06970148 -0.07530109 -0.06254745 0.07994722 -0.009081303 0.09463223
0.0066839303 -0.03967237 0.09046936 0.08320215 0.008658315 -0.058809772 -0.007183545 -0.046629164
0.069477476 0.004262651 0.019991431 0.057930496 0.031139318 -0.059999898 0.07982265 0.058526684
-0.05963488 0.07305941 0.027130768 -0.019049544 -0.06912688 -0.016621165 -0.09399091 0.053592343
00000000: 0cfb 483c 5fed 683d a75c 433d 1f59 2ebd
00000010: d56f bdbd 947a acbd d058 f9bc b800 f73a
00000020: ebee 30bd 9c70 9bbd 8b19 263c 6701 9cbd
00000030: 1b62 97bd 6dd0 9ebd f6c7 d4bc 3323 ae3d
00000040: 6d8d 193d e7d0 39bc 6129 9e3c 5560 1d3d
00000050: c840 6f3a 7a4a 9ebd b403 72bd 26ad 85bd
00000060: 639b 2dbb a92d b4bd 7153 90bc 02fd 10bd
00000070: 22cf c03d 4f37 a03d ade9 643d 9505 ba3b
00000080: 5b1b ffbc ca8c c73c 6752 88bd 41dd 26bd
00000090: 9422 9ebc cce3 b7bc 22db babd 3454 1b3d
000000a0: e37a a23d 3b34 5abd 1a37 d43c 5186 2cbc
000000b0: 6d31 5cbb 08c6 a83b 6710 ab3d 6ead 5a3c
000000c0: ca67 7bbd fffe 10bd 5e3a 403d 85ef f53c
000000d0: 78e9 0b3b 8aae 50bc 33cf 19bd 2664 0cbd
000000e0: e2a6 4fbd 340f 803c 1a06 db3c 0ac6 963d
000000f0: 2b3f adbc 4dfc f23b 1273 7f3d 8054 2b3d
00000100: 4cf6 483c 7033 f23c 3203 9f3b 076f a9bd
00000110: a71d 6e3b 7047 aabc cc9a b13d d836 b23d
00000120: e900 9e3c c12a b23d e855 49bd fb10 ab3d
00000130: 1f8b a93d cd4f 71bb eac2 9dbd 7eb0 f7bc
00000140: 0eee d1bc 07f9 e93a ef2f b3bd 43d4 933c
00000150: e005 25bd 2490 c5bc 90c1 4bbd d3bf a4bc
00000160: 060b b7bd 7ce2 50bd 1966 183c effc 813d
00000170: f78c b33d 8c59 95bd af6c 223d aa9f 5cbd
00000180: 0c2b 98bd ba1a 7ebb c752 62bd 8dad a9bd
00000190: 3065 b8bd 3491 83bd dd54 a13d ab88 5a3d
000001a0: f899 1bbd fdb3 83bd 4955 97bd dfbe 68bd
000001b0: 0a03 23bd 4a3f 6b3d 6b0d 033d 92e2 19bd
000001c0: ae3e 873d 5948 74bd 0c47 a0bd f0ad a83c
000001d0: f933 58bd 35d7 dd3c c987 a63d 2d0a 3bbd
000001e0: b0d9 89bd c46f 0d3d 18b1 b1bd 5758 af3d
000001f0: f9ea 39bd 803a 3d3d 4096 9cbd c908 86bd
00000200: b682 303c a493 0a3d 5fe4 983d 4e49 a53d
00000210: 01ff b7bb 18ad 4fbc 5522 843c b15e b5bc
00000220: e488 513b fa42 babd a3d9 a1bd a58b 863d
00000230: 90ec 64bd 9bd0 9a3d 1a97 2a3c f118 c03c
00000240: faf3 b13d 11b0 5ebd bf9e 76bc 3c6d 8b3c
00000250: 5a33 013d f27b c0bd ee7b 083d f72d 6cbd
00000260: 8e58 453c 3940 843d c69b 28bc 241a 47bb
00000270: 2948 ecbb 4824 a33d 3422 5f3d b45f 853c
00000280: db3d 6fbd f542 56bd 247d 9b3d 6e46 8c3d
00000290: 21ea 633d 5760 9abd 1cc1 963d 1ea3 1abc
000002a0: 265d 903d 13e1 a83d cade 2c3c f167 26bd
000002b0: 7b59 b93d 5265 4ebd 8d04 803d 9265 bdbd
000002c0: 6fe6 fcbc 20b2 acbd 6a6e 31bd 0127 263d
000002d0: 59c7 8ebd 5ede abbd 96f3 8d3d 3314 4d3d
000002e0: a3c9 f8ba 0537 8cbd a210 d6bc dc77 04bd
000002f0: b0df 6c3d 7c7e 03bd 2789 e3bc 7846 8cbd
00000300: b84a 3bbd be99 523d eb7a 7c3d db09 5f3c
00000310: ab84 14bd 0560 bb3d 9e0d 933c 7c97 19bd
00000320: 66f2 07bd af67 63bc f8b1 373d 174b 0c3d
00000330: 4eb1 8d3d bfd3 bbbb fb24 a23d d228 20bd
00000340: 8d0f 34bd d58c 11bd c657 b8bd 88ea 80bd
00000350: c5ea b1bd 0191 bcbb 5d6b a03a 7fa9 cabc
00000360: 440f 86bd 5b7b b33d e12a 03bd 3c76 3a3d
00000370: a076 893d 6b60 81bd 0441 4fbc 9172 623d
00000380: 07e6 bd3d f8c5 3bbc a6bf 8e3d 7537 9abd
00000390: e118 80bd 5ebb a33d bfc9 14bc 8bce c13d
000003a0: df04 db3b 7f7f 22bd 0048 b93d e465 aa3d
000003b0: 9bdb 0d3c 84e2 70bd f163 ebbb 39fe 3ebd
000003c0: 354a 8e3d b5ad 8b3b 12c5 a33c 8748 6d3d
000003d0: e217 ff3c 74c2 75bd 0f7a a33d adb9 6f3d
000003e0: b443 74bd 2ca0 953d 5841 de3c ca0d 9cbc
000003f0: 6592 8dbd 1c29 88bc 4e7e c0bd a583 5b3d

tpcnns.2.bias f4 [12]
0.039717477 -0.0933891 -0.027589539 0.038996913 -0.009913253 -0.03260339 -0.05603793 0.085617155
-0.0805569 -0.07810182 0.06289116 -0.05842061
00000000: cbae 223d c942 bfbd 7503 e2bc 3abb 1f3d
00000010: 326b 22bc 228b 05bd 0788 65bd 0c58 af3d
00000020: 04fb a4bd d9f3 9fbd 15cd 803d 734a 6fbd

tpcnns.3.weight f4 [12, 12, 3, 3]
0.058096193 -0.05281353 -0.013179189 -0.04659281 0.078268446 0.0666154 0.0047451905 0.0028523703
-0.03628152 -0.051154803 -0.03647962 0.03177006 -0.01733136 0.06581523 0.013998244 0.0009668905
-0.059832625 0.038812935 -0.089696586 0.0222866 0.03443781 0.017526487 0.06760408 0.023237593
-0.026835643 -0.067207605 -0.08922582 0.048267037 0.052011643 -0.07342551 0.02565196 -0.035106853
0.081205025 -0.033236288 0.079598725 0.06816507 0.053172097 0.065673396 0.02992232 0.032246888
-0.08181448 -0.022045469 -0.011031872 0.047302805 -0.037265938 0.043585878 0.06521358 0.04157223
0.049093887 -0.013337446 0.045881726 -0.033068907 0.08336262 -0.0023965084 -0.0056344476 -0.084695764
0.08894046 -0.013709354 0.07129271 -0.06300544 -0.08014155 -0.01487707 -0.076602735 0.018587744
0.001361349 -0.03537672 0.059996385 0.062003717 -0.08516922 -0.07697375 0.05614623 -0.058244012
0.018487707 -0.025298486 0.017597154 -0.0534286 0.0006278884 -0.034063537 -0.0432557 -0.04648793
0.021395488 0.06258184 -0.0027164517 -0.0009060667 0.07906597 0.07773253 -0.014079137 -0.078685455
0.022494836 0.028857136 -0.07598545 -0.086141765 0.010072533 0.09366189 -0.08659398 -0.046972528
-0.033274822 -0.08476073 -0.05934941 0.07551038 0.07327125 -0.07074594 0.0019125326 -0.0785821
0.04009386 -0.065817334 -0.049064174 -0.044648845 0.013936424 0.06400474 -0.039895535 0.017326672
0.076522544 -0.0055891634 0.009881353 0.0067542214 -0.0011515794 0.05746413 0.051775225 -0.05162737
0.091693506 0.054172315 -0.014952768 0.08355585 0.0051311553 0.060460243 -0.08180131 0.08596772
0.09077448 -0.07224417 -0.08624954 -0.027800376 -0.059287436 0.025179744 0.042797323 -0.0123189
0.06760187 0.0038830978 -0.028330421 -0.08219483 0.030741723 -0.09075609 -0.00058172416 0.014011685
-0.054214053 0.028124016 0.018866658 0.064247474 0.059120174 -0.077972755 -0.071891464 -0.035881042
-0.06951802 0.029920032 -0.06355125 -0.07339619 0.0277759 0.05750794 -0.027950471 -0.09587585
0.012935735 0.0492984 0.07446783 0.008571072 0.06686786 -0.08651706 0.09092659 -0.062088456
-0.06597366 0.06840048 -0.021350857 0.058844507 -0.06756568 0.07244129 0.09076079 0.028620606
0.0768604 -0.06918495 -0.021701252 0.028888812 0.053289756 -0.05181287 0.06162342 -0.03282139
-0.05223723 0.018037587 -0.077474155 -0.08947792 0.030482283 0.032262873 0.037116576 -0.0127489595
-0.070604 -0.07762329 0.09190045 -0.08357412 0.02902172 0.077573135 0.072604984 -0.060955778
-0.0307505 -0.07731768 0.05946854 -0.0907849 -0.089020595 -0.06513333 0.078051716 0.0624492
0.064639635 0.07378046 -0.044571728 -0.05353327 -0.05900612 0.031774532 0.037581827 0.02008893
-0.07395897 0.008740822 -0.051019095 -0.018948613 -0.014905834 0.0049705617 -0.08460241 0.08198326
-0.04103418 0.03048663 0.066149436 0.0389931 0.06723033 0.054639526 0.07045292 0.020225333
0.061437942 -0.041757002 -0.052194484 0.045470186 0.025404286 -0.0036625436 -0.082582526 0.031341232
0.06208155 -0.011369271 0.021986324 0.042759866 -0.09535204 -0.015981812 -0.035772305 -0.04941673
0.058687195 0.095609665 0.015287464 0.059747357 -0.07125687 0.016897636 -0.012140454 -0.059590973
00000000: 46f6 6d3d 0053 58bd 86ed 57bc 1ad8 3ebd
00000010: 354b a03d a86d 883d 8b7d 9b3b d5ee 3a3b
00000020: ee9b 14bd b387 51bd a76b 15bd 5321 023d
00000030: 7ffa 8dbc 23ca 863d e458 653c ec76 7d3a
00000040: 0e13 75bd 50fa 1e3d d8b2 b7bd 6392 b63c
00000050: a90e 0d3d b593 8f3c 0274 8a3d c45c be3c
00000060: 6cd6 dbbc 24a4 89bd 07bc b6bd a8b3 453d
00000070: 290a 553d 1d60 96bd 0f24 d23c 34cc 0fbd
00000080: d24e a63d c622 08bd a804 a33d 219a 8b3d
00000090: fcca 593d c67f 863d a71f f53c 5015 043d
000000a0: 5a8e a7bd b398 b4bc 06bf 34bc 96c0 413d
000000b0: 2ba4 18bd 1b87 323d b38e 853d a547 2a3d
000000c0: ac16 493d 4e85 5abc 7aee 3b3d 4373 07bd
000000d0: 05ba aa3d bd0e 1dbb 2ca1 b8bb f974 adbd
000000e0: 6a26 b63d 339d 60bc ea01 923d ff08 81bd
000000f0: 4121 a4bd f4be 73bc e5e1 9cbd 5345 983c
00000100: 4b6f b23a 2ee7 10bd c5be 753d 9cf7 7d3d
00000110: 336d aebd 6aa4 9dbd 97f9 653d 4691 6ebd
00000120: 8873 973c c53e cfbc e827 903c f3d7 5abd
00000130: e198 243a 3586 0bbd e42c 31bd 216a 3ebd
00000140: 9745 af3c e82a 803d 7f06 32bb 1b85 6dba
00000150: 57ed a13d 3c32 9f3d 2eac 66bc d725 a1bd
00000160: 1747 b83c cd65 ec3c 429e 9bbd 186b b0bd
00000170: 4407 253c ced1 bf3d 2f58 b1bd 4466 40bd
00000180: 2e4b 08bd 0997 adbd 5e18 73bd 30a5 9a3d
00000190: 3d0f 963d 3fe3 90bd f2ad fa3a a7ef a0bd
000001a0: 7639 243d 3dcb 86bd 84f7 48bd b5e1 36bd
000001b0: 9955 643c eb14 833d 8069 23bd aaf0 8d3c
000001c0: dab7 9c3d 4d25 b7bb 66e5 213c 8452 dd3b
000001d0: 98f0 96ba 825f 6b3d 4212 543d 3977 53bd
000001e0: cec9 bb3d cae3 5d3d 74fc 74bc 541f ab3d
000001f0: 4023 a83b 29a5 773d 7287 a7bd d80f b03d
00000200: f8e7 b93d c0f4 93bd 99a3 b0bd 9dbd e3bc
00000210: 62d7 72bd c045 ce3c 3f4c 2f3d 36d5 49bc
00000220: d972 8a3d 927b 7e3b 3315 e8bc c355 a8bd
00000230: 11d6 fb3c 54de b9bd d97e 18ba 4491 653c
00000240: 8e0f 5ebd 5664 e63c 408e 9a3c 2e94 833d
00000250: ff27 723d 2eb0 9fbd d53b 93bd 00f8 12bd
00000260: 775f 8ebd db1a f53c 2827 82bd be50 96bd
00000270: 498a e33c 728d 6b3d 63f8 e4bc 8f5a c4bd
00000280: 68f0 533c 1eed 493d 9782 983d ae6d 0c3c
00000290: 04f2 883d db2f b1bd b837 ba3d 7750 7ebd
000002a0: 331d 87bd 8d15 8c3d fee7 aebc f006 713d
000002b0: e05f 8abd 195c 943d cbe0 b93d c375 ea3c
000002c0: fc68 9d3d d7b0 8dbd d3c6 b1bc 3ba8 ec3c
000002d0: 5c46 5a3d bb39 54bd d768 7c3d b96f 06bd
000002e0: b5f6 55bd 90c3 933c c5aa 9ebd 3340 b7bd
000002f0: fbb5 f93c 1326 043d 8d07 183d 03e1 50bc
00000300: d498 90bd f6f8 9ebd 4e36 bc3d e928 abbd
00000310: f5be ed3c aade 9e3d ecb1 943d c4ac 79bd
00000320: 79e8 fbbc bb58 9ebd 4995 733d 6fed b9bd
00000330: 6e50 b6bd a064 85bd 94d9 9f3d bbca 7f3d
00000340: c961 843d 361a 973d d890 36bd b445 5bbd
00000350: 67b0 71bd 0326 023d 67ef 193d 8a91 a43c
00000360: cd77 97bd aa35 0f3c 66f9 50bd 1f3a 9bbc
00000370: 9937 74bc 18e0 a23b 0744 adbd d7e6 a73d
00000380: 7513 28bd 19bf f93c 5b79 873d 3bb7 1f3d
00000390: 0eb0 893d b2cd 5f3d 9f49 903d 99af a53c
000003a0: 5aa6 7b3d 6409 2bbd e2c9 55bd f23e 3a3d
000003b0: a61c d03c 4907 70bb 0721 a9bd aa5f 003d
000003c0: 3949 7e3d 2e46 3abc aa1c b43c f824 2f3d
000003d0: ee47 c3bd 4aec 82bc fb85 12bd 3269 4abd
000003e0: fc61 703d 00cf c33d 4578 7a3c a5b9 743d
000003f0: 1fef 91bd e96c 8a3c c1e8 46bc aa15 74bd

tpcnns.3.bias f4 [12]
0.03171988 -0.019191561 -0.061106924 -0.06751521 -0.019090272 0.025887907 0.0418483 -0.0061985557
0.07641307 -0.04532795 0.012472304 -0.04785804
00000000: b4ec 013d 9f37 9dbc 414b 7abd 6a45 8abd
00000010: 3463 9cbc e012 d43c 1f69 2b3d 411d cbbb
00000020: 757e 9c3d cda9 39bd a258 4c3c cb06 44bd

tpcnns.4.weight f4 [12, 12, 3, 3]
0.025856633 0.08212513 0.033717185 0.006447345 -0.035413597 -0.07894818 -0.06584773 -0.08254103
0.06839148 -0.040142756 -0.014397747 -0.08622789 -0.026831364 0.08184566 0.01769099 -0.01718228
0.050153337 0.07418499 0.07487915 -0.07119658 0.0069086594 -0.07901713 -0.06634463 0.07388969
-0.07666434 -0.047190398 0.046146683 0.093624406 -0.09347456 -0.06209212 -0.037733063 0.0745415
0.056077182 0.059988987 0.061657246 -0.024081578 0.070950225 -0.0027039596 0.00904069 -0.025518138
0.040819712 0.04297049 -0.010199895 0.08471069 -0.024920963 0.024355492 0.08739734 0.05421473
-0.03503953 -0.043588128 0.018570993 -0.00072927517 0.0067722127 0.06198473 0.03363543 -0.053967223
-0.07856442 0.090972856 -0.010593417 -0.037909176 -0.07067354 0.092402875 0.048555702 -0.061000478
-0.08310636 0.08359277 0.0414289 -0.01413449 -0.07997129 0.058322594 -0.065319575 0.047285262
-0.09139258 -0.08579517 -0.092311084 0.0872321 0.08744344 -0.08210726 0.07438526 -0.05848812
-0.08942701 0.04630932 0.054546345 0.05454303 0.016887235 0.09234792 -0.08289367 0.044397343
-0.030492261 0.0047523906 0.06636526 -0.06890721 0.04216891 -0.019219961 0.062240325 -0.002526837
0.04774082 0.092327155 -0.034357157 -0.09478616 0.09076682 -0.05297758 0.021990245 0.059846036
-0.014943212 0.075203165 0.06235904 -0.019372823 0.025229037 0.0072922814 0.094135895 0.0666194
-0.064089894 0.009271462 0.051899876 0.073564425 0.03285432 0.040887658 -0.017766377 0.002087111
-0.0665978 0.079216406 0.07577138 -0.05298591 -0.0823825 0.0750351 -0.08528532 0.06171122
-0.09372702 -0.049195353 -0.04074116 0.09043279 -0.01628273 0.08300246 0.027957441 0.09322118
0.063734435 0.070867285 0.083893724 -0.028429803 -0.026456632 0.03100454 0.084768705 -0.03541159
-0.075692005 -0.07527313 -0.044455983 0.0153541695 -0.011135211 -0.025661262 -0.04498501 0.025028547
-0.07926222 0.09466838 -0.014902215 0.017954431 0.031698715 -0.037440322 0.07594006 -0.00071318145
0.0078937365 -0.0916025 0.011910669 0.033017322 0.013408724 -0.009536326 0.072658904 0.07607595
0.06624727 -0.016700981 0.01662236 -0.067186095 -0.07203813 -0.016817652 0.010755535 -0.056046706
-0.08031845 0.043774474 0.035181116 -0.06357617 0.06403168 -0.07192467 0.072790384 0.05111897
-0.032520894 0.09161175 -0.05402788 -0.04395475 0.076695174 -0.024795424 -0.038864184 0.01488915
-0.016259683 0.06062093 0.078560874 0.042802636 0.020810405 0.024173345 0.0025052603 0.01130037
0.0018272257 0.06561533 0.05381084 -0.009674791 0.036337107 0.005321784 0.03400429 0.07900086
-0.065469146 0.013674448 -0.020018762 -0.09407114 -0.09350415 -0.0125996005 0.06887024 -0.063449405
0.031344067 0.055459335 -0.07013655 0.041325305 0.01816092 -0.08760444 -0.0018500872 -0.090336874
0.08412981 0.045098905 0.036870003 0.073874444 0.07358949 0.09552751 0.039700724 -0.06947241
0.0893773 0.026729869 -0.037931897 -0.035811592 0.09004126 0.021375623 0.06994067 0.0075045507
0.08888632 -0.07041092 0.022933625 0.022961063 -0.0011097885 0.085599326 0.019323131 0.0052125924
0.065676704 -0.0075965934 -0.0062171808 -0.07933363 -0.0006304417 -0.044915464 0.05571258 0.0837098
00000000: 4ad1 d33c 3831 a83d 081b 0a3d 4044 d33b
00000010: d90d 11bd 95af a1bd 2ddb 86bd 460b a9bd
00000020: d510 8c3d bb6c 24bd 87e4 6bbc 3f98 b0bd
00000030: 73cd dbbc b39e a73d b2ec 903c dac1 8cbc
00000040: 966d 4d3d 4dee 973d 3d5a 993d 83cf 91bd
00000050: 0962 e23b bcd3 a1bd b2df 87bd 7a53 973d
00000060: 3202 9dbd b84a 41bd 4e04 3d3d 27be bf3d
00000070: 976f bfbd 4f54 7ebd fc8d 1abd 37a9 983d
00000080: 30b1 653d 03b7 753d 4f8c 7c3d bb46 c5bc
00000090: 5a4e 913d ea34 31bb 671f 143c 6a0b d1bc
000000a0: 9232 273d d301 303d 761d 27bc cc7c ad3d
000000b0: 0c27 ccbc 2b85 c73c 60fd b23d 4410 5e3d
000000c0: 9c85 0fbd 7789 32bd 3222 983c d42c 3fba
000000d0: 70e9 dd3b b3e3 7d3d 4ec5 093d bc0c 5dbd
000000e0: 62e6 a0bd fa4f ba3d 0390 2dbc a746 1bbd
000000f0: 4abd 90bd b83d bd3d 58e2 463d a3db 79bd
00000100: ab33 aabd b032 ab3d 5ab1 293d 5994 67bc
00000110: fdc7 a3bd ace3 6e3d 45c6 85bd 31ae 413d
00000120: 082c bbbd 61b5 afbd 980d bdbd bea6 b23d
00000130: 8c15 b33d da27 a8bd 4d57 983d 3d91 6fbd
00000140: 8225 b7bd d7ae 3d3d fd6b 5f3d 8368 5f3d
00000150: 1957 8a3c e820 bd3d 28c4 a9bd fdd9 353d
00000160: e8ca f9bc f1b9 9b3b 82ea 873d 391f 8dbd
00000170: 4fb9 2c3d 2e73 9dbc b6ef 7e3d 4a99 25bb
00000180: e18b 433d 0516 bd3d 17ba 0cbd 3f1f c2bd
00000190: f4e3 b93d 05ff 58bd e324 b43c 1e21 753d
000001a0: 60d4 74bc 1e04 9a3d 316c 7f3d c1b3 9ebc
000001b0: 20ad ce3c 17f4 ee3b 52ca c03d c16f 883d
000001c0: 9041 83bd 55e7 173c f794 543d f2a8 963d
000001d0: 4092 063d d179 273d cb8a 91bc e9c7 083b
000001e0: 6d64 88bd 363c a23d 062e 9b3d c107 59bd
000001f0: 28b8 a8bd 01ac 993d 12aa aebd e7c4 7c3d
00000200: f4f3 bfbd 1181 49bd 34e0 26bd d434 b93d
00000210: 5c63 85bc 32fd a93d 0107 e53c bfea be3d
00000220: 3387 823d de22 913d 79d0 ab3d 9ee5 e8bc
00000230: 94bb d8bc 3cfd fd3c 379b ad3d be0b 11bd
00000240: 6904 9bbd cc28 9abd 7a17 36bd 0e90 7b3c
00000250: 7670 36bc 9137 d2bc 3442 38bd ab08 cd3c
00000260: 3b54 a2bd 7fe1 c13d 6c28 74bc 2c15 933c
00000270: 83d6 013d 065b 19bd 7686 9b3d ccf4 3aba
00000280: bb54 013c 179a bbbd f724 433c 2c3d 073d
00000290: 44b0 5b3c 403e 1cbc 31ce 943d b5cd 9b3d
000002a0: a6ac 873d 7fd0 88bc 9e2b 883c dd98 89bd
000002b0: ba88 93bd 2cc5 89bc fc37 303c 3b91 65bd
000002c0: 007e a4bd dd4c 333d 131a 103d 3934 82bd
000002d0: 0b23 833d 3e4d 93bd 2013 953d 2062 513d
000002e0: a134 05bd f19e bb3d 574c 5dbd e509 34bd
000002f0: 5c12 9d3d c61f cbbc 0d30 1fbd 9ff1 733c
00000300: 0733 85bc a74d 783d 86e4 a03d d151 2f3d
00000310: 957a aa3c 2e07 c63c 4b2f 243b 3025 393c
00000320: 857f ef3a 5561 863d c168 5c3d 0483 1ebc
00000330: 38d6 143d 5c62 ae3b 1548 0b3d 34cb a13d
00000340: b014 86bd cb0a 603c 63fe a3bc 5fa8 c0bd
00000350: 1b7f bfbd 8e6e 4ebc d70b 8d3d c3f1 81bd
00000360: a362 003d 5429 633d c0a3 8fbd b944 293d
00000370: 36c6 943c f569 b3bd a07e f2ba 8a02 b9bd
00000380: 404c ac3d a1b9 383d 0005 173d 7c4b 973d
00000390: 16b6 963d eda3 c33d 3a9d 223d 8d47 8ebd
000003a0: 720b b73d 99f8 da3c 7a5e 1bbd 2daf 12bd
000003b0: 8d67 b83d ee1b af3c 0e3d 8f3d bce8 f53b
000003c0: 080a b63d 9a33 90bd 4cdf bb3c d718 bc3c
000003d0: 5376 91ba b34e af3d 8b4b 9e3c 65ce aa3b
000003e0: 8281 863d d8ec f8bb 7eb9 cbbb ac79 a2bd
000003f0: 3a44 25ba 47f9 37bd e032 643d 0b70 ab3d

tpcnns.4.bias f4 [12]
-0.07517698 -0.00041866562 -0.051926948 -0.054542076 -0.056339696 -0.04658118 -0.057226766 -0.05262424
-0.035051905 -0.08792173 0.077022806 0.032335456
00000000: 63f6 99bd 5980 dbb9 5ab1 54bd 8367 5fbd
00000010: 74c4 66bd e8cb 3ebd 9d66 6abd 848c 57bd
00000020: 9692 0fbd 4f10 b4bd 22be 9d3d 2f72 043d

tpcnn_ouput.weight f4 [12, 12, 3, 3]
-0.09538106 -0.096444145 -0.048119225 0.03681253 0.08639532 -0.015516591 0.05727917 -0.051502474
-0.019405268 -0.014916553 -0.094048604 0.00058831385 0.02570498 0.05893604 -0.07423486 -0.02832335
0.0039018427 0.010287775 0.015601378 -0.07149364 0.07445622 -0.08607426 -0.032600623 0.048247498
-0.02358871 -0.045740634 -0.09390898 0.06571035 -0.0022075863 0.046483316 0.015176261 -0.07076018
-0.03337164 0.06868233 -0.04641894 -0.04390262 0.052403748 -0.041865908 0.015151785 -0.046762694
0.029091008 0.009846918 -0.075608484 -0.07242883 0.035643257 -0.031707793 0.052295517 0.0043634935
-0.03285685 -0.017341081 -0.04388306 0.047920536 0.076733164 -0.0016657492 -0.061936855 0.06773508
0.07724367 0.06417699 -0.0020574154 0.022903454 0.0060324487 -0.034968484 -0.09351193 -0.011255301
0.041039478 0.05581721 0.022095533 0.043147687 0.059543464 -0.018421175 0.06311507 -0.0017362626
-0.03394966 -0.037672613 -0.055412535 -0.07294682 0.02170186 0.08747571 0.014016049 0.013509469
-0.035094324 -0.03826399 -0.030230882 0.033411153 0.016140264 -0.034706786 0.018617706 -0.015838632
-0.0062362407 0.06740139 -0.039507188 0.08890227 -0.052436117 0.088218845 0.035543453 0.038004927
-0.021902993 -0.025131898 -0.06860863 -0.09214981 0.06723344 0.093264915 0.027394144 -0.03639254
0.021257227 -0.0035456568 -0.08309142 -0.07734736 0.033563823 -0.027907405 -0.022282258 -0.05719087
0.042273168 -0.047557287 -0.030231144 0.0515157 0.0922037 0.085773535 0.037429575 0.00271086
0.07185034 0.08393653 0.043245714 0.028506134 0.022739733 0.00966171 0.06396174 0.027598387
-0.080505036 -0.05560384 -0.08688903 -0.02879961 0.0054141954 -0.039698657 -0.08791292 -0.06180063
0.041249506 -0.006597036 -0.015964536 0.015772467 -0.020194355 -0.0518756 -0.04357006 -0.039051823
-0.088261746 -0.087368965 -0.03605459 0.036031038 0.09338864 -0.002572343 0.06616521 0.031908415
-0.07652549 -0.046295658 -0.023688337 -0.07683282 0.015449777 0.024129422 -0.0737922 -0.018807143
-0.08293733 0.09564774 0.057430323 -0.03565424 0.08234539 -0.05900231 0.080448814 -0.0379234
0.028859504 0.065641455 0.044318233 0.023368353 -0.010398997 0.0010791321 0.081391685 -0.03169309
-0.030596852 0.012335569 -0.046617344 -0.036718387 0.009218041 0.07207531 0.03195155 -0.057473943
0.057848126 -0.035139948 0.025816007 0.0054812725 0.06787698 -0.021157967 -0.03758989 -0.018444508
0.0013993788 -0.04453747 0.06611565 -0.050768938 0.015251458 -0.073180154 -0.010295038 -0.019063044
-0.037834175 0.05160163 -0.084810846 0.010262653 -0.0073614577 -0.04932545 0.0739448 0.060613707
0.029405907 0.0015823761 0.053272158 -0.041844286 -0.07807157 0.09220507 -0.035972513 0.0193183
0.0016411697 0.07997216 0.09445902 -0.06423921 -0.0024465339 -0.078871444 0.06124983 0.09026363
-0.037997745 0.016856221 -0.022334319 -0.023147922 0.07569153 -0.090562426 -0.014194099 -0.00033578635
-0.0848705 0.039164335 0.06363295 -0.07652533 0.035837606 -0.0070676594 0.08820383 -0.091730885
0.08008494 -0.037445944 0.07931656 -0.0491308 0.015543051 0.022204328 0.05844215 0.04340264
0.052492037 -0.020739244 -0.07695641 0.0003442921 0.08630538 0.080789305 -0.05795317 0.06503175
00000000: 2557 c3bd 8284 c5bd aa18 45bd bcc8 163d
00000010: 08f0 b03d 4d39 7ebc 909d 6a3d 42f4 52bd
00000020: ccf7 9ebc 8f64 74bc 8e9c c0bd 1339 1a3a
00000030: 4093 d23c eb66 713d 7208 98bd 5f06 e8bc
00000040: 0fb6 7f3b 0e8e 283c ec9c 7f3c 426b 92bd
00000050: 817c 983d b447 b0bd 3b88 05bd 2b9f 453d
00000060: 1c3d c1bc 885a 3bbd 5a53 c0bd 2693 863d
00000070: 27ad 10bb 4a65 3e3d daa5 783c b7ea 90bd
00000080: b3b0 08bd 52a9 8c3d c921 3ebd 3cd3 33bd
00000090: 50a5 563d 967b 2bbd 313f 783c 3d8a 3fbd
000000a0: 4450 ee3c f854 213c 9fd8 9abd 9155 94bd
000000b0: aafe 113d 08e0 01bd d333 563d a3fb 8e3b
000000c0: e894 06bd e20e 8ebc b9be 33bd 5348 443d
000000d0: 4726 9d3d 4555 daba 80b1 7dbd b1b8 8a3d
000000e0: ee31 9e3d 3a6f 833d b4d5 06bb 06a0 bb3c
000000f0: d9ab c53b 1d3b 0fbd 2f83 bfbd 2768 38bc
00000100: 0319 283d 96a0 643d b101 b53c a1bb 303d
00000110: d9e3 733d 01e8 96bc 7942 813d 4e93 e3ba
00000120: cc0e 0bbd 994e 1abd 41f8 62bd 2465 95bd
00000130: 19c8 b13c 7726 b33d 92a3 653c d256 5d3c
00000140: 11bf 0fbd b4ba 1cbd c1a6 f7bc 22da 083d
00000150: 9638 843c b428 0ebd 2984 983c 05c0 81bc
00000160: 6159 ccbb bd09 8a3d 4ad2 21bd 6512 b63d
00000170: 41c7 56bd 15ac b43d 0396 113d 0eab 1b3d
00000180: e86d b3bc 69e1 cdbc ae82 8cbd 0ab9 bcbd
00000190: b0b1 893d ad01 bf3d af69 e03c 5810 15bd
000001a0: a323 ae3c 405e 68bb d62b aabd 4b68 9ebd
000001b0: 387a 093d 129e e4bc 4889 b6bc f940 6abd
000001c0: a126 2d3d 6ecb 42bd 4ea7 f7bc 2002 533d
000001d0: 4bd5 bc3d 09aa af3d c14f 193d afa8 313b
000001e0: 4526 933d eae6 ab3d 6b22 313d b285 e93c
000001f0: ad48 ba3c 264c 1e3c 5ffe 823d 0316 e23c
00000200: d3df a4bd dac0 63bd e0f2 b1bd 29ed ebbc
00000210: 9069 b13b 0f9b 22bd b00b b4bd a822 7dbd
00000220: 3ef5 283d f32b d8bb 0fc8 82bc 4335 813c
00000230: a26e a5bc 827b 54bd 8576 32bd cef4 1fbd
00000240: 93c2 b4bd 80ee b2bd faad 13bd 4895 133d
00000250: 8b42 bf3d c194 28bb a081 873d 66b2 023d
00000260: 65b9 9cbd 84a0 3dbd 0b0e c2bc 875a 9dbd
00000270: 1021 7d3c 11ab c53c 5d20 97bd 7011 9abc
00000280: 0cdb a9bd f6e2 c33d 0f3c 6b3d 2e0a 12bd
00000290: b3a4 a83d 68ac 71bd 59c2 a43d 9155 1bbd
000002a0: c46a ec3c 076f 863d 0987 353d fd6e bf3c
000002b0: 8e60 2abc aa71 8d3a afb0 a63d 9dd0 01bd
000002c0: 40a6 fabc 201b 4a3c d4f1 3ebd 0566 16bd
000002d0: 4407 173c 389c 933d a1df 023d cc69 6bbd
000002e0: 28f2 6c3d e8ee 0fbd 177c d33c 3f9c b33b
000002f0: 1603 8b3d 7953 adbc dbf7 19bd f018 97bc
00000300: 5c6b b73a ec6c 36bd a467 873d 17f3 4fbd
00000310: 40e1 793c 7adf 95bd 85ac 28bc 1a2a 9cbc
00000320: 02f8 1abd 3b5c 533d 4fb1 adbd b024 283c
00000330: 6238 f1bb 7c09 4abd 5f70 973d 1446 783d
00000340: a8e4 f03c bb67 cf3a e833 5a3d ea64 2bbd
00000350: fde3 9fbd 03d6 bc3d ea57 13bd 6941 9e3c
00000360: 841c d73a 72c8 a33d bb73 c13d d98f 83bd
00000370: 0756 20bb 5a87 a1bd 1ae1 7a3d 23dc b83d
00000380: 86a3 1bbd 0f16 8a3c 76f6 b6bc b6a0 bdbc
00000390: 2904 9b3d cb78 b9bd 5e8e 68bc 7b0c b0b9
000003a0: 96d0 adbd c86a 203d fe51 823d 50b9 9cbd
000003b0: 74ca 123d d397 e7bb 36a4 b43d 67dd bbbd
000003c0: 9303 a43d eb60 19bd b870 a23d 613d 49bd
000003d0: 48a8 7e3c dae5 b53c 0961 6f3d f7c6 313d
000003e0: e401 573d 59e5 a9bc 539b 9dbd 1a82 b439
000003f0: e0c0 b03d dd74 a53d 4e60 6dbd 5e2f 853d

tpcnn_ouput.bias f4 [12]
0.014557602 0.016024569 -0.08801269 0.07363377 0.031068686 0.0039757886 0.034167327 -0.00036701345
-0.05145351 -0.021297539 -0.08053042 0.072096646
00000000: 0283 6e3c f545 833c ff3f b4bd 4dcd 963d
00000010: c283 fe3c 5547 823b 0af3 0b3d b66b c0b9
00000020: eac0 52bd 2d78 aebc 22ed a4bd 68a7 933d
