saved_models/eth_tag/model_epoch_1.pth (torch, 43263 bytes, 30 tensors)

st_gcns.0.gcn.conv.weight f4 [5, 2, 1, 1]
00000000: 1c4f 0a3f 3540 163f c56d 29be 904c 263f
00000010: bacb 1dbe c46d 123e 703b b0be 178d d43e
00000020: fd78 1f3f 5cbc 04bf
0.5402696 0.5869172 -0.1654578 0.64960575 -0.15409747 0.14299685 -0.34420347 0.41513893
0.6229399 -0.51849914

st_gcns.0.gcn.conv.bias f4 [5]
00000000: 336a 1d3f c985 073e b5c7 053f b6b3 c53d
00000010: a325 af3e
0.6149017 0.13234629 0.52257854 0.09653418 0.34208402

st_gcns.0.tcn.0.weight f4 [5]
00000000: e000 803f 5604 803f edae 7f3f f00d 803f
00000010: 4415 803f
1.0000267 1.0001323 0.9987629 1.0004253 1.000649

st_gcns.0.tcn.0.bias f4 [5]
00000000: 4480 b9b8 69c9 ed39 0dea 87ba 50b8 8939
00000010: e3d6 6139
-8.845379e-05 0.00045354225 -0.0010369435 0.00026268 0.00021537724

st_gcns.0.tcn.0.running_mean f4 [5]
00000000: ea3f 513d fe3f babc a539 973c 1b34 e5bc
00000010: c997 993d
0.051086344 -0.022735592 0.018460104 -0.027978947 0.07499654

st_gcns.0.tcn.0.running_var f4 [5]
00000000: 4cb1 9e40 7fab 2940 e80c cd3f 61a9 ce3f
00000010: 0401 7840
4.9591427 2.6510923 1.6019564 1.614544 3.875062

st_gcns.0.tcn.2.weight f4 [5, 5, 3, 1]
00000000: 2771 16bd ca86 4a3e d0a9 153d d418 f9bd
00000010: 05a2 853d b9c1 f3bd 84cc fbbc 9d52 d6bd
00000020: 9bf6 2d3e e4b4 51be 87d5 f3bd 07da 94bd
00000030: 1cdc 1dbe 7612 c13c cb76 83be 241e 6e3e
00000040: 22e5 60be 3071 4c3e db4e 2f3d d856 adbd
00000050: af5f 233e 298d 203d 9663 553e 305e e83c
00000060: c975 a7bd 0ab3 8c3d e7c5 8fbd 041a dd3d
00000070: 2d2d 6c3e f98e 193e 9206 e8bd 651f 183e
00000080: 64ec 383d da65 063e 478a 22be 314a 83be
00000090: 033e cebd 89e7 4abe 85c2 563e 4666 983d
000000a0: 1e3a d83d cb0f a53d 7844 92bb dbdc 4e3e
000000b0: 8bfe 3cbe 3537 7e3c 3816 35be e205 a33d
000000c0: 9759 b7bd 1f53 a13d 4073 59bd 6f13 5a3e
000000d0: 3f84 1cbe a4d4 1dbe 077d 1ebe e290 6d3e
000000e0: 54be b13d 2352 7d3e be1f 5bbe 405c 83be
000000f0: 38a7 4fbe b9b6 32be 85b5 d63d f449 be3d
00000100: 3ba3 593e d9f5 07be e17c 34be b681 0a3e
00000110: b077 d3bd 1011 213e d80b 82bd a709 183e
00000120: e3fc 4ebe 7b5f 04be 7429 9f3d
-0.036729004 0.1977798 0.0365389 -0.12162939 0.065250434 -0.11902184 -0.03073717 -0.10464976
0.16988604 -0.2047916 -0.119059615 -0.07268148 -0.15415996 0.023568373 -0.2567657 0.23253685
-0.21962407 0.19965053 0.04279981 -0.0846383 0.15954469 0.03919712 0.2083877 0.028365225
-0.081767626 0.068700865 -0.07020169 0.10795978 0.23064108 0.14995946 -0.11329378 0.14855726
0.045147315 0.13124791 -0.15873061 -0.2564254 -0.100704215 -0.19814886 0.20972641 0.07441382
0.1055796 0.08059653 -0.0044637285 0.20201437 -0.18456475 0.015516092 -0.17684257 0.079601064
-0.08952635 0.07877182 -0.053088427 0.21296476 -0.15284823 -0.15413147 -0.15477382 0.231998
0.0867888 0.24738364 -0.21398827 -0.2565632 -0.20278633 -0.17452516 0.10483841 0.09291449
0.21253674 -0.13277377 -0.17625763 0.13526043 -0.10325563 0.15729165 -0.06349915 0.14847432
-0.20213656 -0.12927048 0.077715784

st_gcns.0.tcn.2.bias f4 [5]
00000000: b994 5f3d ead1 86bd 2299 1d3e 15bd 333e
00000010: 91bb 3fbe
0.054585192 -0.06583007 0.15390447 0.17552598 -0.18723895

st_gcns.0.tcn.3.weight f4 [5]
00000000: cd31 7f3f 1e07 7f3f b28d 7e3f 77a4 7e3f
00000010: c2d0 7e3f
0.99685365 0.99620235 0.9943496 0.99469703 0.9953729

st_gcns.0.tcn.3.bias f4 [5]
00000000: d197 22b9 b0a0 123a 2938 d8ba 5ebe 8dbb
00000010: 007c 6fbb
-0.0001550608 0.00055934023 -0.0016496229 -0.004325672 -0.0036542416

st_gcns.0.tcn.3.running_mean f4 [5]
00000000: 1c82 f9bd beed 4a3e b902 1c3e d4fc ba3d
00000010: ea28 81be
-0.121830195 0.19817254 0.15235414 0.091302544 -0.25226527

st_gcns.0.tcn.3.running_var f4 [5]
00000000: f20b 953d 59cb 023e 9580 923d 3c78 603e
00000010: 7e33 023e
0.07277669 0.12772883 0.07153431 0.21920866 0.12714955

st_gcns.0.residual.0.weight f4 [5, 2, 1, 1]
00000000: 832f c1be c0c7 253f e08d 75be 0186 7fbe
00000010: f02f 2fbf cb36 cfbe e167 353e 0d1c bdbd
00000020: fc67 03bf f6e6 803c
-0.3773156 0.6475792 -0.23979902 -0.24953462 -0.6843252 -0.4047149 0.17715408 -0.09233866
-0.5133054 0.01573513

st_gcns.0.residual.0.bias f4 [5]
00000000: 4a4d f7be 8293 19bf 755c c7be 296e 1ebf
00000010: 1886 e6be
-0.48301154 -0.59990704 -0.38937727 -0.6188684 -0.4502418

st_gcns.0.residual.1.weight f4 [5]
00000000: 1615 7f3f c257 7f3f 01e7 7e3f 07b8 7e3f
00000010: 23dd 7e3f
0.9964155 0.9974328 0.99571234 0.99499553 0.9955618

st_gcns.0.residual.1.bias f4 [5]
00000000: d197 22b9 b2a0 123a 2938 d8ba 5ebe 8dbb
00000010: 007c 6fbb
-0.0001550608 0.00055934035 -0.0016496229 -0.004325672 -0.0036542416

st_gcns.0.residual.1.running_mean f4 [5]
00000000: 5c94 00bf 481d 19bf 2a11 c8be 4744 1dbf
00000010: 8a86 eabe
-0.5022638 -0.59810305 -0.39075595 -0.6143231 -0.4580577

st_gcns.0.residual.1.running_var f4 [5]
00000000: d141 163f c76e eb3d d7f3 153f 325c 1e3d
00000010: f1ac 773e
0.5869418 0.114957385 0.58575195 0.038662143 0.24187066

tpcnns.0.weight f4 [12, 8, 3, 3]
00000000: 97c8 e83d 9a80 a13c 650f 0b3d 72ec e2bd
00000010: 311a a0bd 6373 29bd aaf7 913c 54a4 d4bd
00000020: e33c 50bd eb73 92bd 6761 b4ba 82c3 34bd
00000030: 915c 1fbc d474 a5bd 0039 a8bd 62e9 8ebd
00000040: 2808 2bbd 7c51 bfbd e794 c23d e2a3 d8bc
00000050: 3e98 c93d edc1 0b3d 686e cebd b76c a33d
00000060: e775 09bd 180e 3fbd fc1d cabd 1452 f1bd
00000070: 1620 043d 3382 d9bc d056 303d 3689 c7bd
00000080: 2a8b ad3d 1cb2 b1bd aa84 afbc d9b7 c03c
00000090: 0c4c 713d b349 bd3d 1ba5 d53d b4f2 bfbd
000000a0: 6778 e23c 55c8 51bd f6ca 68bc 4116 b5bd
000000b0: bbfa d73d b016 b3bd 4f3e 7a3d 9821 263d
000000c0: 4d9b 133d d5a4 85bd bb4c d63d 2d6e cb3c
000000d0: 8579 5d3c be07 d6bd 449a 433d 7bbf 9fbc
000000e0: d0eb 61bd eded c93d 5365 c63c a6b2 89bd
000000f0: bcff 79bd e59c e7bb 1534 823d c592 02bd
00000100: 33f4 8bbd 55f8 2bbd a724 b5bd 206a 243d
00000110: 1da4 b53d bd76 e3bd a8f9 d13c 6609 753d
00000120: 1644 a73c 4cdc 2fbd 3929 743d c521 763d
00000130: 04ee 2e3d 4f2b b7bc 2b92 06bd 564c 3e3c
00000140: c929 b2bc fcf3 12bd 3ddc 963d 90b3 ca3d
00000150: 89bd 4abc 0d8d e4bc 6b8b 95b9 b213 04bc
00000160: 9ff7 da3c 86e4 fa3c 4607 dcbd 0834 34bd
00000170: 95f6 c53d e771 343d 7c50 cfbb 09f3 91bd
00000180: 71a3 94bd 2fb2 d8bd 2c22 21bd 7752 213d
00000190: 5dda 943d 5a8a 573d 7a3a d6bd 88a2 92bd
000001a0: 3a47 a3bc 66fa e43d b433 833c f3fa 02bd
000001b0: cd81 453d 2399 3dbd a03d 9dbd d381 ac3d
000001c0: 9aa0 5fbd 6dd9 cdbc 7d56 efbd 1056 9a3d
000001d0: 2b93 b33d 0db9 2c3d 6e86 aabd 274c eebd
000001e0: 895d c5bd 25d7 ab3d 1c67 603d ac0c c73d
000001f0: 7c8f 713d b883 e73c 5816 43bb a2d6 b8bd
00000200: 2b8f d0bd 2a24 e2bd 0664 393d 404e 73bd
00000210: 528a cebc 45b7 8cbd bb4d bfbc 2ee1 a9bd
00000220: 0429 a0bd 6b7d 1b3d 3feb 12bd 21f0 8e3d
00000230: 6a14 1ebd 1bbf b1bd 4095 b9bc 2b98 70bd
00000240: 6ed4 18bd 0293 e6bd c576 833d 608b abbd
00000250: 800f 633d dc49 513d c843 a73d ab9f b9bd
00000260: 1f54 a73d 3432 67bd a061 2c3d 8760 de3d
00000270: 2295 90bc 3694 06bb 609c e7bc df8c cabd
00000280: ddf5 5c3d d504 efbd ae30 903d fec7 ac3d
00000290: 95e3 de3d 6641 f5bc 4151 cabd 07bf bc3c
000002a0: f389 803d e7d9 f2bd 1373 e6bc 09fa 92bd
000002b0: 9005 3ebc 95be 6fbd 7fbf 4cbd 2e16 21bd
000002c0: 9d49 e7bd 906e c03d 69bd c13d 9f21 a5bc
000002d0: da6f 7bbc f136 45bd 7433 dbbd cc50 ebbd
000002e0: 77ce 2b3d 04e8 86bd d379 9ebd f4d5 20bc
000002f0: 724e 24bd cc11 1fbd 445d 5e3b 3baf cdbc
00000300: 7e3c 2cbd 7e9f 6fbd 6606 c3bd ab11 c43d
00000310: 50e3 45bd 5769 f03c 7b54 2dbd e498 ed3b
00000320: e00a da3d 7b2a 523d fcec d2bd d921 313d
00000330: e35e df3d fa83 e53c 7e06 9b3d 0679 ea3d
00000340: e5c2 9dbc d8d7 c33c 288c aabd 195c cabc
00000350: 07c8 af3d f360 703d 6c95 9bbd e5bc c1bd
00000360: 056d a5bd 30cf edbd de15 bbbd 39c4 f7bc
00000370: f072 a03d e0eb 8c3c 36b1 b7bd a2a9 c2bd
00000380: 8ff8 693d 6b44 b2bd fed7 7cbc 374b 643d
00000390: cfdd 5fbd 6897 62bc e017 24bc 1ab1 e7bc
000003a0: ac87 76bd 0653 d7bd ed54 c2bd 5511 82bd
000003b0: 749e e63d af5e 6cbd 8d5c a4bd a5d5 d83c
000003c0: e52b 013d 1062 813d 6524 b13d b0a4 833d
000003d0: 8c56 eebd 9a17 243c ec29 8f3d 7b1d 3cbc
000003e0: 3989 8ebd 13d8 e33d 6aeb 35bd 14b5 8bbd
000003f0: f38a d9bd 81d1 a53b a54d 4d3d ef26 ca3c
0.113663845 0.019714642 0.03395023 -0.110802546 -0.078174956 -0.041369807 0.01781829 -0.103829056
-0.050839316 -0.07151016 -0.0013761938 -0.044131763 -0.009726659 -0.08078924 -0.08213997 -0.06978108
-0.041755825 -0.09341714 0.09501057 -0.026445333 0.09843491 0.03412049 -0.10079652 0.0797972
-0.033559706 -0.0466443 -0.09869 -0.11783233 0.032257162 -0.026551342 0.04305154 -0.09742968
0.08473809 -0.0867655 -0.021425564 0.023525165 0.058910415 0.09242573 0.10431882 -0.09372464
0.027645303 -0.051216442 -0.014208546 -0.08842135 0.1054587 -0.08744562 0.06109458 0.04055938
0.03603678 -0.0652558 0.10463854 0.02483281 0.013517742 -0.104506955 0.04775454 -0.019500485
-0.05515653 0.09859834 0.024218237 -0.067235276 -0.061034903 -0.007068264 0.0635759 -0.03187825
-0.06833687 -0.041984875 -0.088448815 0.04014027 0.08869193 -0.11106632 0.02563174 0.059823416
0.020418208 -0.0429347 0.059609625 0.0600908 0.04270746 -0.022359518 -0.03285424 0.01161488
-0.02174844 -0.035877213 0.07366226 0.0989753 -0.01237429 -0.02789929 -0.0002852337 -0.008061336
0.026729403 0.030626547 -0.10743575 -0.043994933 0.096661724 0.04405394 -0.006326733 -0.071264334
-0.072577365 -0.10580861 -0.03933923 0.039385285 0.07268212 0.052622177 -0.10460372 -0.071599066
-0.019931424 0.11180572 0.016015865 -0.031977605 0.04821949 -0.04628862 -0.0767777 0.084231995
-0.05459652 -0.02512809 -0.11686418 0.07535946 0.087683044 0.042168666 -0.08326422 -0.11635619
-0.09636981 0.08390645 0.054785833 0.09719214 0.058974728 0.02826105 -0.0029767957 -0.09025313
-0.10183557 -0.11042054 0.045261405 -0.059400797 -0.02521244 -0.068708934 -0.023352494 -0.08294903
-0.07820323 0.037961405 -0.03586888 0.06979395 -0.038593687 -0.086790286 -0.022654176 -0.05873887
-0.037311964 -0.11258508 0.06419138 -0.08376193 0.055434704 0.05109583 0.08167225 -0.090636574
0.08170342 -0.05644436 0.04208529 0.10858255 -0.017649237 -0.0020535118 -0.028272808 -0.0989015
0.05394541 -0.116708435 0.07040535 0.08436583 0.108832516 -0.029938411 -0.09878779 0.023040308
0.06276312 -0.11857968 -0.028131044 -0.07176597 -0.011598006 -0.058531363 -0.049987312 -0.039327793
-0.112933375 0.09396088 0.09459955 -0.020157633 -0.015346492 -0.0481481 -0.10703173 -0.1149002
0.041944947 -0.06587222 -0.0773808 -0.009816635 -0.040113874 -0.03883533 0.0033930102 -0.02510797
-0.042049877 -0.058501713 -0.09522705 0.095736824 -0.048312485 0.029347105 -0.042316895 0.007250892
0.106466055 0.051310044 -0.102991074 0.04324517 0.1090677 0.028017033 0.07569598 0.11448865
-0.019257972 0.023906633 -0.08327514 -0.024702119 0.08583074 0.058686208 -0.07596859 -0.09459857
-0.080774345 -0.116117835 -0.0913503 -0.030244933 0.078344226 0.017202318 -0.08969347 -0.09505011
0.05712181 -0.08704456 -0.015432356 0.055735793 -0.054654893 -0.013830043 -0.010015458 -0.02828269
-0.06018798 -0.10513882 -0.094888546 -0.06350962 0.11260691 -0.057707485 -0.08025465 0.026469061
0.031536 0.06317532 0.0864952 0.06427896 -0.11637601 0.010015393 0.06990418 -0.011481638
-0.06959767 0.11125197 -0.04441396 -0.06821647 -0.106222056 0.005060375 0.050122876 0.024676768

tpcnns.0.bias f4 [12]
00000000: a91d c53d a76a abbc 9dfc 4ebd c90c 923d
00000010: afd8 b73d 6dbe e43d 97ec d33c 6a41 32bd
00000020: 390e 583d fbb0 bf3d 2cba febd d4c9 77bc
0.09624798 -0.02092488 -0.05053388 0.07131345 0.08976876 0.11169133 0.02586965 -0.043519415
0.05274794 0.09359928 -0.12437853 -0.015123803

tpcnns.1.weight f4 [12, 12, 3, 3]
00000000: 9c3d 86bd ee65 933c 22ab 223d 76c7 a3bc
00000010: 7032 12bc 95f2 303d 555b 85bc f859 a5bd
00000020: 9b67 9d3d 8e12 46bd 05ce 2dbc 4fc3 143c
00000030: f64b bbbb d3f2 b8bd 47e8 343d b6ed 32bd
00000040: 9f6f 4cbd 5ce5 bc3c ae2b 4ebd 065a 36bd
00000050: f44f 04bd f9cd 13bd 2410 25bd 7d04 d5bc
00000060: d29a cc3c 0069 9fbd 643f 6ebd a92c 963a
00000070: dd79 573c 86bf 593d 357f 8abd 9df4 fb3c
00000080: c00d 603d d57f 5a3d 7891 b7bd 2bc2 15bd
00000090: 8c92 a9bd 2bf9 79bd e062 5b3d 54a0 70bc
000000a0: f770 263d ae93 67bd d7ea 6b3c fcf0 6dbd
000000b0: 763b 443d 88c2 2dbd 9d81 c7bc f012 abbd
000000c0: 9302 c1b9 e744 b93d acab 3d3d 9670 53bd
000000d0: f802 6c3a a13b 32bc 2eec 9ebd 316d 9a3d
000000e0: 4d4f cb3a 85fb a33c f71c 20bd 942c 39bd
000000f0: 31c4 813c 322d 113d ff33 b13c b0b2 3dbd
00000100: ce65 bf3d 9314 69bc 5e15 72bd 8c0e 39bd
00000110: d8d9 c13d ad47 b236 5c8f 58bc 66ee 23bd
00000120: 84fc d0bc 3387 a6bd bdec 9cbd 1c48 653d
00000130: 70ef a73d a281 bb3d 57a7 8ebd 5638 553d
00000140: b9fe 74bd b4b1 6a3d 7c94 8d3d ca34 983d
00000150: a2f0 8c3d 10f8 753d 4180 d03a e937 343d
00000160: 32dd 0dbd 0dfc 2a3d dd83 fcbc a79a d2ba
00000170: 9293 abbd aa14 d0bc 4967 51bd 08e9 04bd
00000180: 0093 7cbd a57c b1bd 5b1c c73b decd 7f3d
00000190: 6169 b33d a3d6 653d 7aca 4cbd 752a c3bd
000001a0: 78df 153d bbbd 5c3d 58e1 a8bd bca8 0d3d
000001b0: fb20 a63d ccc3 b33b 6818 6cbd f94d a03d
000001c0: b6c6 273d 9d83 823d 576a 85bd 971c 633d
000001d0: 294a 86bd 4874 c23d 3eea 26bd 4df0 6c3d
000001e0: 0a7c 9d3c 3d57 c83c 40fc 6fbc 30eb 213d
000001f0: aa6b 23bd 7ac7 b9bd ccbb 16bd 3336 9a3d
00000200: 37d3 cfbc b888 f73c daba 11bd f9fd 933d
00000210: 7cc4 6c3d 7f8e 0a3d a1bd 48bd dade a0bd
00000220: bfc1 5d3b 4003 67bd e5f4 a13d 72e2 bdbd
00000230: 664f 303d c6f4 c33d f597 443d 3978 053d
00000240: ac6b bebd 4ad0 bb3d e639 85bc d827 b8bd
00000250: eb4b c03d de78 20bd b5de f0bb 303a b23d
00000260: d07f 89bd 4d6b 8cbd d97c 743c c020 59bc
00000270: 65ba b23c cef0 a6bd c106 0a3b 269b 2ebd
00000280: a975 45bd 443e b5bd fbbc 4e3d ac30 933c
00000290: 60c8 a6bd 001f 9c3d 0220 e43c ed4d 923c
000002a0: c64c 69bd bedb 613c 6ae1 bd3d f841 863d
000002b0: 087d 99bd 819d b33d bfc8 ee3b cb02 3c3d
000002c0: eb36 983d ef56 a73d 69b6 99bd dbd6 ab3d
000002d0: a167 87bd 46a9 d73b 2bf9 88bd 3af0 b6bc
000002e0: e1cd b2bb 0467 47bc a921 81bc 2541 d03b
000002f0: 2d83 bf3d 5273 623d e66a 5b3d 6485 1b3d
00000300: 1c1d 973d dfcc b1bb 2175 e93b b7f8 9c3c
00000310: a1a3 acbd 5bd4 a0bd d56b 363c f3e8 1bbd
00000320: df1f baba f018 b8bc bcd9 6a3c cb45 7e3d
00000330: b6ab 03bd 5f6c 9b3d 84e4 9a3d e602 97bd
00000340: d5db 97bd c93a 9fbd 3860 57bd c920 19bd
00000350: 9b39 e7bb 3f02 c0bc d5bd 46bd 0703 f9bc
00000360: 9380 0ebd c897 c13d ce1f 12bd f31e 8dbd
00000370: 4710 243d 4105 b1bb 92e3 953d a3ea 743d
00000380: f8e3 b33d 7fa7 8fbd 20e1 7c3d c5be a53d
00000390: 3ee7 42bd 98ac b53d 397d 933d 8601 723a
000003a0: de15 3e3d ffcd 08bd 1e13 acbd 64df c33c
000003b0: a3bc e83c cc91 80bd 70cf 373d 0088 a8bd
000003c0: 023b a93d f327 be3d 8738 d33c dd6a 78bd
000003d0: ebc4 3c3d 67e1 843c e72a d53c 23bf fd3c
000003e0: 3a86 953d 8104 29bd d619 b3bc 8904 d63c
000003f0: efe8 293c c228 9e3d c157 4ebd f564 84bb
-0.0655472 0.01799294 0.039713986 -0.019992571 -0.008923158 0.043200094 -0.016278902 -0.08073801
0.07685777 -0.04835754 -0.010608201 0.009079768 -0.0057158424 -0.0903069 0.04416683 -0.04368373
-0.049911138 0.023058586 -0.050334625 -0.044519447 -0.03230281 -0.036085103 -0.040298596 -0.026003117
0.024976168 -0.07783699 -0.058165923 0.0011457402 0.013151613 0.053161167 -0.06762544 0.03075629
0.054700613 0.053344566 -0.08963293 -0.036562126 -0.08279905 -0.06102864 0.05356109 -0.014686663
0.040635075 -0.056537323 0.014399252 -0.05809115 0.04790827 -0.042421848 -0.024353797 -0.083532214
-0.00036813747 0.09046345 0.046306297 -0.051621042 0.0009003128 -0.010878474 -0.077598915 0.07540358
0.0015511304 0.020017395 -0.039090123 -0.04520853 0.015840622 0.035443492 0.021631239 -0.046312988
0.093455896 -0.014226097 -0.05910241 -0.04517989 0.094653785 5.3131575e-06 -0.013217773 -0.040022276
-0.025511034 -0.08131256 -0.07662342 0.055976972 0.08199966 0.09155585 -0.06965511 0.05205568
-0.059813235 0.057298377 0.06913087 0.07431944 0.068818346 0.060051024 0.0015907363 0.043998633
-0.034634776 0.04174428 -0.030824596 -0.0016067819 -0.08377756 -0.025400478 -0.05112389 -0.0324488
-0.061663628 -0.08666352 0.0060763783 0.06245219 0.08760334 0.056112897 -0.049997784 -0.095295824
0.03659007 0.05389188 -0.08246106 0.034584746 0.08111759 0.0054859873 -0.057640463 0.07827372
0.04096099 0.063727595 -0.06514423 0.055447187 -0.06557114 0.09494835 -0.040750735 0.057846356
0.019224185 0.024455661 -0.014647543 0.039530933 -0.0398976 -0.0907125 -0.03680019 0.07529869
-0.02536927 0.03021656 -0.035578586 0.07226176 0.05780457 0.0338273 -0.04900897 -0.078550056
0.0033837405 -0.056399584 0.07908038 -0.09271707 0.04304447 0.09568171 0.04799648 0.032585356
-0.092978805 0.09170587 -0.01626296 -0.089919746 0.0938948 -0.039177768 -0.0073507675 0.08702505
-0.067138314 -0.068564035 0.014922344 -0.013252437 0.021817395 -0.081513986 0.0021061155 -0.04262843
-0.048207913 -0.08849767 0.050473195 0.017967544 -0.08143687 0.076231 0.027847294 0.017859424
-0.056957982 0.013785301 0.0927151 0.06555551 -0.07494551 0.08770276 0.0072871144 0.0459011
0.0743235 0.08170878 -0.07505495 0.0839059 -0.066115625 0.0065814583 -0.0668815 -0.022331346
-0.0054566716 -0.012170557 -0.01576312 0.006355422 0.09351192 0.05528576 0.053568743 0.037969008
0.07378599 -0.005426034 0.0071245586 0.019161565 -0.08429647 -0.078530036 0.011134108 -0.038063955
-0.0014200172 -0.022472829 0.0143341385 0.06207828 -0.03214618 0.075890295 0.07563117 -0.073736
-0.074149765 -0.07774884 -0.052581996 -0.037384782 -0.0070564277 -0.023438571 -0.04852088 -0.030396951
-0.034790587 0.09452778 -0.035674863 -0.06890669 0.040054586 -0.0054022376 0.07318796 0.05979408
0.08783716 -0.07014369 0.061738133 0.08093027 -0.04758381 0.0887081 0.07201619 0.00092317944
0.046407573 -0.03339958 -0.08402084 0.023910232 0.028410261 -0.062778085 0.044875562 -0.08229065
0.08263208 0.092849635 0.02578379 -0.060648788 0.046086233 0.016220761 0.026021434 0.03097493
0.07300992 -0.04126406 -0.021862905 0.02612521 0.010370477 0.07722618 -0.050376657 -0.0040403553

tpcnns.1.bias f4 [12]
00000000: dbeb b8bd e716 5fbb 5153 383c badb 67bd
00000010: 38f4 723d f973 1bbd b473 11bd 6596 943d
00000020: c4c2 a13d 7276 6cbc 0274 9abd a7c0 45bd
-0.09029361 -0.003404075 0.011250333 -0.056606032 0.059314936 -0.037952397 -0.035510734 0.07255248
0.07898477 -0.014432536 -0.07541658 -0.04827943

tpcnns.2.weight f4 [12, 12, 3, 3]
00000000: 89d4 483c 3e74 683d cb94 433d c65d 2ebd
00000010: 738c bcbd 3185 acbd 2a6b f9bc 293d db3a
00000020: c7db 30bd 7c8c 9bbd 3985 263c e017 9cbd
00000030: 0760 97bd b33b 9fbd 1c1d d5bc 271a ae3d
00000040: 5995 193d 0ec0 3abc 7649 9f3c 94f9 1c3d
00000050: d340 513a 8988 9ebd 6f22 72bd 71b8 85bd
00000060: a9cb 28bb 9c34 b4bd 63d3 8fbc 0bb0 10bd
00000070: a3f3 c03d fd41 a03d cec6 643d 1af1 b63b
00000080: 3311 ffbc 0e2f c83c 5638 88bd cf31 27bd
00000090: 5dd6 9dbc 44af b7bc 5fbd babd 9081 1b3d
000000a0: b846 a23d 7f0e 5abd e831 d43c c7d8 2fbc
000000b0: 5633 61bb 42c9 ab3b 7cee aa3d 0c6f 583c
000000c0: 52f9 7abd 5145 10bd ac32 403d 7791 f53c
000000d0: ab84 043b cc6e 50bc ee90 19bd ab43 0cbd
000000e0: 338f 4fbd cf1c 803c a9e8 da3c 22c5 963d
000000f0: bc2d afbc 9d19 ed3b fc4f 7f3d ad68 2b3d
00000100: f7a4 493c eb52 f23c 68e5 a03b b666 a9bd
00000110: 0882 6f3b 6af2 aabc 1aad b13d 4e2d b23d
00000120: 27e5 9c3c 7172 b13d 10dc 49bd 8119 ab3d
00000130: 389c a93d b5c6 70bb 46e0 9dbd 67ae f9bc
00000140: c16a d2bc 1503 e43a d91f b3bd 894b 933c
00000150: 58aa 24bd 6313 c7bc 5fb2 4bbd 4767 a5bc
00000160: 3509 b7bd ecc7 50bd 1461 163c 8bc5 813d
00000170: 7975 b33d 4b4c 95bd 8440 233d 700a 5dbd
00000180: 243f 98bd 5f51 83bb 2259 62bd 84b4 a9bd
00000190: dd54 b8bd 7fb0 83bd 388b a13d d0e0 5a3d
000001a0: 1cb2 1bbd e2be 83bd 055c 97bd eccf 68bd
000001b0: 1be1 22bd 1b88 6b3d a777 023d ab8c 19bd
000001c0: 1343 873d 367e 74bd 6164 a0bd 6be6 a83c
000001d0: 207b 58bd 8612 de3c c3a5 a63d 3edf 3abd
000001e0: 1ad0 89bd 28fc 0e3d a9c7 b1bd 1884 af3d
000001f0: 41f8 39bd f393 3d3d 219c 9cbd b5f0 85bd
00000200: 54a7 2f3c 01c1 0a3d 62b3 983d a01e a53d
00000210: 0567 b7bb 128c 4fbc 2d91 833c 1ef2 b5bc
00000220: 06e8 523b d755 babd 7ad1 a1bd c197 863d
00000230: 8f7e 65bd aee6 9a3d 6bbd 2b3c 5f1f c03c
00000240: a900 b23d 1443 5ebd d79d 77bc 7be4 8a3c
00000250: 6b31 023d bd7a c0bd a6ce 083d cfaa 6bbd
00000260: 0945 463c 9c5b 843d 9456 27bc afe6 4ebb
00000270: d201 efbb b136 a33d 29d3 5e3d dc52 843c
00000280: fa45 6fbd 11bc 56bd 2bbf 9b3d d279 8c3d
00000290: 2fee 633d c859 9abd 5845 973d fc09 1abc
000002a0: 9b6a 903d d24d a93d f850 2c3c 6415 26bd
000002b0: f64c b93d 642f 4ebd 7f11 803d 965b bdbd
000002c0: e4d6 fbbc 0286 acbd 9669 31bd 2356 263d
000002d0: 8881 8ebd 04b7 abbd 178a 8d3d 94ce 4d3d
000002e0: f3a4 f9ba d516 8cbd 04b9 d5bc ba07 04bd
000002f0: fa0b 6e3d 6919 03bd 45e9 e3bc 9839 8cbd
00000300: 7d1d 3bbd 2203 533d 898b 7c3d db02 5f3c
00000310: d6ab 14bd 01ad bb3d cd93 943c 4e95 19bd
00000320: 034c 08bd 2df4 63bc 2403 383d 4cd2 0c3d
00000330: d9c4 8d3d 9928 b6bb 6822 a23d 4b27 20bd
00000340: 4d6b 34bd c785 11bd 5473 b8bd 03fd 80bd
00000350: 4dfa b1bd 51eb bbbb b0f7 9a3a 692f cbbc
00000360: 4043 86bd 7342 b33d 8d06 03bd c7ef 3a3d
00000370: d26b 893d c07d 81bd 8526 4cbc efcd 623d
00000380: 3c31 be3d 6221 3fbc 50cf 8e3d 6440 9abd
00000390: 711c 80bd 104f a33d 50e9 14bc 68f9 c13d
000003a0: f4a9 dd3b 2faa 22bd e0bd b93d e7ed aa3d
000003b0: 855e 0e3c 7562 70bd 349f d1bb 3286 3ebd
000003c0: eb99 8e3d 1d41 8c3b 8590 a43c efbd 6d3d
000003d0: 2e63 003d e8d6 75bd d698 a33d b258 703d
000003e0: 7d27 74bd 717f 953d d95a de3c fad0 9bbc
000003f0: 6b7d 8dbd 25e2 86bc d9a2 c0bd 9d21 5d3d
0.012257704 0.056751482 0.047749322 -0.042569898 -0.09206476 -0.08423842 -0.030446608 0.0016726601
-0.043178346 -0.07595155 0.010163599 -0.07621741 -0.07391363 -0.077750586 -0.026014857 0.08501082
0.037495945 -0.0113983285 0.019444209 0.038323954 0.0007982377 -0.07740886 -0.05911487 -0.0652932
-0.0025756157 -0.08799097 -0.017556852 -0.035324138 0.0942147 0.07825086 0.055853657 0.0055829408
-0.03113613 0.0244365 -0.0665137 -0.040818986 -0.019267255 -0.02242244 -0.09118151 0.037965357
0.07923645 -0.05323648 0.025902703 -0.010732836 -0.0034362874 0.0052424977 0.083462685 0.013210069
-0.061272927 -0.035222355 0.046923324 0.02997659 0.0020220678 -0.0127217285 -0.03749173 -0.03424422
-0.050673675 0.015638737 0.02672227 0.07361819 -0.021384113 0.0072357194 0.06233214 0.041847873
0.012307397 0.029580554 0.00491016 -0.08271544 0.003654601 -0.020867545 0.08675595 0.087000474
0.019152237 0.08664406 -0.049282134 0.08354474 0.082817495 -0.0036739532 -0.077087924 -0.03047867
-0.02568567 0.0017395938 -0.08746309 0.017980354 -0.040201515 -0.024301236 -0.049730655 -0.020190848
-0.08937303 -0.05097191 0.009178419 0.063365065 0.087626405 -0.07289942 0.03985645 -0.053965032
-0.07433918 -0.004007503 -0.055260785 -0.08286384 -0.090005614 -0.06430148 0.07887882 0.053437054
-0.038011655 -0.064328924 -0.07390598 -0.056838915 -0.03976546 0.057502847 0.03185239 -0.037487667
0.0660459 -0.059690677 -0.07831646 0.020617684 -0.052851796 0.027108442 0.08137085 -0.045623057
-0.06729145 0.034908444 -0.0868066 0.08570117 -0.04540277 0.046283673 -0.07646967 -0.06540052
0.0107210465 0.03387547 0.074560896 0.08062482 -0.0055969977 -0.012667673 0.016060436 -0.022210177
0.0032181754 -0.09098404 -0.079012826 0.065719135 -0.0560289 0.0756353 0.0104821725 0.023452459
0.08691532 -0.05426319 -0.015113316 0.016954651 0.03178541 -0.093984105 0.0334002 -0.057535943
0.01210142 0.064627856 -0.010213513 -0.0031570604 -0.007293918 0.07969416 0.054400597 0.016152792
-0.058416344 -0.052425448 0.07604822 0.06859173 0.05564707 -0.07536656 0.07386273 -0.0094017945
0.070515834 0.08266796 0.010517351 -0.040547743 0.09047882 -0.050338164 0.06253337 -0.09245984
-0.030742116 -0.084239975 -0.043313585 0.04060949 -0.069583 -0.08384517 0.06911104 0.050245836
-0.0019046351 -0.06840292 -0.026089199 -0.03223393 0.05811689 -0.032006655 -0.027821193 -0.06846923
-0.04568242 0.05151666 0.06165651 0.013611521 -0.036296688 0.09163857 0.018136883 -0.037495904
-0.033275615 -0.0139131965 0.04492487 0.034380242 0.06922311 -0.005559039 0.07916719 -0.039099973
-0.044047642 -0.03552797 -0.09006372 -0.06298258 -0.08690319 -0.005734839 0.0011823084 -0.02480288
-0.06555796 0.087529086 -0.03198867 0.045638826 0.06710018 -0.06322813 -0.012460356 0.055372175
0.092867345 -0.011665674 0.069731355 -0.07531813 -0.06255425 0.07974064 -0.009088829 0.094713986
0.0067646448 -0.03971308 0.09069419 0.083461575 0.008689527 -0.058687646 -0.0063971523 -0.046514697
0.06962951 0.004280223 0.020088444 0.058042463 0.031344585 -0.060019404 0.079881355 0.058678336
-0.05960797 0.07299698 0.027142929 -0.019020546 -0.06908687 -0.016465256 -0.09406061 0.053987134

tpcnns.2.bias f4 [12]
00000000: 9f2f 223d d4a3 bebd 66aa d7bc 1c89 203d
00000010: 8614 23bc 4243 03bd 5d67 61bd 2cfb b13d
00000020: e765 a3bd 9c15 9fbd d36f 833d 7320 70bd
0.039596196 -0.093085915 -0.02632637 0.039193258 -0.009953624 -0.032046564 -0.055030216 0.08690485
-0.07978421 -0.077677935 0.06417813 -0.058624696

tpcnns.3.weight f4 [12, 12, 3, 3]
00000000: 4ef4 6d3d 379b 58bd 8e2d 57bc c1ca 3ebd
00000010: 6b0a a13d dd72 883d a7c7 9a3b 4162 313b
00000020: e777 14bd 5ee5 51bd 2c47 15bd 01d6 013d
00000030: b9ff 8dbc 2781 863d f03f 653c ea80 863a
00000040: f8fd 74bd 58e2 1e3d 3847 b7bd 0dc9 b63c
00000050: af2d 0d3d 42f8 8e3c be90 8a3d c33c be3c
00000060: cb04 dbbc 56ac 89bd e2b8 b6bd 7002 463d
00000070: f675 553d c658 96bd 7a52 d23c 5b48 10bd
00000080: 0544 a63d 8cde 07bd 1327 a33d 2c8c 8b3d
00000090: 3ff8 593d 16b9 863d 2bc1 f53c 8676 043d
000000a0: 4fa8 a7bd 5f5d b4bc 0232 34bc cb1b 413d
000000b0: 33a2 18bd 7745 333d 26a3 853d 1359 2a3d
000000c0: 3179 493d ce0d 58bc ed6d 3c3d e07d 07bd
000000d0: dabd aa3d d5bd 1bbb f173 b7bb 3176 adbd
000000e0: a241 b63d 366a 5fbc b629 923d 73fc 80bd
000000f0: ff65 a4bd a759 76bc d8fe 9cbd 0652 983c
00000100: ba19 b53a a3ac 10bd 8b37 763d 3b5c 7e3d
00000110: fa4f aebd 46ba 9dbd 0031 663d 69bb 6ebd
00000120: a672 973c 29dc cfbc b797 8f3c b73a 5abd
00000130: 147a 273a e430 0bbd 562b 31bd 500d 3fbd
00000140: 8812 b03c 0005 803d 868c 2bbb f9ba 6fba
00000150: 6d35 a23d bc1d 9f3d a12e 66bc 5f2b a1bd
00000160: 5e8f b83c c33b ec3c b7a2 9bbd bc7b b0bd
00000170: 7a01 263c 3410 c03d 89fc b0bd 326d 40bd
00000180: 893b 08bd be9a adbd 56d1 72bd 3c99 9a3d
00000190: e43f 963d 0bea 90bd 8ec6 ff3a 61d2 a0bd
000001a0: ce1a 243d e3c7 86bd 0af6 48bd dddc 36bd
000001b0: 3f81 653c fa38 833d 26da 23bd 67ac 8e3c
000001c0: 34be 9c3d 92aa b9bb 95e1 213c b90c df3b
000001d0: 86e1 9bba 5c85 6b3d ae59 543d 894f 53bd
000001e0: 0fd9 bb3d 0020 5f3d 70a2 75bc 6248 ab3d
000001f0: f58c a73b d506 783d c58b a7bd ad2a b03d
00000200: 46cf b93d afe2 93bd abb7 b0bd 4586 e4bc
00000210: 7dda 72bd 5edf ce3c d424 2f3d 5c30 4abc
00000220: 0e5c 8a3d 376f 793b 9500 e8bc a650 a8bd
00000230: 5f1f fb3c a2d7 b9bd 9cc2 04ba 1df2 653c
00000240: a7ec 5dbd 7997 e73c 2632 9a3c 7c8b 833d
00000250: 961b 733d 96b3 9fbd 5612 93bd 3491 12bd
00000260: 3e59 8ebd fe4d f53c 8cf8 81bd 7875 96bd
00000270: a484 e33c e2ca 6b3d 19d6 e5bc fc7f c4bd
00000280: 9738 553c a3ad 493d 09c9 983d 377f 0e3c
00000290: 64f3 883d f104 b1bd 4dbd ba3d 5f51 7ebd
000002a0: 38fc 86bd 9553 8c3d 6711 afbc e459 713d
000002b0: ba56 8abd 9a8b 943d cd15 ba3d ad4e eb3c
000002c0: bec0 9d3d 3a88 8dbd 0d27 b1bc 9652 ed3c
000002d0: 1225 5b3d f017 54bd dbef 7b3d 54a0 05bd
000002e0: b48a 55bd c125 953c 8568 9ebd 09d9 b6bd
000002f0: 6065 fc3c 0c99 043d a0d2 173d 3bd8 50bc
00000300: a88b 90bd 04e7 9ebd d234 bc3d 6623 abbd
00000310: 7166 ed3c c81b 9f3d 421b 953d f78a 79bd
00000320: b8ba fcbc cc51 9ebd c62f 743d 99d0 b9bd
00000330: a92c b6bd 5d2b 85bd 81ec 9f3d b3aa 7f3d
00000340: b244 843d ca12 973d 0cef 36bd 3966 5bbd
00000350: 28d5 71bd b52c 023d 31c7 193d e24b a43c
00000360: 917f 97bd 2387 0e3c 2af8 50bd a515 9bbc
00000370: 3cf1 73bc d156 a13b e522 adbd d30a a83d
00000380: 10f6 27bd 93c6 f83c f78f 873d 3da7 1f3d
00000390: fdc8 893d b787 5f3d 064a 903d a1c1 a53c
000003a0: eeb1 7b3d b4ef 2abd 6a6d 55bd 1be8 3a3d
000003b0: 7fda cf3c 146d 6ebb f24f a8bd a79b 003d
000003c0: a189 7e3d 5e0d 39bc a09b b43c fb32 2f3d
000003d0: 4b0e c3bd a97f 82bc 9f60 12bd 9a17 4abd
000003e0: 4974 703d afbd c33d a8dc 7a3c 77ef 743d
000003f0: c707 92bd 5c8c 8a3c a3c4 47bc 69bf 73bd
0.058094315 -0.0528824 -0.01313342 -0.04658008 0.07863315 0.066625334 0.0047235074 0.002706662
-0.03624716 -0.051244132 -0.036444828 0.03169823 -0.017333852 0.065676026 0.013992295 0.0010261808
-0.059812516 0.038790077 -0.08949131 0.022312665 0.034467395 0.017452363 0.06765889 0.023222333
-0.026735684 -0.067223236 -0.08921982 0.04834217 0.05211445 -0.07341151 0.025674094 -0.035225254
0.081184424 -0.03317122 0.07966437 0.06813845 0.05321526 0.06578271 0.029999336 0.032339595
-0.08186399 -0.022017179 -0.010998251 0.047145646 -0.03726406 0.04376742 0.06525259 0.041588854
0.049187843 -0.013186885 0.04600327 -0.033079028 0.083369926 -0.0023764272 -0.005598538 -0.08469809
0.08899237 -0.0136361625 0.07136862 -0.06298151 -0.08027267 -0.015036023 -0.07665795 0.0185938
0.0013816871 -0.03532089 0.060111564 0.062099677 -0.08511348 -0.077015445 0.056199074 -0.058284197
0.018487286 -0.025373535 0.017528398 -0.05327865 0.00063887355 -0.033982173 -0.04325422 -0.046643555
0.021493211 0.06250954 -0.0026176288 -0.00091449876 0.079203464 0.07769343 -0.014049203 -0.078696005
0.0225293 0.02883709 -0.07599395 -0.086173505 0.010132188 0.093780905 -0.08641917 -0.046979137
-0.033259902 -0.0847678 -0.05928167 0.075487584 0.07336405 -0.0707589 0.001951413 -0.078526266
0.040064625 -0.06581094 -0.049062766 -0.044644225 0.014007865 0.06407352 -0.040002964 0.017416192
0.07653466 -0.0056660855 0.009880443 0.0068069366 -0.0011892773 0.05750023 0.051843338 -0.051589523
0.0917226 0.054473877 -0.014992341 0.08363415 0.005113239 0.06055339 -0.08180956 0.0860189
0.090727374 -0.07220971 -0.08628782 -0.027896056 -0.059290398 0.025252994 0.04275973 -0.012340631
0.06755839 0.0038060674 -0.02832059 -0.082185075 0.030654607 -0.09074332 -0.00050643994 0.014034775
-0.054180767 0.02827047 0.01882274 0.06423089 0.05935248 -0.07797925 -0.07181232 -0.035783008
-0.06950615 0.029944416 -0.06346235 -0.07346624 0.027773209 0.05756653 -0.028056191 -0.095947236
0.01301398 0.04923786 0.074602194 0.008697323 0.06687048 -0.086435206 0.091181375 -0.06208932
-0.06591076 0.068518795 -0.021370603 0.058923617 -0.06754823 0.072531894 0.090861894 0.028724039
0.07702778 -0.06910749 -0.021625066 0.028970044 0.05350215 -0.05178064 0.06150804 -0.032623604
-0.05213423 0.018206479 -0.07734779 -0.08928115 0.030810058 0.03237252 0.037066102 -0.012746866
-0.07057887 -0.077589065 0.09189762 -0.08356361 0.028979512 0.07768971 0.0728059 -0.060923543
-0.030850753 -0.07730445 0.059615873 -0.0907299 -0.08895237 -0.065024115 0.078087814 0.06241865
0.06458415 0.073766306 -0.044661567 -0.053564284 -0.059041172 0.031780917 0.03754348 0.020055715
-0.07397378 0.008699211 -0.051017918 -0.01893122 -0.014889058 0.0049236794 -0.08453921 0.082051896
-0.041006148 0.030368125 0.06619256 0.03897785 0.067277886 0.054572787 0.07045369 0.020233931
0.061448984 -0.041732505 -0.0521063 0.04563151 0.025372742 -0.0036380934 -0.08218373 0.03139844
0.062142972 -0.011294691 0.022046864 0.04277323 -0.095242105 -0.015930014 -0.035736676 -0.049338914
0.05870465 0.09557664 0.015311398 0.059798684 -0.0713039 0.016912632 -0.012192878 -0.059508715

tpcnns.3.bias f4 [12]
00000000: aeae 023d 170b 9abc db99 79bd 81f3 88bd
00000010: 04b5 9cbc e51e dd3c 14bb 323d b646 bebb
00000020: fc56 9d3d f53b 34bd 49f9 603c 07d1 45bd
0.03190487 -0.018804116 -0.060937744 -0.0668707 -0.019129284 0.02699227 0.043635443 -0.0058067692
0.076826066 -0.044002492 0.013731309 -0.048295047

tpcnns.4.weight f4 [12, 12, 3, 3]
00000000: 4ad1 d33c 3831 a83d 081b 0a3d 4044 d33b
00000010: d90d 11bd 95af a1bd 2ddb 86bd 460b a9bd
00000020: d510 8c3d bb6c 24bd 87e4 6bbc 3f98 b0bd
00000030: 73cd dbbc b39e a73d b2ec 903c dac1 8cbc
00000040: 966d 4d3d 4dee 973d 3d5a 993d 83cf 91bd
00000050: 0962 e23b bcd3 a1bd b2df 87bd 7a53 973d
00000060: 3202 9dbd b84a 41bd 4e04 3d3d 27be bf3d
00000070: 976f bfbd 4f54 7ebd fc8d 1abd 37a9 983d
00000080: 30b1 653d 03b7 753d 4f8c 7c3d bb46 c5bc
00000090: 5a4e 913d ea34 31bb 671f 143c 6a0b d1bc
000000a0: 9232 273d d301 303d 761d 27bc cc7c ad3d
000000b0: 0c27 ccbc 2b85 c73c 60fd b23d 4410 5e3d
000000c0: 9c85 0fbd 7789 32bd 3222 983c d42c 3fba
000000d0: 70e9 dd3b b3e3 7d3d 4ec5 093d bc0c 5dbd
000000e0: 62e6 a0bd fa4f ba3d 0390 2dbc a746 1bbd
000000f0: 4abd 90bd b83d bd3d 58e2 463d a3db 79bd
00000100: ab33 aabd b032 ab3d 5ab1 293d 5994 67bc
00000110: fdc7 a3bd ace3 6e3d 45c6 85bd 31ae 413d
00000120: 082c bbbd 61b5 afbd 980d bdbd bea6 b23d
00000130: 8c15 b33d da27 a8bd 4d57 983d 3d91 6fbd
00000140: 8225 b7bd d7ae 3d3d fd6b 5f3d 8368 5f3d
00000150: 1957 8a3c e820 bd3d 28c4 a9bd fdd9 353d
00000160: e8ca f9bc f1b9 9b3b 82ea 873d 391f 8dbd
00000170: 4fb9 2c3d 2e73 9dbc b6ef 7e3d 4a99 25bb
00000180: e18b 433d 0516 bd3d 17ba 0cbd 3f1f c2bd
00000190: f4e3 b93d 05ff 58bd e324 b43c 1e21 753d
000001a0: 60d4 74bc 1e04 9a3d 316c 7f3d c1b3 9ebc
000001b0: 20ad ce3c 17f4 ee3b 52ca c03d c16f 883d
000001c0: 9041 83bd 55e7 173c f794 543d f2a8 963d
000001d0: 4092 063d d179 273d cb8a 91bc e9c7 083b
000001e0: 6d64 88bd 363c a23d 062e 9b3d c107 59bd
000001f0: 28b8 a8bd 01ac 993d 12aa aebd e7c4 7c3d
00000200: f4f3 bfbd 1181 49bd 34e0 26bd d434 b93d
00000210: 5c63 85bc 32fd a93d 0107 e53c bfea be3d
00000220: 3387 823d de22 913d 79d0 ab3d 9ee5 e8bc
00000230: 94bb d8bc 3cfd fd3c 379b ad3d be0b 11bd
00000240: 6904 9bbd cc28 9abd 7a17 36bd 0e90 7b3c
00000250: 7670 36bc 9137 d2bc 3442 38bd ab08 cd3c
00000260: 3b54 a2bd 7fe1 c13d 6c28 74bc 2c15 933c
00000270: 83d6 013d 065b 19bd 7686 9b3d ccf4 3aba
00000280: bb54 013c 179a bbbd f724 433c 2c3d 073d
00000290: 44b0 5b3c 403e 1cbc 31ce 943d b5cd 9b3d
000002a0: a6ac 873d 7fd0 88bc 9e2b 883c dd98 89bd
000002b0: ba88 93bd 2cc5 89bc fc37 303c 3b91 65bd
000002c0: 007e a4bd dd4c 333d 131a 103d 3934 82bd
000002d0: 0b23 833d 3e4d 93bd 2013 953d 2062 513d
000002e0: a134 05bd f19e bb3d 574c 5dbd e509 34bd
000002f0: 5c12 9d3d c61f cbbc 0d30 1fbd 9ff1 733c
00000300: 0733 85bc a74d 783d 86e4 a03d d151 2f3d
00000310: 957a aa3c 2e07 c63c 4b2f 243b 3025 393c
00000320: 857f ef3a 5561 863d c168 5c3d 0483 1ebc
00000330: 38d6 143d 5c62 ae3b 1548 0b3d 34cb a13d
00000340: b014 86bd cb0a 603c 63fe a3bc 5fa8 c0bd
00000350: 1b7f bfbd 8e6e 4ebc d70b 8d3d c3f1 81bd
00000360: a362 003d 5429 633d c0a3 8fbd b944 293d
00000370: 36c6 943c f569 b3bd a07e f2ba 8a02 b9bd
00000380: 404c ac3d a1b9 383d 0005 173d 7c4b 973d
00000390: 16b6 963d eda3 c33d 3a9d 223d 8d47 8ebd
000003a0: 720b b73d 99f8 da3c 7a5e 1bbd 2daf 12bd
000003b0: 8d67 b83d ee1b af3c 0e3d 8f3d bce8 f53b
000003c0: 080a b63d 9a33 90bd 4cdf bb3c d718 bc3c
000003d0: 5376 91ba b34e af3d 8b4b 9e3c 65ce aa3b
000003e0: 8281 863d d8ec f8bb 7eb9 cbbb ac79 a2bd
000003f0: 3a44 25ba 47f9 37bd e032 643d 0b70 ab3d
0.025856633 0.08212513 0.033717185 0.006447345 -0.035413597 -0.07894818 -0.06584773 -0.08254103
0.06839148 -0.040142756 -0.014397747 -0.08622789 -0.026831364 0.08184566 0.01769099 -0.01718228
0.050153337 0.07418499 0.07487915 -0.07119658 0.0069086594 -0.07901713 -0.06634463 0.07388969
-0.07666434 -0.047190398 0.046146683 0.093624406 -0.09347456 -0.06209212 -0.037733063 0.0745415
0.056077182 0.059988987 0.061657246 -0.024081578 0.070950225 -0.0027039596 0.00904069 -0.025518138
0.040819712 0.04297049 -0.010199895 0.08471069 -0.024920963 0.024355492 0.08739734 0.05421473
-0.03503953 -0.043588128 0.018570993 -0.00072927517 0.0067722127 0.06198473 0.03363543 -0.053967223
-0.07856442 0.090972856 -0.010593417 -0.037909176 -0.07067354 0.092402875 0.048555702 -0.061000478
-0.08310636 0.08359277 0.0414289 -0.01413449 -0.07997129 0.058322594 -0.065319575 0.047285262
-0.09139258 -0.08579517 -0.092311084 0.0872321 0.08744344 -0.08210726 0.07438526 -0.05848812
-0.08942701 0.04630932 0.054546345 0.05454303 0.016887235 0.09234792 -0.08289367 0.044397343
-0.030492261 0.0047523906 0.06636526 -0.06890721 0.04216891 -0.019219961 0.062240325 -0.002526837
0.04774082 0.092327155 -0.034357157 -0.09478616 0.09076682 -0.05297758 0.021990245 0.059846036
-0.014943212 0.075203165 0.06235904 -0.019372823 0.025229037 0.0072922814 0.094135895 0.0666194
-0.064089894 0.009271462 0.051899876 0.073564425 0.03285432 0.040887658 -0.017766377 0.002087111
-0.0665978 0.079216406 0.07577138 -0.05298591 -0.0823825 0.0750351 -0.08528532 0.06171122
-0.09372702 -0.049195353 -0.04074116 0.09043279 -0.01628273 0.08300246 0.027957441 0.09322118
0.063734435 0.070867285 0.083893724 -0.028429803 -0.026456632 0.03100454 0.084768705 -0.03541159
-0.075692005 -0.07527313 -0.044455983 0.0153541695 -0.011135211 -0.025661262 -0.04498501 0.025028547
-0.07926222 0.09466838 -0.014902215 0.017954431 0.031698715 -0.037440322 0.07594006 -0.00071318145
0.0078937365 -0.0916025 0.011910669 0.033017322 0.013408724 -0.009536326 0.072658904 0.07607595
0.06624727 -0.016700981 0.01662236 -0.067186095 -0.07203813 -0.016817652 0.010755535 -0.056046706
-0.08031845 0.043774474 0.035181116 -0.06357617 0.06403168 -0.07192467 0.072790384 0.05111897
-0.032520894 0.09161175 -0.05402788 -0.04395475 0.076695174 -0.024795424 -0.038864184 0.01488915
-0.016259683 0.06062093 0.078560874 0.042802636 0.020810405 0.024173345 0.0025052603 0.01130037
0.0018272257 0.06561533 0.05381084 -0.009674791 0.036337107 0.005321784 0.03400429 0.07900086
-0.065469146 0.013674448 -0.020018762 -0.09407114 -0.09350415 -0.0125996005 0.06887024 -0.063449405
0.031344067 0.055459335 -0.07013655 0.041325305 0.01816092 -0.08760444 -0.0018500872 -0.090336874
0.08412981 0.045098905 0.036870003 0.073874444 0.07358949 0.09552751 0.039700724 -0.06947241
0.0893773 0.026729869 -0.037931897 -0.035811592 0.09004126 0.021375623 0.06994067 0.0075045507
0.08888632 -0.07041092 0.022933625 0.022961063 -0.0011097885 0.085599326 0.019323131 0.0052125924
0.065676704 -0.0075965934 -0.0062171808 -0.07933363 -0.0006304417 -0.044915464 0.05571258 0.0837098

tpcnns.4.bias f4 [12]
00000000: 63f6 99bd 5980 dbb9 5ab1 54bd 8367 5fbd
00000010: 74c4 66bd e8cb 3ebd 9d66 6abd 848c 57bd
00000020: 9692 0fbd 4f10 b4bd 22be 9d3d 2f72 043d
-0.07517698 -0.00041866562 -0.051926948 -0.054542076 -0.056339696 -0.04658118 -0.057226766 -0.05262424
-0.035051905 -0.08792173 0.077022806 0.032335456

tpcnn_ouput.weight f4 [12, 12, 3, 3]
00000000: 5680 c3bd ee48 c5bd 2245 45bd 8b5e 173d
00000010: ab0f b23d eeb2 7bbc 5487 6a3d 6767 53bd
00000020: c1a8 9fbc 6531 74bc 4b6d c0bd 410f 0a3a
00000030: 8477 d23c 9845 713d ec08 98bd b198 e9bc
00000040: b65d 763b d55d 273c 7065 813c dd6c 92bd
00000050: 25d9 983d 07dd b0bd 996c 06bd f57b 453d
00000060: 86c3 c1bc 2a27 3cbd a8bf c0bd fa11 873d
00000070: 351d 09bb 09bc 3e3d de01 783c 6d6e 91bd
00000080: 4a19 09bd 65a3 8c3d eed5 3ebd 9a66 34bd
00000090: bc61 573d 22f5 2abd fa82 7b3c fb26 3fbd
000000a0: d0d1 f03c b687 223c b131 9bbd b4be 94bd
000000b0: 65d4 113d abbf 01bd bb01 573d 3f61 983b
000000c0: cc84 06bd 7937 8bbc 660b 33bd 6304 443d
000000d0: 62e4 9c3d 0b6a fbba 8083 7dbd e4ad 8b3d
000000e0: 05e1 9e3d 2e97 843d 6c4d f3ba fbd6 bd3c
000000f0: ea00 bf3b a981 10bd ed7d c0bd 55dc 39bc
00000100: 7301 293d 2058 653d 9b57 b73c f6dc 313d
00000110: d0be 743d f550 97bc 4a27 813d c1c8 ebba
00000120: 0720 0bbd c481 19bd 0d47 63bd e4b0 95bd
00000130: 2151 b33c 1114 b43d 1b8e 653c 1182 5c3c
00000140: 7994 10bd 4c06 1cbd b89b f7bc 4ee4 083d
00000150: 6158 853c 04d0 0ebd e2a6 993c b8ef 83bc
00000160: 3621 cabb e9a8 8a3d 3b5b 22bd e6e0 b63d
00000170: 9eba 56bd 5882 b53d 75ce 123d 2089 1c3d
00000180: 6bbb b3bc 69e5 cfbc 7624 8dbd 3ac5 bcbd
00000190: b8bb 893d 1ffc be3d 6f9e e03c 1091 16bd
000001a0: 0c5d ae3c ef06 6bbb ea32 aabd c444 9ebd
000001b0: b070 093d bdcb e4bc 5b24 b8bc b38d 6bbd
000001c0: 366a 2d3d f3d3 43bd 0fd6 f8bc 8c20 533d
000001d0: 684a bd3d 72d3 af3d 0be7 193d 648c 3f3b
000001e0: 8a99 933d a7b3 ac3d 5810 313d bbf5 e93c
000001f0: c085 bb3c c9d6 1e3c 55cf 823d bc03 e23c
00000200: f20a a5bd 5bcc 64bd 0110 b2bd c8b2 ebbc
00000210: 4355 ae3b 43c3 23bd 1b42 b4bd a93d 7ebd
00000220: 23a8 283d d458 dabb 32c7 82bc f5d3 813c
00000230: 17ce a4bc ec01 55bd ac17 33bd c51f 20bd
00000240: 39b4 b5bd 4e93 b3bd 23c1 13bd 831c 143d
00000250: e5e2 bf3d cc95 25bb 306a 873d 9bed 023d
00000260: 8fbd 9cbd 020f 3fbd 79b6 c6bc 2d8c 9ebd
00000270: 0b2e 753c cd72 c33c 4cb7 97bd 90ad 9cbc
00000280: 5978 aabd fc3d c43d 6431 6b3d b968 12bd
00000290: 42ee a83d 7c5f 72bd ea93 a53d 38f7 19bd
000002a0: 5f15 ed3c 3978 873d 336f 363d cf66 bf3c
000002b0: 4648 2ebc 6ce7 773a 8629 a73d 59ec 00bd
000002c0: 6842 fcbc d810 4a3c 50ea 3ebd c58e 15bd
000002d0: 5d18 123c ee3e 943d 09c2 023d 4dc8 6cbd
000002e0: baa1 6d3d 4660 0fbd 9427 d23c 10e2 bc3b
000002f0: 69f8 8b3d 8360 adbc d760 1bbd 66a7 98bc
00000300: 3b9d a83a 8afd 36bd d090 873d 3787 50bd
00000310: 16c3 7a3c 5825 96bd 1118 2dbc b495 9ebc
00000320: 5c8c 1bbd c35b 523d 9a27 aebd 6483 283c
00000330: e155 fabb 5af1 49bd 213c 983d ddbe 773d
00000340: ac22 f03c dd92 dc3a cc40 5a3d 6f08 2cbd
00000350: 0efa 9fbd a301 bd3d f3ca 13bd be9f 9e3c
00000360: 06d8 dc3a d00f a43d 492a c23d f404 84bd
00000370: 018f 15bb 2c15 a1bd 4b03 7b3d 8938 b93d
00000380: 5d02 1bbd 7401 8b3c e7db b4bc 800d bebc
00000390: 7871 9b3d e507 b9bd 984f 65bc ec2c adb9
000003a0: 0de1 adbd abf3 203d e25a 823d 6209 9dbd
000003b0: 9f6b 133d 4737 e6bb f544 b53d 5ebf bbbd
000003c0: f47d a43d d5df 17bd 230c a33d 2e8d 49bd
000003d0: e047 803c 6627 b63c 0156 703d c228 333d
000003e0: 550c 583d abf3 a9bc ff56 9dbd 15ef 073a
000003f0: c6ef b03d 3525 a63d 00f7 6cbd 8292 853d
-0.095459625 -0.09633051 -0.048161633 0.036955398 0.08694395 -0.015362484 0.057257965 -0.051612284
-0.019489648 -0.014904355 -0.09395846 0.0005266555 0.025691755 0.05890426 -0.07423577 -0.028515192
0.0037592477 0.010215242 0.01579544 -0.0714967 0.07463292 -0.086359076 -0.03281841 0.048213918
-0.023652803 -0.045935787 -0.094115555 0.06595226 -0.002092195 0.046566043 0.015137164 -0.0710114
-0.033471383 0.068671025 -0.046590738 -0.04404316 0.05258344 -0.041737683 0.015351051 -0.046668034
0.029396921 0.009920051 -0.07577837 -0.07262936 0.035602946 -0.03167693 0.052491885 0.0046502645
-0.03284149 -0.016994225 -0.043712042 0.047855746 0.07660748 -0.0019181384 -0.061892986 0.068202764
0.07757763 0.06474148 -0.0018562502 0.0231738 0.0058289664 -0.035279904 -0.093990184 -0.011344035
0.041261148 0.055992246 0.02238064 0.043423615 0.059752285 -0.01847122 0.06306322 -0.0017988906
-0.03396609 -0.03747727 -0.05548768 -0.0730913 0.021889271 0.0879289 0.014010931 0.013458745
-0.035297845 -0.038091943 -0.03022562 0.033420853 0.016277494 -0.034866348 0.018756334 -0.016105518
-0.00616851 0.06770498 -0.039637785 0.08929615 -0.052424066 0.08862752 0.035841424 0.03821671
-0.021939954 -0.025377946 -0.0689172 -0.092173055 0.06725258 0.09325432 0.027419297 -0.036759436
0.021284603 -0.0035862287 -0.08310492 -0.0772796 0.033554733 -0.027929181 -0.022478273 -0.05750818
0.04233762 -0.047809552 -0.030375509 0.05154471 0.092427075 0.08585252 0.037573855 0.0029227966
0.072070196 0.084327035 0.043228477 0.028559556 0.022890925 0.009694763 0.06387202 0.027589671
-0.08058728 -0.05585895 -0.08694459 -0.028771773 0.0053202226 -0.039981138 -0.08801671 -0.062070522
0.041175973 -0.006663421 -0.015964124 0.01584814 -0.020117803 -0.052003786 -0.043723747 -0.039092798
-0.08872265 -0.087683305 -0.03607286 0.036160003 0.093694486 -0.0025266288 0.066120505 0.03196488
-0.07653343 -0.046645172 -0.024256932 -0.0774158 0.014964591 0.023858452 -0.07408008 -0.01912573
-0.08323736 0.09582135 0.05742015 -0.035744403 0.08248569 -0.059173092 0.08084853 -0.03758928
0.028940855 0.066147275 0.04453964 0.023364453 -0.0106373485 0.0009456787 0.08162217 -0.0314754
-0.030793384 0.012333117 -0.046610177 -0.03651311 0.0089169415 0.072385654 0.031923328 -0.05780821
0.058015563 -0.035003923 0.025653638 0.0057642534 0.0683449 -0.021164184 -0.03793415 -0.01863451
0.0012864241 -0.044675387 0.06619418 -0.0509102 0.015305301 -0.073313415 -0.01056482 -0.019358493
-0.037975654 0.051357042 -0.08503647 0.010285232 -0.007639632 -0.049302436 0.07433344 0.060484756
0.029313408 0.0016828437 0.05328445 -0.04200023 -0.07811366 0.09228828 -0.03608222 0.01936328
0.0016849048 0.080108285 0.094807215 -0.06446257 -0.0022820833 -0.07865366 0.061282437 0.09043986
-0.03784405 0.016968466 -0.022077514 -0.023199797 0.07590002 -0.09034709 -0.013996027 -0.000330306
-0.08490191 0.03929488 0.06364991 -0.07667805 0.035991307 -0.0070256325 0.08851043 -0.0916736
0.08031836 -0.037078697 0.07961299 -0.049206905 0.015659273 0.022235584 0.05867577 0.04374004
0.052746136 -0.020746073 -0.07682609 0.00051854673 0.08639483 0.081125654 -0.057852745 0.06522085

tpcnn_ouput.bias f4 [12]
00000000: 746c 763c c6c5 803c c6f4 b3bd 114b 9e3d
00000010: 7566 0a3d d68a c03b a71b 113d e54d 99bb
00000020: 9a6c 5dbd a6a2 b8bc 889e a6bd c0eb 973d
0.015040506 0.015719306 -0.08786921 0.077291615 0.033789117 0.0058759255 0.035426762 -0.004678475
-0.05405865 -0.022538494 -0.08135706 0.074180126
