saved_models/eth_tag/model_epoch_4.pth (torch, 43263 bytes, 30 tensors)

st_gcns.0.gcn.conv.weight f4 [5, 2, 1, 1]
0	0x3f0a424e	0.5400742
1	0x3f163faf	0.58690923
2	0xbe292d1a	-0.16521111
3	0x3f265180	0.6496811
4	0xbe1cb18c	-0.15302104
5	0x3e12f2e9	0.14350475
6	0xbeb027ed	-0.3440546
7	0x3ed485e5	0.41508403
8	0x3f1f70fd	0.6228178
9	0xbf04aa01	-0.51821905

st_gcns.0.gcn.conv.bias f4 [5]
0	0x3f1d75f5	0.61508113
1	0x3e0775dd	0.13228555
2	0x3f05d351	0.5227557
3	0x3dc74426	0.09729795
4	0x3eaf7a5f	0.3427305

st_gcns.0.tcn.0.weight f4 [5]
0	0x3f80030d	1.0000931
1	0x3f7ffe3b	0.999973
2	0x3f7f6cf9	0.99775654
3	0x3f801f38	1.0009527
4	0x3f8027d0	1.001215

st_gcns.0.tcn.0.bias f4 [5]
0	0xb9008e01	-0.00012259932
1	0x3a340fa3	0.0006868785
2	0xbb00b866	-0.001964116
3	0x3a1ccb81	0.0005981252
4	0x399f3350	0.00030365074

st_gcns.0.tcn.0.running_mean f4 [5]
0	0x3cea36f4	0.028590657
1	0xbc6aff7c	-0.014343139
2	0x3d1a7908	0.03771308
3	0xbc072b40	-0.008250058
4	0x3d487e8b	0.048948806

st_gcns.0.tcn.0.running_var f4 [5]
0	0x40b20c59	5.5640073
1	0x401faf52	2.4950757
2	0x3fd13829	1.6345264
3	0x3fced542	1.6158831
4	0x4088ea4c	4.2786007

st_gcns.0.tcn.2.weight f4 [5, 5, 3, 1]
0	0xbd171a72	-0.036890455
1	0x3e49cc96	0.1970695
2	0x3d0fa161	0.035066012
3	0xbdfaf59d	-0.12253878
4	0x3d8522c2	0.0650077
5	0xbdf48686	-0.11939721
6	0xbd007a90	-0.031366885
7	0xbdd4b75c	-0.103865355
8	0x3e2c3540	0.16817188
9	0xbe52a608	-0.20571148
10	0xbdf34f51	-0.11880363
11	0xbd95344f	-0.07285368
12	0xbe1d0349	-0.15333284
13	0x3cbc5d1b	0.022993615
14	0xbe84328e	-0.2581982
15	0x3e6d9a0f	0.232033
16	0xbe613bc7	-0.2199546
17	0x3e4c6cd3	0.19963388
18	0x3d2e63a8	0.04257551
19	0xbdae5056	-0.085114166
20	0x3e22f661	0.15914299
21	0x3d1cb721	0.038260583
22	0x3e55355b	0.20821135
23	0x3ce42817	0.027851148
24	0xbda82938	-0.08210987
25	0x3d8c49d8	0.06850022
26	0xbd90eda5	-0.07076577
27	0x3ddc63f9	0.10761256
28	0x3e6c3f2f	0.23070978
29	0x3e1a7bd8	0.15086305
30	0xbde92d46	-0.11385588
31	0x3e178fdb	0.1480097
32	0x3d378a8c	0.044809863
33	0x3e0621be	0.13098809
34	0xbe239687	-0.1597539
35	0xbe837c4c	-0.25680768
36	0xbdd0975a	-0.10185118
37	0xbe4b5d16	-0.19859728
38	0x3e55a5b8	0.20863998
39	0x3d979f4d	0.07403431
40	0x3dd5d001	0.10440064
41	0x3da40a2d	0.080097534
42	0xbba27bfc	-0.0049586277
43	0x3e4e2930	0.201329
44	0xbe3ddafd	-0.18540569
45	0x3c75b3c0	0.014996469
46	0xbe35b8f9	-0.17746343
47	0x3da2dd9f	0.07952427
48	0xbdb899da	-0.0901372
49	0x3da06957	0.07832592
50	0xbd57ae5a	-0.05265651
51	0x3e58cf71	0.21172883
52	0xbe1c5f74	-0.15270787
53	0xbe1e033e	-0.15430924
54	0xbe1f3de4	-0.15550953
55	0x3e6d337d	0.23164172
56	0x3db2b705	0.087263145
57	0x3e7ca681	0.24672891
58	0xbe5be5d4	-0.21474391
59	0xbe838a71	-0.2569156
60	0xbe501beb	-0.2032315
61	0xbe33847c	-0.17531008
62	0x3dd6e956	0.10493724
63	0x3dbfad1c	0.0935919
64	0x3e5781ae	0.21045563
65	0xbe071698	-0.13192213
66	0xbe34d327	-0.17658673
67	0x3e08d849	0.13363756
68	0xbdd0fb2f	-0.102041595
69	0x3e21b973	0.157934
70	0xbd869c9b	-0.06572839
71	0x3e19412a	0.14966264
72	0xbe509c7e	-0.20372197
73	0xbe03641a	-0.12831154
74	0x3d9cefb0	0.07662904

st_gcns.0.tcn.2.bias f4 [5]
0	0x3d5f94b9	0.054585192
1	0xbd86d1ea	-0.06583007
2	0x3e1d9922	0.15390447
3	0x3e33bd15	0.17552598
4	0xbe3fbb91	-0.18723895

st_gcns.0.tcn.3.weight f4 [5]
0	0x3f7e79cc	0.994046
1	0x3f7e21e2	0.9927045
2	0x3f7d5a33	0.9896576
3	0x3f7d7770	0.9901037
4	0x3f7dc9ea	0.9913622

st_gcns.0.tcn.3.bias f4 [5]
0	0xb85bdb36	-5.2417825e-05
1	0x3a27a122	0.0006394555
2	0xbb1b506f	-0.0023699065
3	0xbbeaddb6	-0.0071675433
4	0xbbd46262	-0.0064814547

st_gcns.0.tcn.3.running_mean f4 [5]
0	0xbe0b07d6	-0.13577208
1	0x3e4bda04	0.19907385
2	0x3e1892c8	0.14899743
3	0x3db9a2c5	0.09064249
4	0xbe816aca	-0.25276786

st_gcns.0.tcn.3.running_var f4 [5]
0	0x3da607e0	0.08106971
1	0x3ded5dab	0.11590131
2	0x3d95f4d7	0.0732209
3	0x3e5b6de3	0.21428637
4	0x3e08546e	0.13313457

st_gcns.0.residual.0.weight f4 [5, 2, 1, 1]
0	0xbec11eb3	-0.37718734
1	0x3f25cca4	0.6476538
2	0xbe7648b5	-0.24051173
3	0xbe7ed1be	-0.24884698
4	0xbf2f3a2a	-0.68448126
5	0xbecf1430	-0.4044509
6	0x3e35e36c	0.17762536
7	0xbdbb3982	-0.09141828
8	0xbf0369e2	-0.5133344
9	0x3c71a82b	0.014749567

st_gcns.0.residual.0.bias f4 [5]
0	0xbef74d4a	-0.48301154
1	0xbf199382	-0.59990704
2	0xbec75c75	-0.38937727
3	0xbf1e6e29	-0.6188684
4	0xbee68618	-0.4502418

st_gcns.0.residual.1.weight f4 [5]
0	0x3f7e4ec4	0.99338937
1	0x3f7eae91	0.9948512
2	0x3f7dfd3e	0.9921454
3	0x3f7db14e	0.9909867
4	0x3f7dd033	0.9914581

st_gcns.0.residual.1.bias f4 [5]
0	0xb85bdb3e	-5.2417854e-05
1	0x3a27a125	0.0006394557
2	0xbb1b506f	-0.0023699065
3	0xbbeaddb6	-0.0071675433
4	0xbbd46262	-0.0064814547

st_gcns.0.residual.1.running_mean f4 [5]
0	0xbef26bc9	-0.4734786
1	0xbf1ab110	-0.60426426
2	0xbecb420f	-0.39698836
3	0xbf1eb7ab	-0.61999005
4	0xbee6e0dc	-0.4509343

st_gcns.0.residual.1.running_var f4 [5]
0	0x3f10959e	0.564783
1	0x3df28524	0.11841801
2	0x3f24a7a7	0.6431832
3	0x3d2d10e9	0.042252455
4	0x3e8fa1b9	0.28053072

tpcnns.0.weight f4 [12, 8, 3, 3]
0	0x3de0f169	0.10983545
1	0x3c903b0c	0.01760628
2	0x3d01ff46	0.03173759
3	0xbde37145	-0.11105589
4	0xbda17751	-0.07884086
5	0xbd2f97ee	-0.0428695
6	0x3c8d5544	0.017252572
7	0xbdd4ec3a	-0.10396619
8	0xbd50385a	-0.05083499
9	0xbd943c1d	-0.07238028
10	0xbb366a61	-0.0027834403
11	0xbd36478c	-0.044501826
12	0xbc3596a2	-0.011083277
13	0xbda69fc3	-0.08135941
14	0xbdaa9be3	-0.08330514
15	0xbd905412	-0.07047285
16	0xbd3037e4	-0.04302205
17	0xbdbfc992	-0.09364618
18	0x3dbae70f	0.09126102
19	0xbced619f	-0.028977213
20	0x3dc49ca2	0.09600188
21	0x3d039122	0.03212083
22	0xbdd04f21	-0.10171343
23	0x3d9fbfde	0.07800268
24	0xbd0cb352	-0.0343507
25	0xbd4381e3	-0.04773129
26	0xbdcb601e	-0.09930442
27	0xbdf3157c	-0.11869332
28	0x3cfa1c5a	0.030531097
29	0xbcddf859	-0.02709596
30	0x3d25d194	0.040483072
31	0xbdc7dbfd	-0.09758756
32	0x3da7cf7c	0.081938714
33	0xbdb21bd1	-0.08696712
34	0xbcb81360	-0.022470176
35	0x3cb9ce84	0.022681482
36	0x3d6ac90c	0.05732064
37	0x3db8367a	0.089947656
38	0x3dcff251	0.1015364
39	0xbdc055e4	-0.09391382
40	0x3cd34fe1	0.025794925
41	0xbd53954a	-0.051656045
42	0xbc7c005a	-0.015380943
43	0xbdb565f3	-0.08857336
44	0x3dd41a2d	0.10356555
45	0xbdb49407	-0.088172965
46	0x3d73c9de	0.059518687
47	0x3d217589	0.03941873
48	0x3d0ca8d1	0.034340683
49	0xbd882bb8	-0.06648964
50	0x3dd2596b	0.102709614
51	0x3cc36676	0.023852568
52	0x3c46bbd4	0.012129743
53	0xbdd7084a	-0.10499628
54	0x3d3d3560	0.04619348
55	0xbcb0f27f	-0.021600006
56	0xbd65f976	-0.056146108
57	0x3dc553fc	0.096351594
58	0x3cba67bd	0.022754544
59	0xbd8c8aed	-0.068624355
60	0xbd7e641d	-0.062107194
61	0xbc05dd78	-0.008170478
62	0x3d7c6bcf	0.06162625
63	0xbd07dc17	-0.03316888
64	0xbd8e19a9	-0.06938488
65	0xbd32c907	-0.043648746
66	0xbdb5449e	-0.08850978
67	0x3d1aeb2a	0.037821926
68	0x3db127ea	0.08650191
69	0xbde3aa4d	-0.11116467
70	0x3cc66875	0.02421973
71	0x3d71fa5a	0.059076644
72	0x3ca4de3c	0.0201255
73	0xbd32af2c	-0.04362409
74	0x3d6da718	0.05802068
75	0x3d71435e	0.058902137
76	0x3d2aa8c2	0.041664846
77	0xbcc19d84	-0.02363468
78	0xbd0bff02	-0.03417874
79	0x3c33ee42	0.010982098
80	0xbcb6bb7a	-0.022306193
81	0xbd14035e	-0.036136024
82	0x3d941928	0.07231361
83	0x3dc74dd6	0.09731643
84	0xbc51418a	-0.012771973
85	0xbced05b5	-0.028933385
86	0xbb0822ae	-0.0020772624
87	0xbc0d6842	-0.008630814
88	0x3cd21bbb	0.025647989
89	0x3cecbe06	0.028899204
90	0xbddbf3f6	-0.10739891
91	0xbd344b0b	-0.04401688
92	0x3dc1815d	0.09448502
93	0x3d2f27cb	0.04276256
94	0xbbd76749	-0.006573592
95	0xbd922e9f	-0.071377985
96	0xbd951f42	-0.072813526
97	0xbdd87c32	-0.105705634
98	0xbd232611	-0.039831225
99	0x3d1fa66f	0.038977083
100	0x3d90b178	0.070650995
101	0x3d526525	0.05136599
102	0xbdd63563	-0.104594015
103	0xbd93166e	-0.071820125
104	0xbcaba333	-0.020951843
105	0x3de10540	0.109873295
106	0x3c7ee803	0.015558246
107	0xbd08b47c	-0.03337525
108	0x3d43a367	0.047763254
109	0xbd425b6f	-0.04745048
110	0xbd9e231a	-0.07721539
111	0x3daa2074	0.08306971
112	0xbd625bd6	-0.055263363
113	0xbcd6fe5d	-0.026244337
114	0xbdee79e7	-0.11644345
115	0x3d9463a7	0.0724557
116	0x3db08f27	0.08621054
117	0x3d2b81a5	0.041871686
118	0xbdabc1bc	-0.08386561
119	0xbded9e2e	-0.11602436
120	0xbdc63d93	-0.09679713
121	0x3da57caa	0.080804184
122	0x3d5b813f	0.053590056
123	0x3dc3e828	0.09565765
124	0x3d66fb44	0.05639197
125	0x3cdd0df6	0.026984196
126	0xbb8d489d	-0.0043116347
127	0xbdb93ceb	-0.09044822
128	0xbdd1535e	-0.10220979
129	0xbde164d9	-0.11005563
130	0x3d30a085	0.043121833
131	0xbd7800e4	-0.060547724
132	0xbcd48cf3	-0.025946116
133	0xbd8d6986	-0.069048926
134	0xbccb9297	-0.024850173
135	0xbda94a2f	-0.082661025
136	0xbda1984b	-0.07890376
137	0x3d1828d7	0.037148323
138	0xbd152d54	-0.03642018
139	0x3d89f353	0.067358635
140	0xbd20188c	-0.03908591
141	0xbdb17832	-0.086655036
142	0xbcc4e62e	-0.02403554
143	0xbd748dbc	-0.05970548
144	0xbd1d5472	-0.03841061
145	0xbde7c4a3	-0.11316802
146	0x3d7efc6d	0.06225245
147	0xbdae41d5	-0.0850865
148	0x3d527f1a	0.051390745
149	0x3d4766b8	0.048681945
150	0x3da33d54	0.07970682
151	0xbdb9907e	-0.09060763
152	0x3da17c81	0.07885075
153	0xbd6ad4b6	-0.057331763
154	0x3d24e08e	0.040253215
155	0x3dd9b91e	0.106310114
156	0xbc98ed58	-0.018667862
157	0xbb762904	-0.0037561068
158	0xbcee9353	-0.029122984
159	0xbdcb36e4	-0.09922579
160	0x3d52ca83	0.05146266
161	0xbdee7d44	-0.11644986
162	0x3d8a4008	0.06750494
163	0x3da43f35	0.08019868
164	0x3dd916db	0.106000625
165	0xbd03ae02	-0.03214837
166	0xbdcdcabf	-0.100484364
167	0x3ca0ee26	0.019644808
168	0x3d78ad00	0.06071186
169	0xbdf514e2	-0.11966874
170	0xbcf01cb8	-0.02931057
171	0xbd9502e8	-0.07275945
172	0xbc53b144	-0.012920681
173	0xbd71ef7c	-0.05906628
174	0xbd5486e8	-0.05188647
175	0xbd2819ed	-0.04104035
176	0xbde96b8e	-0.113974676
177	0x3dbb9992	0.091601506
178	0x3db88fc5	0.09011797
179	0xbcb35934	-0.021893121
180	0xbc8a1694	-0.01685647
181	0xbd45d63f	-0.048300024
182	0xbddc26ab	-0.10749563
183	0xbdebb2ab	-0.115086876
184	0x3d255054	0.04035981
185	0xbd8995a7	-0.06717997
186	0xbda117ce	-0.078658685
187	0xbc2bd441	-0.010487617
188	0xbd2799a2	-0.040918
189	0xbd21eef1	-0.039534513
190	0x3b4f6ded	0.0031651214
191	0xbcd045c7	-0.025423897
192	0xbd31b9e3	-0.043390166
193	0xbd788795	-0.060676176
194	0xbdc270fa	-0.09494205
195	0x3dbee85f	0.09321665
196	0xbd4aeb7b	-0.049540978
197	0x3ce0eb2e	0.027455892
198	0xbd32e255	-0.04367288
199	0x3ba73d3f	0.0051037367
200	0x3dd2b0a1	0.102875955
201	0x3d46a206	0.04849436
202	0xbdd4c1c6	-0.10388522
203	0x3d241e15	0.04006775
204	0x3ddac14f	0.10681402
205	0x3ccc6b53	0.02495352
206	0x3d94a2ac	0.0725759
207	0x3de67207	0.11252218
208	0xbca62669	-0.020281987
209	0x3cbc939e	0.023019608
210	0xbdacb9f5	-0.08433906
211	0xbcce76a0	-0.02520305
212	0x3dad2aca	0.08455427
213	0x3d690a33	0.056894492
214	0xbd9d9d19	-0.076959796
215	0xbdc26b9e	-0.094931826
216	0xbda5ce76	-0.0809602
217	0xbded0c87	-0.11574655
218	0xbdbb24fe	-0.09137915
219	0xbcfef2da	-0.03112166
220	0x3d9dc66d	0.07703862
221	0x3c76cccb	0.015063475
222	0xbdb76549	-0.089548655
223	0xbdc45598	-0.09586638
224	0x3d63df41	0.055632833
225	0xbdb0fe8d	-0.08642302
226	0xbc86e062	-0.016464416
227	0x3d612759	0.054969165
228	0xbd606f4a	-0.054793634
229	0xbc797b93	-0.015227216
230	0xbc2417af	-0.010015412
231	0xbcea91ed	-0.028634036
232	0xbd788136	-0.0606701
233	0xbdd729de	-0.105060324
234	0xbdc1f133	-0.09469833
235	0xbd8301b6	-0.06396811
236	0x3de32046	0.1109014
237	0xbd6f6158	-0.058442444
238	0xbda65351	-0.0812136
239	0x3cc6b1e0	0.02425474
240	0x3cfbf1f2	0.030755017
241	0x3d7d4c02	0.061840065
242	0x3daac6a4	0.08338669
243	0x3d80b8ad	0.06285224
244	0xbdedabf5	-0.11605064
245	0x3c19e306	0.0093925055
246	0x3d8c816d	0.068606235
247	0xbc456646	-0.01204831
248	0xbd8e64f2	-0.069528475
249	0x3de203b0	0.110358596
250	0xbd380ce2	-0.04493416
251	0xbd8db36b	-0.06918987
252	0xbdd90f0e	-0.105985746
253	0x3ba2a1d2	0.004963138
254	0x3d461eb0	0.04836911
255	0x3cbf83a8	0.023378208

tpcnns.0.bias f4 [12]
0	0x3dbd84dd	0.09253857
1	0xbcc137bf	-0.023586152
2	0xbd6190d4	-0.05506976
3	0x3d8d5807	0.069015555
4	0x3dadeaa8	0.08492023
5	0x3dda4263	0.106571935
6	0x3ca7b7e1	0.020473422
7	0xbd3dcd09	-0.046338115
8	0x3d41716e	0.047227316
9	0x3db4f852	0.08836426
10	0xbe04c5b9	-0.1296605
11	0xbc8341f1	-0.016022654

tpcnns.1.weight f4 [12, 12, 3, 3]
0	0xbd86241b	-0.06549855
1	0x3c94d3df	0.018167434
2	0x3d2258d3	0.03963549
3	0xbca41753	-0.020030653
4	0xbc1efb69	-0.009703496
5	0x3d30ec63	0.043194186
6	0xbc85c7cc	-0.016330622
7	0xbda502d0	-0.08057177
8	0x3d9d23d8	0.07672852
9	0xbd45ccd4	-0.048291042
10	0xbc2f16d0	-0.010686591
11	0x3c158e95	0.0091282325
12	0xbbb83ba0	-0.005622342
13	0xbdb8817d	-0.09009073
14	0x3d351fe5	0.04421987
15	0xbd32ea5f	-0.043680545
16	0xbd4c723f	-0.04991364
17	0x3cbd6400	0.023118973
18	0xbd4eb0f6	-0.05046173
19	0xbd361b75	-0.04445978
20	0xbd03f1f6	-0.032213174
21	0xbd1361f7	-0.0359821
22	0xbd2588ee	-0.04041379
23	0xbcd51164	-0.026009269
24	0x3ccccb23	0.024999207
25	0xbd9f40d1	-0.077760346
26	0xbd6e17f1	-0.0581283
27	0x3a6e6c91	0.0009095157
28	0x3c548709	0.012971648
29	0x3d59acd8	0.053143352
30	0xbd8a6954	-0.06758371
31	0x3cfcbc8b	0.030851623
32	0x3d5feabd	0.054667223
33	0x3d5a123a	0.05324004
34	0xbdb791e0	-0.0896337
35	0xbd152198	-0.03640899
36	0xbda9aa5b	-0.08284446
37	0xbd7a9f00	-0.06118679
38	0x3d5b760b	0.05357937
39	0xbc72b6c1	-0.01481408
40	0x3d265145	0.04060485
41	0xbd679d75	-0.056546647
42	0x3c692457	0.0142298555
43	0xbd6d353f	-0.057912108
44	0x3d43f3db	0.04783998
45	0xbd2eb10d	-0.042649318
46	0xbcc72ccc	-0.024313353
47	0xbdab1395	-0.08353344
48	0xba605673	-0.0008557804
49	0x3db80197	0.08984678
50	0x3d3ce127	0.04611316
51	0xbd537044	-0.051620737
52	0x3a5b3724	0.00083624036
53	0xbc340ae2	-0.010988923
54	0xbd9f0175	-0.0776395
55	0x3d9a52a5	0.075352944
56	0x3aca2f6f	0.0015425513
57	0x3ca2e2b7	0.019883497
58	0xbd2079a5	-0.03917851
59	0xbd39a83f	-0.045326468
60	0x3c82a7d4	0.015949167
61	0x3d1124b7	0.035435405
62	0x3cb1b76f	0.021693913
63	0xbd3d6a4d	-0.046243954
64	0x3dbf8503	0.09351542
65	0xbc699c38	-0.014258437
66	0xbd72ae03	-0.05924798
67	0xbd39906d	-0.04530375
68	0x3dc1b050	0.09457457
69	0x37d23742	2.5059682e-05
70	0xbc5a81f4	-0.013336647
71	0xbd23e419	-0.040012453
72	0xbcd16b3f	-0.025563834
73	0xbda6a1c2	-0.081363216
74	0xbd9d0f55	-0.0766894
75	0x3d6481e7	0.055787947
76	0x3da7a277	0.081852846
77	0x3dbb32dd	0.09140561
78	0xbd8ec2ed	-0.06970773
79	0x3d560399	0.052249525
80	0xbd758c71	-0.05994839
81	0x3d6ad3b9	0.05733082
82	0x3d8cf674	0.06882945
83	0x3d98297d	0.07429788
84	0x3d8c712d	0.06857524
85	0x3d765442	0.06013895
86	0x3ac1c47f	0.0014783292
87	0x3d34008c	0.043945834
88	0xbd0e8a4e	-0.034799866
89	0x3d2a9fe6	0.041656397
90	0xbcfadce2	-0.030622903
91	0xbac2d7fa	-0.0014865391
92	0xbdab9e29	-0.08379776
93	0xbcd14d6a	-0.02554961
94	0xbd52ffb2	-0.05151338
95	0xbd04efcf	-0.03245526
96	0xbd7cdc2d	-0.061733413
97	0xbdb15edb	-0.0866067
98	0x3bc72682	0.0060775885
99	0x3d801086	0.062531516
100	0x3db35f16	0.087583706
101	0x3d65f148	0.056138307
102	0xbd4d408a	-0.050110377
103	0xbdc35c07	-0.09539037
104	0x3d164143	0.036683332
105	0x3d5cba82	0.053888805
106	0xbda88f0d	-0.0823041
107	0x3d0dfc85	0.03466465
108	0x3da5cb8b	0.08095463
109	0x3baa6c30	0.0052008852
110	0xbd6af2fa	-0.057360627
111	0x3d9fc45e	0.07801126
112	0x3d27fa0b	0.041009944
113	0x3d82d0d2	0.063874856
114	0xbd852926	-0.06501989
115	0x3d6269a5	0.05527653
116	0xbd85e1d1	-0.06537212
117	0x3dc232e2	0.094823614
118	0xbd26ed0b	-0.040753406
119	0x3d6cb524	0.057789937
120	0x3c9cea32	0.019154642
121	0x3cc07447	0.023492945
122	0xbc6e553e	-0.0145466905
123	0x3d217216	0.03941544
124	0xbd22bfcf	-0.039733704
125	0xbdb9c3bb	-0.09070536
126	0xbd15fb2f	-0.0366165
127	0x3d9a41df	0.07532095
128	0xbccfff34	-0.025390245
129	0x3cf79bf4	0.030225731
130	0xbd11588e	-0.035484843
131	0x3d945eb1	0.072446235
132	0x3d6d56ad	0.05794399
133	0x3d0a7bce	0.033809476
134	0xbd47b484	-0.048756137
135	0xbda06ee6	-0.07833652
136	0x3b54bdaf	0.0032461693
137	0xbd66ae16	-0.056318365
138	0x3da21238	0.07913631
139	0xbdbe2823	-0.09284999
140	0x3d30c687	0.04315808
141	0x3dc3bf4d	0.09557972
142	0x3d43dfcf	0.047820862
143	0x3d053a8b	0.032526534
144	0xbdbebb9d	-0.09313128
145	0x3dbb0ae8	0.091329396
146	0xbc83b2f3	-0.01607654
147	0xbdb7a3ee	-0.08966814
148	0x3dbef967	0.093249135
149	0xbd1fce2a	-0.039014973
150	0xbbfc224d	-0.0076945187
151	0x3db0cd25	0.08632878
152	0xbd89ec8c	-0.06734571
153	0xbd8cb5dc	-0.068706244
154	0x3c6fa437	0.014626554
155	0xbc576519	-0.013146662
156	0x3cb38bc4	0.021917231
157	0xbda743e9	-0.0816725
158	0x3b011732	0.0019697663
159	0xbd2d19b8	-0.042260855
160	0xbd468ec7	-0.048476007
161	0xbdb54bd5	-0.088523544
162	0x3d4d5736	0.050132
163	0x3c902ff8	0.017600998
164	0xbda6e8fa	-0.081499055
165	0x3d9c2717	0.07624643
166	0x3cdd6caa	0.027029354
167	0x3c92e180	0.017929792
168	0xbd6a3ed4	-0.057188824
169	0x3c59dfaf	0.013297959
170	0x3dbe134b	0.092810236
171	0x3d85b3ae	0.06528412
172	0xbd99abde	-0.07503484
173	0x3db35b55	0.087576546
174	0x3bed9ee1	0.007251606
175	0x3d3b45b5	0.045720775
176	0x3d978009	0.07397468
177	0x3da7308b	0.08163556
178	0xbd99b423	-0.075050615
179	0x3dab8c99	0.08376426
180	0xbd87fbf6	-0.066398546
181	0x3bd1fc9c	0.006408287
182	0xbd8822fc	-0.06647298
183	0xbcbcb7be	-0.023036834
184	0xbbc1acfe	-0.005910515
185	0xbc4ae6c5	-0.012384121
186	0xbc818853	-0.015812075
187	0x3bbc7339	0.0057510403
188	0x3dbd8682	0.09254171
189	0x3d615e42	0.055021532
190	0x3d5b2b4e	0.053508095
191	0x3d1a998a	0.037744083
192	0x3d96bc33	0.07360115
193	0xbbc3e3b6	-0.005978073
194	0x3be58e23	0.0070054694
195	0x3c9af0a8	0.018913582
196	0xbdacc63d	-0.084362485
197	0xbda20416	-0.079109356
198	0x3c2ec5df	0.010667293
199	0xbd1cf2ea	-0.0383176
200	0xba948119	-0.0011329978
201	0xbcb83759	-0.02248733
202	0x3c652bf7	0.013987533
203	0x3d7db19d	0.061936963
204	0xbd034ea0	-0.032057405
205	0x3d9a25e7	0.075267605
206	0x3d9a8651	0.0754515
207	0xbd96fb27	-0.07372122
208	0xbd97653d	-0.073923565
209	0xbd9f2ed3	-0.07772603
210	0xbd5708c0	-0.05249858
211	0xbd189cb4	-0.03725882
212	0xbbe14ea3	-0.0068758293
213	0xbcc06380	-0.023484945
214	0xbd46836e	-0.048465185
215	0xbcf7cef4	-0.03025005
216	0xbd0e13bc	-0.03468679
217	0x3dc1d471	0.09464348
218	0xbd12379f	-0.035697576
219	0xbd8d2afc	-0.06892964
220	0x3d24334d	0.040087987
221	0xbbad95ed	-0.0052974136
222	0x3d94c183	0.07263472
223	0x3d73c982	0.059518345
224	0x3db2fb95	0.08739392
225	0xbd8ef86d	-0.06980977
226	0x3d7c977d	0.061667908
227	0x3da5e787	0.08100801
228	0xbd430914	-0.04761608
229	0x3db6274c	0.08894214
230	0x3d933e78	0.07189649
231	0x3a4f2341	0.00079016766
232	0x3d3dc5c4	0.046331182
233	0xbd083447	-0.03325298
234	0xbdac6263	-0.08417203
235	0x3cc1a4ae	0.023638096
236	0x3ce7603c	0.02824413
237	0xbd805eec	-0.06268105
238	0x3d319416	0.043354116
239	0xbda8bc62	-0.08239056
240	0x3da8dda1	0.08245397
241	0x3dbda79a	0.09260483
242	0x3ccfb676	0.025355559
243	0xbd78e9b0	-0.060769737
244	0x3d39ff0c	0.045409247
245	0x3c83edc2	0.016104583
246	0x3cd3db58	0.025861427
247	0x3cf8aa46	0.03035463
248	0x3d951261	0.07278896
249	0xbd28c002	-0.041198738
250	0xbcb472de	-0.02202743
251	0x3cd4f267	0.025994493
252	0x3c298567	0.010346747
253	0x3d9d8aee	0.07692514
254	0xbd4d87ab	-0.05017821
255	0xbb9385b2	-0.0045020217

tpcnns.1.bias f4 [12]
0	0xbdbacd30	-0.09121168
1	0xbbacac00	-0.0052695274
2	0x3c0fae01	0.008769513
3	0xbd66ad36	-0.05631753
4	0x3d6a9f71	0.05728096
5	0xbd2150fc	-0.039383873
6	0xbd22f2fd	-0.039782513
7	0x3d9265f8	0.07148355
8	0x3d9bcfdb	0.07608005
9	0xbc8717d8	-0.016490862
10	0xbd9f36e1	-0.07774139
11	0xbd4509cd	-0.04810505

tpcnns.2.weight f4 [12, 12, 3, 3]
0	0x3c48cde6	0.012256121
1	0x3d69ddad	0.057096172
2	0x3d43285f	0.047645923
3	0xbd2e9c5f	-0.042629596
4	0xbdbeff76	-0.09326069
5	0xbdac8a17	-0.08424776
6	0xbcf89c28	-0.030347899
7	0x3b1091f8	0.002205966
8	0xbd30d36e	-0.043170385
9	0xbd9b2b5e	-0.07576631
10	0x3c259636	0.010106614
11	0xbd9bcc2c	-0.07607302
12	0xbd9765ce	-0.073924646
13	0xbd9e601f	-0.077331774
14	0xbcd49512	-0.025949989
15	0x3dae267b	0.08503433
16	0x3d198c77	0.037487473
17	0xbc3a0808	-0.011354454
18	0x3c9c1253	0.019051706
19	0x3d1dc583	0.03851844
20	0x3a8605bc	0.0010225098
21	0xbd9e0a68	-0.077168286
22	0xbd720a22	-0.059091695
23	0xbd858845	-0.06520132
24	0xbb3207ec	-0.0027165366
25	0xbdb40e37	-0.08791774
26	0xbc90c265	-0.01767082
27	0xbd117e01	-0.035520557
28	0x3dc071ef	0.09396731
29	0x3da03455	0.078224815
30	0x3d64cacf	0.055857476
31	0x3bbdc28c	0.005791014
32	0xbcff6922	-0.03117806
33	0x3cc6dfad	0.024276579
34	0xbd88746a	-0.06662829
35	0xbd26427d	-0.040590752
36	0xbc9ddcfe	-0.019270416
37	0xbcb87e3e	-0.022521134
38	0xbdbaedae	-0.09127365
39	0x3d1b8366	0.03796711
40	0x3da2b585	0.07944778
41	0xbd5a6ad2	-0.053324528
42	0x3cd4b90d	0.025967145
43	0xbc27113e	-0.010196982
44	0xbb52f204	-0.003218771
45	0x3ba0f05a	0.0049114646
46	0x3dab78d7	0.08372658
47	0x3c5db157	0.013531051
48	0xbd7c4d63	-0.06159724
49	0xbd125185	-0.035722274
50	0x3d404266	0.046938322
51	0x3cf6ba0c	0.030118011
52	0x3b1fbb51	0.0024373124
53	0xbc4e8ea0	-0.012607247
54	0xbd19ed91	-0.037580077
55	0xbd0c9edc	-0.034331188
56	0xbd4fb02c	-0.05070512
57	0x3c7f9269	0.015598872
58	0x3cd96151	0.026535662
59	0x3d96a83d	0.07356308
60	0xbcaac180	-0.020844221
61	0x3bf943a7	0.0076069417
62	0x3d7fed40	0.06248212
63	0x3d2b4065	0.04180946
64	0x3c48e0f9	0.012260669
65	0x3cf23974	0.029568411
66	0x3b9c0255	0.00476102
67	0xbda98fe9	-0.08279402
68	0x3b6d2ef6	0.003619132
69	0xbca97a91	-0.020688327
70	0x3db1925a	0.086704925
71	0x3db2617c	0.0871
72	0x3c9f5f8c	0.01945474
73	0x3db3154c	0.087442964
74	0xbd48983d	-0.04897331
75	0x3daad45c	0.083412856
76	0x3da964fd	0.08271215
77	0xbb6d9408	-0.0036251564
78	0xbd9d5f75	-0.076842226
79	0xbcf3f8f7	-0.029781802
80	0xbcd1808d	-0.025573993
81	0x3afd1dc2	0.0019311237
82	0xbdb382c3	-0.08765175
83	0x3c94adee	0.018149342
84	0xbd25354f	-0.040334042
85	0xbcc2c78c	-0.023776792
86	0xbd4baa45	-0.04972293
87	0xbca38610	-0.019961387
88	0xbdb7057b	-0.08936592
89	0xbd50a209	-0.05093578
90	0x3c1c27e1	0.009530992
91	0x3d82670d	0.063673116
92	0x3db3ae3f	0.08773469
93	0xbd956180	-0.07293987
94	0x3d2135f0	0.03935808
95	0xbd5bed6f	-0.05369323
96	0xbd97d95c	-0.07414505
97	0xbb69bdf5	-0.0035666202
98	0xbd6211eb	-0.05519287
99	0xbda99ce8	-0.082818806
100	0xbdb875c2	-0.090068355
101	0xbd834ce0	-0.06411147
102	0x3da11033	0.07864418
103	0x3d59d2cf	0.05317956
104	0xbd1b716e	-0.03794997
105	0xbd839b21	-0.06426073
106	0xbd9722a1	-0.07379652
107	0xbd6899cb	-0.056787293
108	0xbd234af8	-0.039866418
109	0x3d6ad1d2	0.057329006
110	0x3d03dea4	0.03219475
111	0xbd1a3d38	-0.03765604
112	0x3d87316a	0.06601222
113	0xbd73e465	-0.059543986
114	0xbda01739	-0.07816929
115	0x3ca8767f	0.020564316
116	0xbd57b31e	-0.052661054
117	0x3cdd361d	0.027003342
118	0x3da6544e	0.081215486
119	0xbd3b3b7f	-0.045711037
120	0xbd89f225	-0.067356385
121	0x3d0a9fd6	0.033843838
122	0xbdb1a175	-0.086733736
123	0x3daf2b18	0.08553141
124	0xbd39b65c	-0.045339927
125	0x3d3ce051	0.046112362
126	0xbd9c52b2	-0.076329604
127	0xbd86161f	-0.06547188
128	0x3c32874a	0.010896513
129	0x3d0a7599	0.033803556
130	0x3d99101e	0.07473777
131	0x3da5a1e6	0.0808752
132	0xbbb6f61d	-0.005583538
133	0xbc4fb7ee	-0.01267813
134	0x3c856368	0.016282752
135	0xbcb4674d	-0.022021914
136	0x3b51d12f	0.0032015552
137	0xbdb9f697	-0.090802364
138	0xbda1be62	-0.07897641
139	0x3d866e51	0.0656401
140	0xbd648889	-0.055794273
141	0x3d9aa8c6	0.07551722
142	0x3c2a825b	0.010407056
143	0x3cc0af0f	0.023520974
144	0x3db1c585	0.08680252
145	0xbd5f730d	-0.05455308
146	0xbc751502	-0.014958622
147	0x3c8ca6ce	0.017169382
148	0x3cff738f	0.031183032
149	0xbdc06f2d	-0.09396205
150	0x3d072b97	0.033000555
151	0xbd6d1093	-0.057877135
152	0x3c43c3f7	0.011948577
153	0x3d841cd2	0.064508095
154	0xbc29ea13	-0.010370749
155	0xbb3d25ff	-0.0028861759
156	0xbbe816ae	-0.0070827818
157	0x3da33b08	0.07970244
158	0x3d5f95e5	0.05458631
159	0x3c86f7a5	0.016475508
160	0xbd6f2ba9	-0.058391247
161	0xbd55a654	-0.052160576
162	0x3d9b2a18	0.07576388
163	0x3d8be612	0.06830992
164	0x3d63cead	0.055617023
165	0xbd9a6bce	-0.07540093
166	0x3d9600b8	0.07324356
167	0xbc1ad18e	-0.009449376
168	0x3d90347e	0.07041262
169	0x3da83801	0.08213807
170	0x3c2e1242	0.01062447
171	0xbd273057	-0.040817585
172	0x3db9751f	0.09055542
173	0xbd4e7256	-0.050402008
174	0x3d7faff4	0.06242366
175	0xbdbd6e68	-0.09249574
176	0xbcfeb08f	-0.03109005
177	0xbdacd1f0	-0.0843848
178	0xbd317f33	-0.043334197
179	0x3d25d75e	0.040488593
180	0xbd8f00ae	-0.069825515
181	0xbdabfe94	-0.08398166
182	0x3d8e873f	0.0695939
183	0x3d4bf509	0.04979423
184	0xbb03004f	-0.0019989198
185	0xbd8c3fdc	-0.06848118
186	0xbcd608c5	-0.026127229
187	0xbd04ef49	-0.032454763
188	0x3d6af313	0.05736072
189	0xbd03efde	-0.032211177
190	0xbce31117	-0.02771811
191	0xbd8c5444	-0.0685201
192	0xbd3b570f	-0.045737322
193	0x3d52418e	0.05133205
194	0x3d7ca49f	0.061680432
195	0x3c5dc1ca	0.013534972
196	0xbd147f62	-0.036254294
197	0x3dbadc32	0.0912403
198	0x3c917242	0.017754678
199	0xbd1990f8	-0.03749177
200	0xbd078ec3	-0.033095133
201	0xbc628934	-0.013826657
202	0x3d376fb0	0.044784248
203	0x3d0bd5d0	0.034139454
204	0x3d8dc816	0.06922929
205	0xbbc409c8	-0.0059826113
206	0x3da20903	0.07911875
207	0xbd204cff	-0.03913593
208	0xbd33725a	-0.043810226
209	0xbd11969b	-0.03554402
210	0xbdb82ae4	-0.08992556
211	0xbd80c455	-0.06287447
212	0xbdb1c601	-0.086803444
213	0xbbbd0418	-0.0057683103
214	0x3aabf4c9	0.0013119216
215	0xbcc9f4a1	-0.024652781
216	0xbd85bbe3	-0.06529977
217	0x3db39509	0.087686606
218	0xbd034e73	-0.032057237
219	0x3d39d890	0.045372546
220	0x3d8974d5	0.06711737
221	0xbd816bfd	-0.06319425
222	0xbc533dc6	-0.012893146
223	0x3d61e94f	0.05515414
224	0x3dbd7c2e	0.09252201
225	0xbc35c4ac	-0.0110942535
226	0x3d8ecdf1	0.06972874
227	0xbd9a1e83	-0.07525351
228	0xbd800f95	-0.06252972
229	0x3da4698c	0.08027944
230	0xbc1432ce	-0.009045316
231	0x3dc18122	0.09448458
232	0x3bd56158	0.0065118484
233	0xbd224cdc	-0.03962408
234	0x3db877db	0.090072356
235	0x3da9a017	0.08282488
236	0x3c0ba3ac	0.008522909
237	0xbd718492	-0.05896432
238	0xbc08ac1d	-0.008341816
239	0xbd3f6cf5	-0.04673477
240	0x3d8dcefd	0.069242455
241	0x3b8a1c35	0.0042147883
242	0x3ca2f04f	0.019889979
243	0x3d6cd37a	0.057818867
244	0x3cfccaff	0.030858515
245	0xbd758f4e	-0.05995112
246	0x3da36f75	0.07980243
247	0x3d6e768a	0.058218516
248	0xbd748ae3	-0.059702765
249	0x3d96121b	0.07327672
250	0x3cdd9ff1	0.027053805
251	0xbc9cef11	-0.019156964
252	0xbd8da3fb	-0.069160424
253	0xbc8993cc	-0.016794108
254	0xbdc029d2	-0.093829766
255	0x3d59f515	0.053212244

tpcnns.2.bias f4 [12]
0	0x3d235629	0.03987709
1	0xbdc03699	-0.09385414
2	0xbcf0488b	-0.029331466
3	0x3d1e931c	0.038714513
4	0xbc201748	-0.009771176
5	0xbd09b174	-0.033616498
6	0xbd6b9570	-0.05751556
7	0x3dab61eb	0.08368286
8	0xbda78711	-0.08180059
9	0xbda121bb	-0.07867762
10	0x3d7aa191	0.061189238
11	0xbd6f345e	-0.05839955

tpcnns.3.weight f4 [12, 12, 3, 3]
0	0x3d6dda50	0.058069527
1	0xbd580f10	-0.05274874
2	0xbc590aa1	-0.013247163
3	0xbd3f4714	-0.046698645
4	0x3d9ee167	0.07757836
5	0x3d88282c	0.06648287
6	0x3b9d9f62	0.0048102597
7	0x3b4859f9	0.0030571206
8	0xbd14799a	-0.03624878
9	0xbd510332	-0.051028438
10	0xbd15d846	-0.036583208
11	0x3d0298d9	0.031884048
12	0xbc8e1c4e	-0.017347481
13	0x3d871dec	0.06597504
14	0x3c6635f4	0.014050949
15	0x3a6ed11c	0.0009110139
16	0xbd7500a2	-0.059815057
17	0x3d1eedff	0.03880119
18	0xbdb865ff	-0.09003829
19	0x3cb5d70a	0.022197265
20	0x3d0c941e	0.034320943
21	0x3c90178e	0.017589357
22	0x3d8a3e87	0.067502074
23	0x3cbee2a4	0.02330143
24	0xbcdc8d13	-0.026922738
25	0xbd89796c	-0.067126125
26	0xbdb69b7f	-0.08916377
27	0x3d452552	0.048131295
28	0x3d542cc8	0.05180052
29	0xbd968050	-0.073486924
30	0x3cd1c056	0.025604408
31	0xbd0f4782	-0.034980305
32	0x3da679bb	0.08128687
33	0xbd083917	-0.03325757
34	0x3da2fc37	0.079582624
35	0x3d8bc5cd	0.06824837
36	0x3d59a50f	0.053135928
37	0x3d865d68	0.065607846
38	0x3cf4d446	0.029886376
39	0x3d03a46a	0.03213922
40	0xbda7b669	-0.08189089
41	0xbcb54ac5	-0.02213038
42	0xbc3483dc	-0.011017766
43	0x3d42edfe	0.04759025
44	0xbd18a10e	-0.03726297
45	0x3d316603	0.043310177
46	0x3d8592a7	0.06522112
47	0x3d29d618	0.04146394
48	0x3d480f09	0.048842464
49	0xbc5efd62	-0.013610216
50	0x3d3b1b26	0.045680188
51	0xbd072d1c	-0.033002004
52	0x3daaf95b	0.08348342
53	0xbb124bf6	-0.0022323108
54	0xbbb947a7	-0.0056542936
55	0xbdad78ed	-0.084703304
56	0x3db60dde	0.08889364
57	0xbc63f6ef	-0.013913854
58	0x3d915420	0.07096124
59	0xbd813c0c	-0.06310281
60	0xbda3b4da	-0.07993479
61	0xbc70704d	-0.014675212
62	0xbd9c8dd7	-0.07644241
63	0x3c988d36	0.018622022
64	0x3ab4fb9d	0.0013807897
65	0xbd112391	-0.03543431
66	0x3d7511f6	0.059831582
67	0x3d7d4779	0.06183574
68	0xbdae93e9	-0.085243054
69	0xbd9d99f9	-0.076953836
70	0x3d65d877	0.05611464
71	0xbd6e4c2a	-0.058178104
72	0x3c971978	0.018444762
73	0xbccf68a9	-0.02531846
74	0x3c907fc3	0.017639047
75	0xbd5b8647	-0.053594854
76	0x3a0e678b	0.0005432299
77	0xbd0bfcc5	-0.034176607
78	0xbd30c96c	-0.04316084
79	0xbd3ce3ff	-0.04611587
80	0x3cae841b	0.021303227
81	0x3d80787d	0.06272981
82	0xbb406687	-0.0029357986
83	0xba664e9a	-0.0008785516
84	0x3da1b040	0.07894945
85	0x3d9f9bfc	0.077934235
86	0xbc67acd4	-0.0141403265
87	0xbda0fe26	-0.07860975
88	0x3cb7ad65	0.022421548
89	0x3cec738c	0.02886369
90	0xbd9b71c4	-0.075900584
91	0xbdb05972	-0.0861081
92	0x3c22ec7e	0.009944079
93	0x3dbf7947	0.09349304
94	0xbdb1fe3c	-0.086910695
95	0xbd40660e	-0.046972327
96	0xbd07ebee	-0.033183984
97	0xbdad4dd5	-0.08462111
98	0xbd7335e1	-0.059377555
99	0x3d9a9c1b	0.07549306
100	0x3d95ccb0	0.07314432
101	0xbd90c984	-0.07069686
102	0x3af2f375	0.0018535691
103	0xbda108b5	-0.07862989
104	0x3d24a19b	0.04019318
105	0xbd86d7cb	-0.06584128
106	0xbd48e160	-0.04904306
107	0xbd36b09c	-0.04460202
108	0x3c632658	0.013864122
109	0x3d82de35	0.06390039
110	0xbd22e61b	-0.039770227
111	0x3c8d4fc6	0.017249953
112	0x3d9cc0d6	0.07653968
113	0xbbb21cc9	-0.0054355604
114	0x3c226af1	0.009913192
115	0x3bda1c9a	0.0066562416
116	0xba92cbc1	-0.0011199639
117	0x3d6afc6a	0.057369627
118	0x3d539fe4	0.051666155
119	0xbd5385f7	-0.05164143
120	0x3dbbbefc	0.09167287
121	0x3d5bd0d9	0.05366597
122	0xbc736370	-0.014855251
123	0x3dab0222	0.08350016
124	0x3ba9cafc	0.0051816683
125	0x3d772a9a	0.060343362
126	0xbda742a4	-0.081670076
127	0x3db01318	0.08597392
128	0x3dba1873	0.090866946
129	0xbd940ca6	-0.07228975
130	0xbdb079c0	-0.08616972
131	0xbce25265	-0.02762718
132	0xbd72c499	-0.05926952
133	0x3ccd8ae5	0.025090644
134	0x3d2f9770	0.04286903
135	0xbc498333	-0.012299347
136	0x3d8a7ecd	0.067624666
137	0x3b84cf88	0.00405306
138	0xbce7db53	-0.028302824
139	0xbda84aa8	-0.082173645
140	0x3cfc70b1	0.030815454
141	0xbdb9f2b7	-0.09079497
142	0xba248fb3	-0.00062775164
143	0x3c65fc27	0.014037169
144	0xbd5e5c4b	-0.054287236
145	0x3ce4b132	0.027916525
146	0x3c9b65f4	0.018969513
147	0x3d83ba5c	0.064320296
148	0x3d70d5ff	0.058797833
149	0xbd9f8b10	-0.07790196
150	0xbd93997a	-0.07207008
151	0xbd139368	-0.03602925
152	0xbd8e6c93	-0.06954303
153	0x3cf538d5	0.029934326
154	0xbd822582	-0.0635481
155	0xbd960c73	-0.07326593
156	0x3ce3a0f0	0.027786702
157	0x3d6b8e43	0.05750872
158	0xbce3e437	-0.027818782
159	0xbdc41c91	-0.09575761
160	0x3c51f2b0	0.012814209
161	0x3d4a5a3b	0.049402457
162	0x3d983cd6	0.074334785
163	0x3c093316	0.008373996
164	0x3d88e5cf	0.066844575
165	0xbdb15dc1	-0.0866046
166	0x3db97450	0.09055388
167	0xbd7df353	-0.06199963
168	0xbd873dab	-0.06603559
169	0x3d8ba11e	0.0681784
170	0xbcadeb31	-0.021230312
171	0x3d704077	0.05865523
172	0xbd8a6f25	-0.067594804
173	0x3d943a9a	0.0723774
174	0x3db99dfe	0.09063338
175	0x3ce9fb28	0.028562143
176	0x3d9cc85f	0.07655405
177	0xbd8de5e4	-0.06928614
178	0xbcb31838	-0.021862134
179	0x3ceb7da7	0.02874644
180	0x3d597eef	0.05309957
181	0xbd5463b9	-0.051852915
182	0x3d7d3f4f	0.061827954
183	0xbd074ac7	-0.033030298
184	0xbd566d50	-0.052350342
185	0x3c92c327	0.017915322
186	0xbd9eefdf	-0.077605955
187	0xbdb7c327	-0.08972769
188	0x3cf54bc6	0.029943358
189	0x3d03c0fa	0.03216646
190	0x3d1853ee	0.037189417
191	0xbc513459	-0.012768828
192	0xbd90934d	-0.070593454
193	0xbd9f25d6	-0.077708885
194	0x3dbc4413	0.091926716
195	0xbdab3f1f	-0.08361649
196	0x3cee3b11	0.0290809
197	0x3d9e7c60	0.077385664
198	0x3d9465e5	0.07245997
199	0xbd79923b	-0.060930472
200	0xbcfae185	-0.030625114
201	0xbd9e3d5f	-0.07726549
202	0x3d730984	0.059335247
203	0xbdb9f068	-0.09079057
204	0xbdb643f4	-0.0889968
205	0xbd85d6f0	-0.06535137
206	0x3d9f9872	0.077927485
207	0x3d7fd3df	0.062457915
208	0x3d849e87	0.06475549
209	0x3d9701ab	0.07373365
210	0xbd36343c	-0.04448341
211	0xbd5ac840	-0.05341363
212	0xbd718372	-0.058963247
213	0x3d022bcb	0.031780045
214	0x3d1a3624	0.03764929
215	0x3ca50b69	0.020147042
216	0xbd975def	-0.07390963
217	0x3c0f4c5f	0.008746236
218	0xbd50fd8e	-0.05102306
219	0xbc9b355d	-0.018946344
220	0xbc74ea60	-0.0149484575
221	0x3ba2b90c	0.004965907
222	0xbdad7b6a	-0.08470805
223	0x3da7d076	0.08194058
224	0xbd283927	-0.04107013
225	0x3cfb6b87	0.030690921
226	0x3d875f44	0.06609967
227	0x3d1fb33a	0.038989283
228	0x3d8990da	0.06717081
229	0x3d605cdf	0.05477607
230	0x3d903b23	0.070425294
231	0x3ca56d4c	0.020193718
232	0x3d7b7323	0.0613891
233	0xbd2b1ce5	-0.041775603
234	0xbd5648fc	-0.052315697
235	0x3d394b7c	0.045238003
236	0x3ccfedde	0.025381979
237	0xbb6ff9d4	-0.0036617415
238	0xbdaa42c0	-0.08313513
239	0x3d000786	0.031257175
240	0x3d7de8e3	0.061989676
241	0xbc3bec0c	-0.011469852
242	0x3cb37666	0.021907043
243	0x3d2f4b6d	0.04279654
244	0xbdc385f7	-0.09547036
245	0xbc832deb	-0.016013106
246	0xbd12bca0	-0.035824418
247	0xbd4ade5a	-0.049528457
248	0x3d702120	0.05862534
249	0x3dc416ee	0.09574686
250	0x3c79c976	0.015245786
251	0x3d747145	0.059678335
252	0xbd91da9e	-0.07121776
253	0x3c89ff77	0.016845448
254	0xbc45794d	-0.012052846
255	0xbd745fab	-0.05966155

tpcnns.3.bias f4 [12]
0	0x3d00be70	0.031431615
1	0xbca15ef0	-0.01969859
2	0xbd7ad938	-0.061242312
3	0xbd8bf752	-0.06834282
4	0xbc9c86cd	-0.019107247
5	0x3cc41d8d	0.023939872
6	0x3d2074bb	0.039173823
7	0xbbe39e3f	-0.0069463546
8	0x3d9b11bf	0.07571744
9	0xbd410356	-0.047122322
10	0x3c2edac9	0.01067228
11	0xbd421792	-0.04738576

tpcnns.4.weight f4 [12, 12, 3, 3]
0	0x3cd3d14a	0.025856633
1	0x3da83138	0.08212513
2	0x3d0a1b08	0.033717185
3	0x3bd34440	0.006447345
4	0xbd110dd9	-0.035413597
5	0xbda1af95	-0.07894818
6	0xbd86db2d	-0.06584773
7	0xbda90b46	-0.08254103
8	0x3d8c10d5	0.06839148
9	0xbd246cbb	-0.040142756
10	0xbc6be487	-0.014397747
11	0xbdb0983f	-0.08622789
12	0xbcdbcd73	-0.026831364
13	0x3da79eb3	0.08184566
14	0x3c90ecb2	0.01769099
15	0xbc8cc1da	-0.01718228
16	0x3d4d6d96	0.050153337
17	0x3d97ee4d	0.07418499
18	0x3d995a3d	0.07487915
19	0xbd91cf83	-0.07119658
20	0x3be26209	0.0069086594
21	0xbda1d3bc	-0.07901713
22	0xbd87dfb2	-0.06634463
23	0x3d97537a	0.07388969
24	0xbd9d0232	-0.07666434
25	0xbd414ab8	-0.047190398
26	0x3d3d044e	0.046146683
27	0x3dbfbe27	0.093624406
28	0xbdbf6f97	-0.09347456
29	0xbd7e544f	-0.06209212
30	0xbd1a8dfc	-0.037733063
31	0x3d98a937	0.0745415
32	0x3d65b130	0.056077182
33	0x3d75b703	0.059988987
34	0x3d7c8c4f	0.061657246
35	0xbcc546bb	-0.024081578
36	0x3d914e5a	0.070950225
37	0xbb3134ea	-0.0027039596
38	0x3c141f67	0.00904069
39	0xbcd10b6a	-0.025518138
40	0x3d273292	0.040819712
41	0x3d3001d3	0.04297049
42	0xbc271d76	-0.010199895
43	0x3dad7ccc	0.08471069
44	0xbccc270c	-0.024920963
45	0x3cc7852b	0.024355492
46	0x3db2fd60	0.08739734
47	0x3d5e1044	0.05421473
48	0xbd0f859c	-0.03503953
49	0xbd328977	-0.043588128
50	0x3c982232	0.018570993
51	0xba3f2cd4	-0.00072927517
52	0x3bdde970	0.0067722127
53	0x3d7de3b3	0.06198473
54	0x3d09c54e	0.03363543
55	0xbd5d0cbc	-0.053967223
56	0xbda0e662	-0.07856442
57	0x3dba4ffa	0.090972856
58	0xbc2d9003	-0.010593417
59	0xbd1b46a7	-0.037909176
60	0xbd90bd4a	-0.07067354
61	0x3dbd3db8	0.092402875
62	0x3d46e258	0.048555702
63	0xbd79dba3	-0.061000478
64	0xbdaa33ab	-0.08310636
65	0x3dab32b0	0.08359277
66	0x3d29b15a	0.0414289
67	0xbc679459	-0.01413449
68	0xbda3c7fd	-0.07997129
69	0x3d6ee3ac	0.058322594
70	0xbd85c645	-0.065319575
71	0x3d41ae31	0.047285262
72	0xbdbb2c08	-0.09139258
73	0xbdafb561	-0.08579517
74	0xbdbd0d98	-0.092311084
75	0x3db2a6be	0.0872321
76	0x3db3158c	0.08744344
77	0xbda827da	-0.08210726
78	0x3d98574d	0.07438526
79	0xbd6f913d	-0.05848812
80	0xbdb72582	-0.08942701
81	0x3d3daed7	0.04630932
82	0x3d5f6bfd	0.054546345
83	0x3d5f6883	0.05454303
84	0x3c8a5719	0.016887235
85	0x3dbd20e8	0.09234792
86	0xbda9c428	-0.08289367
87	0x3d35d9fd	0.044397343
88	0xbcf9cae8	-0.030492261
89	0x3b9bb9f1	0.0047523906
90	0x3d87ea82	0.06636526
91	0xbd8d1f39	-0.06890721
92	0x3d2cb94f	0.04216891
93	0xbc9d732e	-0.019219961
94	0x3d7eefb6	0.062240325
95	0xbb25994a	-0.002526837
96	0x3d438be1	0.04774082
97	0x3dbd1605	0.092327155
98	0xbd0cba17	-0.034357157
99	0xbdc21f3f	-0.09478616
100	0x3db9e3f4	0.09076682
101	0xbd58ff05	-0.05297758
102	0x3cb424e3	0.021990245
103	0x3d75211e	0.059846036
104	0xbc74d460	-0.014943212
105	0x3d9a041e	0.075203165
106	0x3d7f6c31	0.06235904
107	0xbc9eb3c1	-0.019372823
108	0x3ccead20	0.025229037
109	0x3beef417	0.0072922814
110	0x3dc0ca52	0.094135895
111	0x3d886fc1	0.0666194
112	0xbd834190	-0.064089894
113	0x3c17e755	0.009271462
114	0x3d5494f7	0.051899876
115	0x3d96a8f2	0.073564425
116	0x3d069240	0.03285432
117	0x3d2779d1	0.040887658
118	0xbc918acb	-0.017766377
119	0x3b08c7e9	0.002087111
120	0xbd88646d	-0.0665978
121	0x3da23c36	0.079216406
122	0x3d9b2e06	0.07577138
123	0xbd5907c1	-0.05298591
124	0xbda8b828	-0.0823825
125	0x3d99ac01	0.0750351
126	0xbdaeaa12	-0.08528532
127	0x3d7cc4e7	0.06171122
128	0xbdbff3f4	-0.09372702
129	0xbd498111	-0.049195353
130	0xbd26e034	-0.04074116
131	0x3db934d4	0.09043279
132	0xbc85635c	-0.01628273
133	0x3da9fd32	0.08300246
134	0x3ce50701	0.027957441
135	0x3dbeeabf	0.09322118
136	0x3d828733	0.063734435
137	0x3d9122de	0.070867285
138	0x3dabd079	0.083893724
139	0xbce8e59e	-0.028429803
140	0xbcd8bb94	-0.026456632
141	0x3cfdfd3c	0.03100454
142	0x3dad9b37	0.084768705
143	0xbd110bbe	-0.03541159
144	0xbd9b0469	-0.075692005
145	0xbd9a28cc	-0.07527313
146	0xbd36177a	-0.044455983
147	0x3c7b900e	0.0153541695
148	0xbc367076	-0.011135211
149	0xbcd23791	-0.025661262
150	0xbd384234	-0.04498501
151	0x3ccd08ab	0.025028547
152	0xbda2543b	-0.07926222
153	0x3dc1e17f	0.09466838
154	0xbc74286c	-0.014902215
155	0x3c93152c	0.017954431
156	0x3d01d683	0.031698715
157	0xbd195b06	-0.037440322
158	0x3d9b8676	0.07594006
159	0xba3af4cc	-0.00071318145
160	0x3c0154bb	0.0078937365
161	0xbdbb9a17	-0.0916025
162	0x3c4324f7	0.011910669
163	0x3d073d2c	0.033017322
164	0x3c5bb044	0.013408724
165	0xbc1c3e40	-0.009536326
166	0x3d94ce31	0.072658904
167	0x3d9bcdb5	0.07607595
168	0x3d87aca6	0.06624727
169	0xbc88d07f	-0.016700981
170	0x3c882b9e	0.01662236
171	0xbd8998dd	-0.067186095
172	0xbd9388ba	-0.07203813
173	0xbc89c52c	-0.016817652
174	0x3c3037fc	0.010755535
175	0xbd65913b	-0.056046706
176	0xbda47e00	-0.08031845
177	0x3d334cdd	0.043774474
178	0x3d101a13	0.035181116
179	0xbd823439	-0.06357617
180	0x3d83230b	0.06403168
181	0xbd934d3e	-0.07192467
182	0x3d951320	0.072790384
183	0x3d516220	0.05111897
184	0xbd0534a1	-0.032520894
185	0x3dbb9ef1	0.09161175
186	0xbd5d4c57	-0.05402788
187	0xbd3409e5	-0.04395475
188	0x3d9d125c	0.076695174
189	0xbccb1fc6	-0.024795424
190	0xbd1f300d	-0.038864184
191	0x3c73f19f	0.01488915
192	0xbc853307	-0.016259683
193	0x3d784da7	0.06062093
194	0x3da0e486	0.078560874
195	0x3d2f51d1	0.042802636
196	0x3caa7a95	0.020810405
197	0x3cc6072e	0.024173345
198	0x3b242f4b	0.0025052603
199	0x3c392530	0.01130037
200	0x3aef7f85	0.0018272257
201	0x3d866155	0.06561533
202	0x3d5c68c1	0.05381084
203	0xbc1e8304	-0.009674791
204	0x3d14d638	0.036337107
205	0x3bae625c	0.005321784
206	0x3d0b4815	0.03400429
207	0x3da1cb34	0.07900086
208	0xbd8614b0	-0.065469146
209	0x3c600acb	0.013674448
210	0xbca3fe63	-0.020018762
211	0xbdc0a85f	-0.09407114
212	0xbdbf7f1b	-0.09350415
213	0xbc4e6e8e	-0.0125996005
214	0x3d8d0bd7	0.06887024
215	0xbd81f1c3	-0.063449405
216	0x3d0062a3	0.031344067
217	0x3d632954	0.055459335
218	0xbd8fa3c0	-0.07013655
219	0x3d2944b9	0.041325305
220	0x3c94c636	0.01816092
221	0xbdb369f5	-0.08760444
222	0xbaf27ea0	-0.0018500872
223	0xbdb9028a	-0.090336874
224	0x3dac4c40	0.08412981
225	0x3d38b9a1	0.045098905
226	0x3d170500	0.036870003
227	0x3d974b7c	0.073874444
228	0x3d96b616	0.07358949
229	0x3dc3a3ed	0.09552751
230	0x3d229d3a	0.039700724
231	0xbd8e478d	-0.06947241
232	0x3db70b72	0.0893773
233	0x3cdaf899	0.026729869
234	0xbd1b5e7a	-0.037931897
235	0xbd12af2d	-0.035811592
236	0x3db8678d	0.09004126
237	0x3caf1bee	0.021375623
238	0x3d8f3d0e	0.06994067
239	0x3bf5e8bc	0.0075045507
240	0x3db60a08	0.08888632
241	0xbd90339a	-0.07041092
242	0x3cbbdf4c	0.022933625
243	0x3cbc18d7	0.022961063
244	0xba917653	-0.0011097885
245	0x3daf4eb3	0.085599326
246	0x3c9e4b8b	0.019323131
247	0x3baace65	0.0052125924
248	0x3d868182	0.065676704
249	0xbbf8ecd8	-0.0075965934
250	0xbbcbb97e	-0.0062171808
251	0xbda279ac	-0.07933363
252	0xba25443a	-0.0006304417
253	0xbd37f947	-0.044915464
254	0x3d6432e0	0.05571258
255	0x3dab700b	0.0837098

tpcnns.4.bias f4 [12]
0	0xbd99f663	-0.07517698
1	0xb9db8059	-0.00041866562
2	0xbd54b15a	-0.051926948
3	0xbd5f6783	-0.054542076
4	0xbd66c474	-0.056339696
5	0xbd3ecbe8	-0.04658118
6	0xbd6a669d	-0.057226766
7	0xbd578c84	-0.05262424
8	0xbd0f9296	-0.035051905
9	0xbdb4104f	-0.08792173
10	0x3d9dbe22	0.077022806
11	0x3d04722f	0.032335456

tpcnn_ouput.weight f4 [12, 12, 3, 3]
0	0xbdc2d660	-0.09513545
1	0xbdc58290	-0.096440434
2	0xbd44d7d8	-0.048057407
3	0x3d15c3d2	0.036563702
4	0x3daf6191	0.08563531
5	0xbc8129d0	-0.015767008
6	0x3d6a5087	0.057205703
7	0xbd51d06f	-0.05122417
8	0xbc9e4177	-0.019318325
9	0xbc74dddb	-0.014945473
10	0xbdc0b45c	-0.09409401
11	0x3a31864e	0.0006772027
12	0x3cd296d4	0.025706686
13	0x3d71703d	0.05894493
14	0xbd97d3dd	-0.074134566
15	0xbce576dc	-0.028010778
16	0x3b83944b	0.0040154806
17	0x3c28ab1c	0.010294702
18	0x3c7c5730	0.0154016465
19	0xbd9268f9	-0.07148928
20	0x3d9815fd	0.07426069
21	0xbdaf6c14	-0.08565536
22	0xbd043c33	-0.032283973
23	0x3d45f704	0.048331276
24	0xbcc059dc	-0.023480348
25	0xbd3a416f	-0.04547256
26	0xbdbf8dd3	-0.09353223
27	0x3d8618b3	0.0654768
28	0xbb200b79	-0.00244209
29	0x3d3dbddb	0.04632364
30	0x3c773432	0.015088128
31	0xbd905410	-0.07047284
32	0xbd08337c	-0.033252224
33	0x3d8cd1f9	0.068759866
34	0xbd3d0a3f	-0.04615235
35	0xbd331e08	-0.043729812
36	0x3d55c126	0.052186154
37	0xbd2bc0c0	-0.041931868
38	0x3c74546d	0.014912707
39	0xbd3fae4f	-0.046797093
40	0x3ceb00c5	0.02868689
41	0x3c1f3fb9	0.0097197825
42	0xbd9a6835	-0.07539407
43	0xbd941617	-0.07230776
44	0x3d12a954	0.035806015
45	0xbd01029f	-0.03149664
46	0x3d5594f1	0.052143995
47	0x3b860cd9	0.004090887
48	0xbd06eb92	-0.0329395
49	0xbc8fa829	-0.01753624
50	0xbd346efb	-0.04405115
51	0x3d440cc5	0.04786374
52	0x3d9d65c0	0.07685423
53	0xba99cbe4	-0.0011733738
54	0xbd7d628e	-0.061861567
55	0x3d899369	0.067175694
56	0x3d9d7b23	0.07689502
57	0x3d81b5e7	0.06333523
58	0xbb1579f1	-0.0022808278
59	0x3cb9138a	0.022592325
60	0x3bcd5ccf	0.006267167
61	0xbd0d7f7c	-0.034545407
62	0xbdbd9776	-0.092574045
63	0xbc33e908	-0.010980852
64	0x3d271b8c	0.040797755
65	0x3d63e7a4	0.05564083
66	0x3cb0cf06	0.021583091
67	0x3d2e84e3	0.0426072
68	0x3d71be69	0.05901948
69	0xbc9691f5	-0.018380145
70	0x3d8120fc	0.063051194
71	0xbaeaaa31	-0.0017903504
72	0xbd09fe97	-0.03369006
73	0xbd19a31c	-0.03750907
74	0xbd61ece3	-0.055157553
75	0xbd94e1f1	-0.072696574
76	0x3caf4066	0.021393012
77	0x3db1ea46	0.08687262
78	0x3c63673f	0.013879596
79	0x3c5f7c74	0.013640512
80	0xbd0f17c0	-0.03493476
81	0xbd1ce034	-0.038299754
82	0xbcf8804c	-0.030334614
83	0x3d092cab	0.033489864
84	0x3c824533	0.015902137
85	0xbd0ce874	-0.034401372
86	0x3c973f23	0.018462723
87	0xbc7ca2fe	-0.01541972
88	0xbbd58d59	-0.006517094
89	0x3d891faf	0.06695496
90	0xbd2002af	-0.03906506
91	0x3db54056	0.08850162
92	0xbd564f9f	-0.052322026
93	0x3db3647a	0.08759399
94	0x3d0ffb6f	0.035151895
95	0x3d19f290	0.03758484
96	0xbcb429e2	-0.021992628
97	0xbccb5144	-0.024819024
98	0xbd8b49ba	-0.068011716
99	0xbdbcb45c	-0.09214088
100	0x3d8989e3	0.06715753
101	0x3dbf110a	0.09329422
102	0x3cdfc604	0.0273161
103	0xbd12c0b1	-0.035828296
104	0x3caf36dc	0.021388464
105	0xbb64de82	-0.0034922664
106	0xbdaa2ee0	-0.08309722
107	0xbd9e6892	-0.07734789
108	0x3d09d7ec	0.033653185
109	0xbce531b9	-0.027977811
110	0xbcb4dc13	-0.022077596
111	0xbd680fe3	-0.056655776
112	0x3d2c8ff1	0.04212946
113	0xbd409847	-0.047020223
114	0xbcf5f9c2	-0.03002632
115	0x3d51e33e	0.051242106
116	0x3dbc0e7a	0.09182449
117	0x3daf65da	0.085643485
118	0x3d17bac8	0.037043363
119	0x3b1bffea	0.002380366
120	0x3d92c75d	0.07166932
121	0x3daa847c	0.08326051
122	0x3d30f4ae	0.043202095
123	0x3ce978a9	0.028499918
124	0x3cb89abf	0.022534726
125	0x3c1c362b	0.009534399
126	0x3d83551e	0.06412719
127	0x3ce3ab63	0.027791684
128	0xbda46f0f	-0.08028995
129	0xbd61dc0e	-0.0551415
130	0xbdb1dde1	-0.08684898
131	0xbcebec28	-0.028799132
132	0x3bb8d81c	0.0056409966
133	0xbd20e028	-0.039276272
134	0xbdb377b2	-0.087630644
135	0xbd7bb8ac	-0.061455414
136	0x3d28b678	0.04118964
137	0xbbd73afa	-0.00656831
138	0xbc81d655	-0.015849272
139	0x3c811aa7	0.01575978
140	0xbca64ef3	-0.020301318
141	0xbd534b3f	-0.051585432
142	0xbd3172f0	-0.043322504
143	0xbd1fe62d	-0.039037872
144	0xbdb32570	-0.08747375
145	0xbdb1bc5e	-0.08678506
146	0xbd132fee	-0.03593438
147	0x3d1259eb	0.035730284
148	0x3dbdf914	0.092760235
149	0xbb32a5e7	-0.002725953
150	0x3d875cd1	0.066095
151	0x3d0225ca	0.03177432
152	0xbd9cb36e	-0.07651411
153	0xbd3a6389	-0.04550508
154	0xbcb97e30	-0.022643179
155	0xbd9b9990	-0.07597649
156	0x3c84495e	0.016148265
157	0x3cc6c2ca	0.024262805
158	0xbd96a9e6	-0.07356624
159	0xbc94e208	-0.018174186
160	0xbda868a8	-0.082230866
161	0x3dc3a1f9	0.09552378
162	0x3d6b5649	0.057455335
163	0xbd11b050	-0.035568535
164	0x3da7e510	0.08197987
165	0xbd7086bb	-0.05872224
166	0x3da3cf00	0.079984665
167	0xbd1dd13a	-0.038529612
168	0x3cebd7d5	0.02878944
169	0x3d84797a	0.06468482
170	0x3d32d568	0.04366055
171	0x3cbf5f27	0.023360802
172	0xbc267839	-0.010160499
173	0x3a96f320	0.0011516549
174	0x3da5efa7	0.08102351
175	0xbd024801	-0.03180695
176	0xbcf77f4b	-0.030212065
177	0x3c47bc4d	0.0121908905
178	0xbd3f1e71	-0.04665989
179	0xbd17a687	-0.037024047
180	0x3c22e931	0.0099432925
181	0x3d92992e	0.07158123
182	0x3d02c70c	0.031928107
183	0xbd690813	-0.056892466
184	0x3d6a8fc8	0.057266027
185	0xbd10dddd	-0.035367835
186	0x3cd4e281	0.025986912
187	0x3ba403bd	0.0050053285
188	0x3d8943de	0.06702398
189	0xbcabe51a	-0.020983268
190	0xbd17b410	-0.037036955
191	0xbc93f209	-0.018059747
192	0x3ac6ee28	0.0015177177
193	0xbd34aee2	-0.044112094
194	0x3d87062f	0.06592976
195	0xbd4eae55	-0.050459225
196	0x3c78a499	0.015175962
197	0xbd9537e6	-0.072860524
198	0xbc1cb0ee	-0.009563668
199	0xbc990815	-0.018680612
200	0xbd1ac903	-0.037789356
201	0x3d549ff7	0.051910367
202	0xbdad3fb9	-0.0845942
203	0x3c270468	0.010193922
204	0xbbdc07d5	-0.006714801
205	0xbd4952c2	-0.04915119
206	0x3d960f84	0.07327178
207	0x3d786a03	0.060647976
208	0x3cf13a61	0.029446783
209	0x3ab821c8	0.0014048154
210	0x3d59c28d	0.053164054
211	0xbd29dca5	-0.04147019
212	0xbd9f9d7e	-0.07793711
213	0x3dbc8e7b	0.092068635
214	0xbd1287dd	-0.0357741
215	0x3c9f3c31	0.019437881
216	0x3b040771	0.0020146037
217	0x3da31599	0.07963104
218	0x3dc05d48	0.09392792
219	0xbd8258ce	-0.063645944
220	0xbb306808	-0.0026917476
221	0xbda1bb17	-0.07897013
222	0x3d7a312c	0.06108205
223	0x3db821f0	0.08990848
224	0xbd1c624a	-0.038179673
225	0x3c897f3c	0.016784303
226	0xbcb972ce	-0.022637751
227	0xbcbcd343	-0.023049956
228	0x3d9aa598	0.07551116
229	0xbdb9a9e8	-0.0906561
230	0xbc6df58b	-0.014523874
231	0xb98506ed	-0.00025372897
232	0xbdad9f17	-0.084776096
233	0x3d1f945f	0.038959857
234	0x3d8243e4	0.06360605
235	0xbd9be151	-0.07611335
236	0x3d126501	0.035740856
237	0xbbe4cfc6	-0.0069827763
238	0x3db3a94c	0.08772525
239	0xbdbbc6e9	-0.091687985
240	0x3da34d40	0.07973719
241	0xbd1b3bd2	-0.037898846
242	0x3da154b3	0.07877483
243	0xbd4864f0	-0.048924387
244	0x3c7d2bf5	0.015452375
245	0x3cb700bc	0.022339217
246	0x3d6d70aa	0.057968773
247	0x3d2faed2	0.04289133
248	0x3d55c290	0.052187502
249	0xbca946d0	-0.020663649
250	0xbd9dfdb1	-0.077144034
251	0x39191565	0.00014599187
252	0x3db03a40	0.0860486
253	0x3da419b2	0.080127135
254	0xbd6eb1e6	-0.058275126
255	0x3d84b0c2	0.064790264

tpcnn_ouput.bias f4 [12]
0	0x3c607188	0.013698943
1	0x3c840883	0.01611734
2	0xbdb3f8a0	-0.08787656
3	0x3d8ca38c	0.068671316
4	0x3cdfb0a0	0.027305901
5	0x3af9f097	0.0019068894
6	0x3d02e710	0.03195864
7	0x3b9febaa	0.0048803883
8	0xbd485f83	-0.048919212
9	0xbca41def	-0.020033805
10	0xbda16e56	-0.07882373
11	0x3d8c962a	0.06864579
