saved_models/eth_tag/model_epoch_0.pth (torch, 43263 bytes, 30 tensors)

st_gcns.0.gcn.conv.weight f4 [5, 2, 1, 1]
00000000: 125c 0a3f 5940 163f 6b7d 29be 3b4b 263f
00000010: cd4f 1ebe fd4d 123e c54b b0be 1d84 d43e
00000020: eb80 1f3f 53c3 04bf
0.5404674 0.58691937 -0.1655175 0.6495854 -0.15460129 0.14287563 -0.34432808 0.41507044
0.6230609 -0.5186054

st_gcns.0.gcn.conv.bias f4 [5]
00000000: ac5e 1d3f 5e8c 073e 1ec0 053f 0b65 c53d
00000010: 99f3 ae3e
0.6147258 0.1323714 0.5224627 0.09638413 0.34170225

st_gcns.0.tcn.0.weight f4 [5]
00000000: 4afd 7f3f e301 803f 65cb 7f3f 8108 803f
00000010: 3311 803f
0.99995863 1.0000576 0.9991973 1.0002595 1.0005249

st_gcns.0.tcn.0.bias f4 [5]
00000000: e9f3 72b8 0470 8339 8ea0 26ba 01df 3039
00000010: 8042 2a39
-5.7924455e-05 0.00025069725 -0.0006356322 0.00016867743 0.00016237237

st_gcns.0.tcn.0.running_mean f4 [5]
00000000: 08de b3bd c4d0 3bbc 7a9d 593c d1fe a53c
00000010: 3585 3abd
-0.087825835 -0.011463348 0.013282174 0.020263107 -0.045537192

st_gcns.0.tcn.0.running_var f4 [5]
00000000: 677b ae40 8de1 2740 a42f cf3f a96f ca3f
00000010: 3133 7c40
5.452564 2.6231415 1.6186414 1.5815326 3.9406245

st_gcns.0.tcn.2.weight f4 [5, 5, 3, 1]
00000000: 446a 15bd 541b 4b3e 7d85 173d 3112 f8bd
00000010: 1622 863d 3acc f3bd d49f f9bc 11af d6bd
00000020: 3367 2e3e 4b56 51be edd9 f3bd bd06 95bd
00000030: 0c4d 1ebe a221 c33c ad21 83be f64a 6e3e
00000040: f18a 60be c441 4c3e e06d 2f3d 3b58 acbd
00000050: 585a 233e 0609 223d b6d2 553e b9e3 e73c
00000060: 0d2b a7bd dd9b 8d3d 1b94 8fbd b5c6 dd3d
00000070: 9f46 6c3e 072c 193e e30e e8bd 2a5b 183e
00000080: 7c99 393d c40b 063e d029 22be 6526 83be
00000090: c4b2 cdbd e2ba 4abe 6f63 573e f0dc 973d
000000a0: fd17 d93d 84d0 a53d 11a7 8cbb 3e14 4f3e
000000b0: 8dcc 3cbe eb36 803c 0fd7 34be f0d5 a23d
000000c0: 36f5 b6bd e496 a13d 6606 5bbd d187 5a3e
000000d0: 4292 1cbe ddcf 1dbe f529 1ebe 48aa 6d3e
000000e0: 380d b13d 50ba 7d3e 52c4 5abe f14a 83be
000000f0: 2f56 4fbe 1a63 32be 76d7 d63d 4ee5 bd3d
00000100: de78 5a3e b712 08be 0c4d 34be 5f2f 0b3e
00000110: 3eeb d3bd afdc 203e e632 80bd cbe1 173e
00000120: fc5f 4ebe 98db 04be 32f9 9f3d
-0.036478296 0.19834644 0.03699254 -0.12112845 0.0654947 -0.119041875 -0.03047172 -0.1048261
0.17031555 -0.20443074 -0.119068004 -0.07276676 -0.15459079 0.023819748 -0.2561163 0.23270783
-0.21928002 0.19946963 0.042829394 -0.08415266 0.15952432 0.039559387 0.20881161 0.028306829
-0.08162508 0.06914494 -0.07010671 0.10828916 0.23073815 0.14958201 -0.113309644 0.14878526
0.04531239 0.13090426 -0.15836263 -0.2561523 -0.100438625 -0.19797853 0.21034025 0.07415187
0.106002785 0.08096412 -0.004292377 0.20222566 -0.18437405 0.015651187 -0.17660163 0.079509616
-0.08933489 0.07890108 -0.0534729 0.21340872 -0.15290168 -0.15411325 -0.15445693 0.23209488
0.086450994 0.24778104 -0.21363953 -0.25643113 -0.2024772 -0.17420617 0.10490315 0.09272252
0.2133517 -0.13288389 -0.17607516 0.1359229 -0.10347603 0.15709184 -0.06259708 0.14832227
-0.20153803 -0.12974393 0.07811202

st_gcns.0.tcn.2.bias f4 [5]
00000000: b994 5f3d ead1 86bd 2299 1d3e 15bd 333e
00000010: 91bb 3fbe
0.054585192 -0.06583007 0.15390447 0.17552598 -0.18723895

st_gcns.0.tcn.3.weight f4 [5]
00000000: a186 7f3f 1579 7f3f 9c1a 7f3f 6429 7f3f
00000010: c848 7f3f
0.998148 0.9979413 0.9964998 0.9967253 0.9972043

st_gcns.0.tcn.3.bias f4 [5]
00000000: 3462 f536 e9dc d639 ce95 a7ba e6ca 3bbb
00000010: ef0a 12bb
7.3130013e-06 0.00040981852 -0.0012785734 -0.0028654872 -0.002228435

st_gcns.0.tcn.3.running_mean f4 [5]
00000000: 3a2f 02be 9104 543e d8c5 203e 0752 b73d
00000010: b343 84be
-0.12713328 0.20704867 0.15700471 0.08951192 -0.258329

st_gcns.0.tcn.3.running_var f4 [5]
00000000: 3e20 9d3d 593d ed3d 729a 933d bd31 643e
00000010: cb9f f83d
0.07672165 0.11583967 0.072071925 0.22284599 0.12139853

st_gcns.0.residual.0.weight f4 [5, 2, 1, 1]
00000000: 2c2f c1be dbc7 253f 1617 75be 05f8 7fbe
00000010: 322b 2fbf d546 cfbe 8f4b 353e 388b bdbd
00000020: 5867 03bf 4b89 833c
-0.37731302 0.6475808 -0.23934588 -0.24996956 -0.68425286 -0.40483728 0.17704605 -0.092550695
-0.51329565 0.016056677

st_gcns.0.residual.0.bias f4 [5]
00000000: 4a4d f7be 8293 19bf 755c c7be 296e 1ebf
00000010: 1886 e6be
-0.48301154 -0.59990704 -0.38937727 -0.6188684 -0.4502418

st_gcns.0.residual.1.weight f4 [5]
00000000: 097c 7f3f c19d 7f3f 4353 7f3f 7638 7f3f
00000010: 9151 7f3f
0.9979864 0.9985009 0.9973642 0.9969553 0.99733835

st_gcns.0.residual.1.bias f4 [5]
00000000: 3a62 f536 ebdc d639 ce95 a7ba e6ca 3bbb
00000010: ef0a 12bb
7.313004e-06 0.00040981857 -0.0012785734 -0.0028654872 -0.002228435

st_gcns.0.residual.1.running_mean f4 [5]
00000000: f8de f7be 7383 1bbf a6ca d0be 5cbc 1dbf
00000010: c4e5 ebbe
-0.484123 -0.6074745 -0.40779608 -0.6161554 -0.46073735

st_gcns.0.residual.1.running_var f4 [5]
00000000: fbb1 163f 9ac1 fa3d 20a2 1f3f 459c 1f3d
00000010: 732f 803e
0.58865327 0.12243958 0.6235676 0.03896739 0.250362

tpcnns.0.weight f4 [12, 8, 3, 3]
00000000: 6d4e ec3d ddd9 aa3c b885 0f3d f85a e2bd
00000010: ee9d 9fbd c21a 26bd bf5d 933c 2e97 d4bd
00000020: 45ed 4fbd 4bc5 91bd de42 46ba 7d87 34bd
00000030: e80d 14bc ec03 a5bd b55d a7bd 0d14 8ebd
00000040: b5bb 28bd 41ee bebd abe0 c53d 6184 cfbc
00000050: 74c8 cb3d e528 103d 0091 cdbd 59f6 a43d
00000060: 70df 07bd de2b 3dbd 819a c9bd 68b8 f0bd
00000070: 1dd6 063d f58b d6bc 5fa6 343d 8d17 c7bd
00000080: 418c af3d cc7b b1bd a1f8 abbc 685a c33c
00000090: 9841 743d 183f bf3d 0734 d83d 46e5 bfbd
000000a0: cad4 e83c db18 51bd a26f 61bc f3f4 b4bd
000000b0: d07c d93d c9a5 b2bd db76 7d3d 3b59 273d
000000c0: 57a7 163d 1c56 84bd 9a19 d83d f7e3 ce3c
000000d0: fc2f 663c cb81 d5bd eece 453d 0038 9abc
000000e0: 0f1e 60bd 2324 cc3d 58fc cc3c 2f3b 88bd
000000f0: 2eaa 77bd 548d d6bb c1d6 833d 812a 00bd
00000100: 07f6 8abd ff43 29bd a417 b5bd 56b7 273d
00000110: 1198 b73d 6d8b e3bd dd71 d73c 82b1 763d
00000120: 4ed4 aa3c 38cf 2ebd 5d00 773d c75c 793d
00000130: c685 303d 8311 b2bc d265 04bd 0ae7 423c
00000140: 426e afbc 17db 11bd 7325 983d 20a3 cc3d
00000150: 2a67 48bc aa41 dfbc 2df1 e439 29d2 f9bb
00000160: f135 df3c fa1d 013d d5eb dbbd 6245 34bd
00000170: 84da c73d a01a 373d 943c cebb 17e6 91bd
00000180: d67a 94bd c7b4 d8bd 13fd 1fbd 5f78 213d
00000190: ebed 963d a5f5 593d 7feb d5bd 654d 92bd
000001a0: 1cac 9fbc 79a1 e63d d306 863c ccbc 00bd
000001b0: 55bb 453d 4e33 3bbd 542a 9dbd 64e2 ad3d
000001c0: 8a81 5ebd 72d9 c8bc 5c8c efbd 9029 9d3d
000001d0: 22c5 b43d c7b3 2d3d 0cae a9bd 8e86 eebd
000001e0: 7efd c4bd daf1 ae3d 7e26 633d 9a86 c83d
000001f0: 4a48 753d ceef eb3c 1d7b 1dbb 60b0 b8bd
00000200: 0613 d0bd 304f e2bd 152a 3e3d ebbf 70bd
00000210: 61e1 c9bc 0f57 8cbd 86bb b9bc 5316 aabd
00000220: 0d4e 9fbd d022 1d3d 1f01 12bd 7635 913d
00000230: a94e 1dbd e6a7 b1bd e038 b4bc 0cf9 6dbd
00000240: 0f66 16bd 4d31 e6bd 0427 853d 94fc a9bd
00000250: 8b59 6a3d 8146 563d 367b a93d cc52 b9bd
00000260: 55fd a93d b2c1 65bd a327 303d 156b e03d
00000270: 92cf 8cbc aecf c5ba 1373 e2bc b2fc c9bd
00000280: 175a 623d 3012 efbd 6012 933d cf77 b03d
00000290: 2ab4 e13d 153a edbc 0a9a c8bd 607b c93c
000002a0: 7fc2 823d 18a9 f1bd 0c4b e1bc 4fd8 91bd
000002b0: 70a3 32bc 67bb 6ebd 1909 49bd 4b23 1dbd
000002c0: 556e e6bd 63eb c23d 16db c53d 157b 9ebc
000002d0: a3ea 6dbc b1b7 44bd a283 dabd cf07 ebbd
000002e0: 8646 2f3d 6a97 85bd cfd3 9cbd 0ede 1bbc
000002f0: 6974 22bd 83e8 1dbd b4e5 743b 7112 cdbc
00000300: 3e66 29bd 3479 6bbd 345f c3bd 11be c63d
00000310: 6fb0 43bd e26b f83c 68cb 2abd 7fed 073c
00000320: 7683 dd3d a9b9 573d 98ee d1bd 4a5c 373d
00000330: f106 e23d a2bd f03c 0e8a 9d3d 4be6 eb3d
00000340: f581 98bc 6373 c53c f73a a9bd 1d65 c7bc
00000350: 1a4e b13d 9b96 733d 3953 9abd 7046 c1bd
00000360: 86fc a4bd aa08 eebd 02bf babd 9540 f4bc
00000370: 6f5e a13d 4785 963c 99e3 b7bd 9253 c2bd
00000380: cfaf 6c3d d7f8 b2bd 83a7 75bc 0a94 653d
00000390: d9b4 5fbd b5cf 5bbc e7cd 25bc e945 e6bc
000003a0: 8dc4 75bd 4c45 d7bd 0898 c2bd e96f 81bd
000003b0: cdd7 e73d a618 6bbd cb8b a3bd 02be e13c
000003c0: 9a49 023d c7a7 823d 9f04 b43d 03dc 843d
000003d0: 78b1 eebd 56c0 263c 095b 903d 5a19 38bc
000003e0: 1f8f 8ebd 49df e43d 338a 35bd 5f06 8bbd
000003f0: 98b3 d9bd f1e1 a73b 3a26 513d cda9 ce3c
0.11538396 0.020855838 0.035039634 -0.11052507 -0.077937946 -0.040552862 0.017989038 -0.10380398
-0.050763387 -0.07117709 -0.00075630646 -0.044074524 -0.009036519 -0.08057389 -0.0817217 -0.06937418
-0.041194636 -0.09322787 0.09661993 -0.025331678 0.09950343 0.03519525 -0.10037422 0.080547996
-0.03317207 -0.046184413 -0.098439224 -0.11753923 0.032919038 -0.026189784 0.044103976 -0.09721289
0.08571673 -0.086661905 -0.020992579 0.02384682 0.059632868 0.09338206 0.105567984 -0.09369902
0.028421778 -0.051049095 -0.0137595255 -0.08835783 0.10619509 -0.08723027 0.061880928 0.04085658
0.03678068 -0.064617366 0.10551758 0.025255186 0.014049526 -0.10425147 0.048293047 -0.018825531
-0.054716166 0.0996783 0.02502267 -0.066519134 -0.06046503 -0.0065476093 0.064374454 -0.031290535
-0.06785207 -0.04132461 -0.088424 0.040946327 0.08964551 -0.11110578 0.026299411 0.06022788
0.020853188 -0.042678088 0.06030308 0.060879495 0.043096326 -0.021736866 -0.032323666 0.011895904
-0.02141488 -0.03560933 0.07429018 0.09992051 -0.0122316275 -0.02725299 0.0004366724 -0.00762393
0.027247401 0.03152273 -0.10738341 -0.04401148 0.097584754 0.044703126 -0.0062938426 -0.07123964
-0.072499916 -0.105813555 -0.03905971 0.039421435 0.07369598 0.05321278 -0.10445308 -0.07143668
-0.019491248 0.11261267 0.016360676 -0.03143005 0.048274357 -0.045703225 -0.07674089 0.08490446
-0.054322757 -0.024517749 -0.11696693 0.07673943 0.088266626 0.042407777 -0.0828515 -0.11646758
-0.09618662 0.08542223 0.05545663 0.09791298 0.059883393 0.028800871 -0.002402968 -0.09018016
-0.101598784 -0.1105026 0.04642685 -0.058776777 -0.024643602 -0.068525426 -0.022672426 -0.08305039
-0.07778559 0.038363278 -0.0356456 0.07090275 -0.038405094 -0.08674602 -0.021999776 -0.058098838
-0.036718424 -0.11239872 0.06501582 -0.083001286 0.0572143 0.05231333 0.08275454 -0.090489954
0.083002724 -0.056092925 0.04300655 0.10957924 -0.017188821 -0.0015091801 -0.027642762 -0.09862651
0.055261698 -0.11673391 0.07181239 0.08616602 0.11020692 -0.02895836 -0.097950056 0.024594963
0.063847534 -0.1179983 -0.027501605 -0.07121336 -0.010903224 -0.05828419 -0.04908094 -0.038363736
-0.11251513 0.09517553 0.09660928 -0.0193458 -0.014521274 -0.048026744 -0.10669638 -0.11476099
0.042791866 -0.065230206 -0.07657587 -0.009513391 -0.0396618 -0.03855182 0.003736836 -0.025033208
-0.04135727 -0.057488635 -0.09539643 0.09704221 -0.047775682 0.03032488 -0.04169789 0.00829637
0.1081609 0.052667294 -0.10250586 0.044765748 0.1103648 0.029387299 0.076923475 0.11518534
-0.018616656 0.024102872 -0.082632 -0.024340207 0.08657475 0.0594698 -0.07535405 -0.09437263
-0.080559775 -0.11622746 -0.09118463 -0.029815951 0.0787934 0.018374098 -0.08978958 -0.09488596
0.05778485 -0.08738869 -0.014993551 0.056049384 -0.05461583 -0.01341622 -0.010119892 -0.028109508
-0.0600019 -0.10511264 -0.09501654 -0.06320173 0.113204576 -0.057396553 -0.07985648 0.027556423
0.031808473 0.06379657 0.08789944 0.064872764 -0.11654943 0.010177692 0.070486136 -0.011236513
-0.06960892 0.11175401 -0.04432125 -0.067883246 -0.10629958 0.00512337 0.051061846 0.025227452

tpcnns.0.bias f4 [12]
00000000: 3f83 c83d b5a2 a0bc 48ea 45bd b627 943d
00000010: cb5a bc3d 6c7b e93d 68f0 ec3c 1ad1 2cbd
00000020: 9c9b 623d 08b3 c53d f9d7 f8bd 8b11 70bc
0.09790658 -0.019608835 -0.04831913 0.07234137 0.09197005 0.11400494 0.028923228 -0.042191602
0.055324182 0.09653288 -0.121505685 -0.01465262

tpcnns.1.weight f4 [12, 12, 3, 3]
00000000: 5052 86bd 1709 933c 51c3 223d eb63 a3bc
00000010: 4725 0cbc 2d27 313d 3a14 85bc 5e71 a5bd
00000020: 8c7f 9d3d 2944 46bd ec9d 2dbc 2e20 143c
00000030: 1ced bbbb 8e18 b9bd 71dc 343d 88fa 32bd
00000040: 596b 4cbd 1db5 bc3c 45ee 4dbd 1b43 36bd
00000050: d56d 04bd 3be6 13bd 37e9 24bd 58cb d4bc
00000060: c1ae cc3c 5879 9fbd 324f 6ebd dd22 a53a
00000070: 5ce5 583c bbad 593d 2174 8abd 01c0 fb3c
00000080: ee1d 603d 76a4 5a3d 179c b7bd e803 16bd
00000090: 9d7a a9bd 9bc6 79bd 825b 5b3d e444 6fbc
000000a0: c1c5 263d f48b 67bd b5ed 6c3c 1642 6ebd
000000b0: ab4e 443d 4326 2dbd 7317 c7bc e406 abbd
000000c0: 35b4 cfb8 27ed b93d 2a54 3e3d cc32 53bd
000000d0: a7b6 853a 180b 30bc 62da 9ebd d67f 9a3d
000000e0: 4021 ca3a daa0 a43c d1c0 1fbd 7009 39bd
000000f0: 8ac2 813c 8452 113d a8e3 b03c 2be4 3dbd
00000100: e756 bf3d 9d80 68bc 3dd1 71bd f9b9 38bd
00000110: f0de c13d c1fa 2137 6ab6 57bc ccfb 23bd
00000120: faf9 cfbc 9d55 a6bd fdcd 9cbd 809e 653d
00000130: 7512 a83d bcbd bb3d 489e 8ebd 1bfa 543d
00000140: ecb0 74bd 74a2 6a3d bbd7 8d3d 4652 983d
00000150: 9b4a 8d3d 251d 763d 02da db3a d27e 343d
00000160: f185 0dbd 491a 2b3d 36db fcbc 4059 d4ba
00000170: b088 abbd f3ac cfbc 9eb2 50bd 33f5 04bd
00000180: aa5f 7cbd e274 b1bd 191a c83b b7d0 7f3d
00000190: 7174 b33d 63e0 653d 0782 4cbd 0703 c3bd
000001a0: 33c8 153d 8bc7 5c3d 7401 a9bd 3880 0d3d
000001b0: 4e33 a63d 9a7d b73b c9bf 6cbd d0c0 a03d
000001c0: 0cea 273d 4945 823d fa58 85bd 65ba 633d
000001d0: 4280 86bd 8aa9 c23d 61fd 26bd 972d 6d3d
000001e0: d7aa 9d3c a7f2 cb3c fe9c 70bc fefe 213d
000001f0: cbc5 23bd 65cf b9bd d609 17bd 2639 9a3d
00000200: 0411 d0bc 8d5e f73c 98f4 11bd 95d9 933d
00000210: 1053 6c3d d1be 0a3d d305 49bd af06 a1bd
00000220: 387e 633b 3d16 67bd 7bf0 a13d 77c2 bdbd
00000230: 3922 303d 0433 c43d 92d1 443d d5cb 053d
00000240: b33f bebd cb61 bc3d 3a53 86bc d634 b8bd
00000250: 091f c13d 9aaf 20bd 3f09 ecbb e407 b33d
00000260: 3549 89bd 3e42 8cbd c40e 773c 8eb8 59bc
00000270: 5ddb b23c 5087 a6bd 97f6 123b e14c 2fbd
00000280: ef71 44bd 221f b5bd 697b 4f3d 66b0 943c
00000290: cad2 a6bd e72d 9c3d c623 e73c 12d7 913c
000002a0: 8fba 68bd 0daf 653c 5ec7 bd3d 278c 863d
000002b0: 3993 99bd e09e b33d b540 f03b 0f8b 3c3d
000002c0: b97c 983d a39a a73d 29b6 99bd c10e ac3d
000002d0: 4ae2 86bd 4d35 dd3b ba8c 89bd 31de b3bc
000002e0: da23 a8bb 750a 45bc 1a86 7fbc c6af db3b
000002f0: 7b8f c03d d52f 633d 0262 5b3d 1113 1c3d
00000300: ad89 973d f3ff a8bb 3c35 ee3b 58f1 9e3c
00000310: 5e79 acbd 3536 a0bd 8cf7 383c bb80 1bbd
00000320: 2690 d7ba cac0 b7bc 52f9 6d3c 7cb0 7e3d
00000330: 4d80 03bd bf53 9c3d 9511 9b3d ff19 97bd
00000340: 4400 98bd 8e4a 9fbd 95b2 57bd 443d 19bd
00000350: be39 e9bb beee bfbc 08d3 46bd d1b5 f9bc
00000360: e584 0ebd 5f71 c13d 9725 12bd f007 8dbd
00000370: f220 243d 5021 b4bb b247 963d 4ca5 753d
00000380: 4e6c b43d 7d02 90bd ce0a 7d3d e097 a53d
00000390: 25c9 42bd e271 b53d bc93 933d f636 783a
000003a0: 182e 3e3d 9441 09bd 0ef6 abbd 8dc0 c53c
000003b0: 61b6 e93c 89a2 80bd 01e9 3a3d 686e a8bd
000003c0: 2156 a93d 147d be3d 87d9 d43c 9308 78bd
000003d0: 0021 3e3d 9a96 853c 5884 d53c 77fa ff3c
000003e0: fbcd 953d ca31 29bd 868d b2bc 5eb5 d63c
000003f0: 6302 2b3c 8585 9e3d 8690 4ebd b11d 7abb
-0.065586686 0.01794867 0.03973705 -0.019945106 -0.0085538095 0.04325025 -0.016244996 -0.08078264
0.07690343 -0.048404846 -0.010596734 0.009040875 -0.0057350527 -0.090378866 0.04415554 -0.043695956
-0.049907062 0.02303558 -0.05027606 -0.04449759 -0.032331306 -0.036108237 -0.040261474 -0.025975868
0.024985673 -0.07786816 -0.058180995 0.0012598891 0.013238277 0.053144198 -0.06760431 0.030731203
0.054716043 0.0533795 -0.08965319 -0.03662482 -0.0827534 -0.06098042 0.053554066 -0.014603827
0.040715937 -0.056529954 0.014460971 -0.058168493 0.047926586 -0.042272817 -0.024303174 -0.08350924
-9.904095e-05 0.09078436 0.046466984 -0.051562116 0.0010201529 -0.010744832 -0.07756497 0.07543914
0.0015421286 0.020096231 -0.039002243 -0.045175016 0.015839834 0.035479084 0.02159293 -0.046360176
0.09342747 -0.01419082 -0.059037436 -0.045099232 0.0946635 9.654731e-06 -0.0131660495 -0.040035054
-0.025387753 -0.08121798 -0.07656477 0.05605936 0.082066454 0.09167048 -0.069637835 0.05199633
-0.05973904 0.057283834 0.06925913 0.074375674 0.068989955 0.06008639 0.0016773345 0.044066258
-0.034551565 0.041773114 -0.030866247 -0.0016200915 -0.083756804 -0.025351023 -0.050951593 -0.032460403
-0.06161467 -0.08664872 0.0061066267 0.062454905 0.08762444 0.056122195 -0.04992869 -0.09522062
0.036567878 0.053901237 -0.0825223 0.034546107 0.08115254 0.0055996897 -0.057800088 0.07849276
0.04099469 0.06360871 -0.065111116 0.05559768 -0.06567432 0.09504993 -0.040768985 0.057904806
0.019246502 0.02489598 -0.014685867 0.03954982 -0.039983552 -0.090727605 -0.036874615 0.075304314
-0.025398739 0.030196453 -0.035633653 0.07219235 0.057696402 0.033873383 -0.04907782 -0.07862603
0.0034712683 -0.056417692 0.07907196 -0.09265607 0.043001387 0.09580043 0.048051424 0.032665092
-0.092894934 0.0919834 -0.016397107 -0.08994453 0.094297476 -0.039229967 -0.0072032507 0.087417394
-0.06703416 -0.06848572 0.015079204 -0.01328863 0.021833116 -0.081312776 0.002242481 -0.042797927
-0.047960218 -0.08843829 0.050654802 0.01815052 -0.081456736 0.07625943 0.0282153 0.017802749
-0.05681854 0.014018786 0.09266542 0.06569701 -0.074987836 0.087705374 0.0073319324 0.046031054
0.07445664 0.081837915 -0.075054474 0.084012516 -0.0658613 0.0067507387 -0.067162946 -0.021956535
-0.005131227 -0.012026419 -0.015595937 0.0067043034 0.09402367 0.055465538 0.053560264 0.03810412
0.073993064 -0.0051574646 0.0072695296 0.019402191 -0.084215865 -0.07822839 0.0112894885 -0.037964564
-0.0016446158 -0.022430796 0.014524775 0.062180027 -0.03210478 0.07633161 0.07571713 -0.07378005
-0.07421926 -0.07777892 -0.052660543 -0.037411943 -0.007117479 -0.02342927 -0.0485411 -0.030482205
-0.034794707 0.09445452 -0.03568038 -0.068862796 0.04007048 -0.005497135 0.073378935 0.059972093
0.0880972 -0.070317246 0.061777882 0.080856085 -0.047555108 0.08859612 0.072059125 0.0009468639
0.046430677 -0.033509806 -0.083965406 0.024139667 0.028529348 -0.06281001 0.045632366 -0.08224183
0.08268381 0.093012005 0.025982631 -0.060555052 0.04641819 0.016307164 0.026064083 0.03124736
0.07314678 -0.04130725 -0.021796 0.02620953 0.010437581 0.077403106 -0.050430797 -0.003816467

tpcnns.1.bias f4 [12]
00000000: 2ec0 b7bd baaf 19bb abf7 4f3c 08a2 67bd
00000010: d1c4 773d 242e 19bd 83ff 05bd f217 953d
00000020: 0b4f a43d 9d5b 57bc 37ae 96bd fbd7 44bd
-0.08972202 -0.0023450688 0.012693326 -0.05655101 0.060490433 -0.03739752 -0.032714378 0.07279958
0.08022889 -0.013144401 -0.073574476 -0.048057538

tpcnns.2.weight f4 [12, 12, 3, 3]
00000000: dd91 483c 4df6 673d daea 433d 163e 2ebd
00000010: d488 bbbd 1b82 acbd 780f fabc 0443 be3a
00000020: 56d1 30bd 2cbf 9bbd 141e 263c d84b 9cbd
00000030: 3b63 97bd 72b2 9fbd 7d33 d5bc aa0d ae3d
00000040: 09c0 193d 1eff 3abc efc5 a03c c5d6 1c3d
00000050: b774 423a edaa 9ebd 3b67 72bd abcf 85bd
00000060: d014 25bb 1c51 b4bd 5974 8fbc b361 10bd
00000070: 2c31 c13d 4b3f a03d 08e1 643d 38de b33b
00000080: d312 ffbc 5682 c83c 5432 88bd e390 27bd
00000090: 87c2 9dbc f134 b8bc 58ba babd 4bb3 1b3d
000000a0: 4530 a23d edc7 59bd 43fc d33c 2135 33bc
000000b0: df12 66bb 2570 b23b dbcd aa3d 9aeb 553c
000000c0: 852f 7abd bb4c 0fbd 3269 403d d799 f53c
000000d0: 2948 ff3a f3d6 4fbc 7985 19bd f106 0cbd
000000e0: 0db9 4fbd 4342 803c 4dc3 db3c 82b6 963d
000000f0: 2b89 b0bc 6872 e83b 6412 7f3d 6760 2b3d
00000100: 3f73 4a3c c73a f23c b6b3 a13b 0e4c a9bd
00000110: a019 6f3b ffa8 abbc 47b3 b13d 201d b23d
00000120: d0ab 9c3c 12d6 b03d 2f51 4abd 1224 ab3d
00000130: 748b a93d 66ca 71bb 9317 9ebd 1a2d fcbc
00000140: e2e3 d2bc 9bd5 d73a 79ef b2bd 39f0 923c
00000150: 0258 24bd a884 c8bc b6b4 4bbd 44f0 a5bc
00000160: cb11 b7bd 7ed9 50bd 9a97 143c e68c 813d
00000170: c148 b33d 2751 95bd e911 243d 3e94 5dbd
00000180: 5e69 98bd e0c6 87bb 2869 62bd 82b5 a9bd
00000190: 0f3b b8bd 72cb 83bd 75d2 a13d 286b 5b3d
000001a0: fbba 1bbd b3ca 83bd 2c75 97bd a5c5 68bd
000001b0: 38b4 22bd 23d4 6b3d ecc8 013d 6a03 19bd
000001c0: b95c 873d 64ee 74bd 5173 a0bd e596 a93c
000001d0: 821d 59bd 50d6 de3c f8c1 a63d 11b7 3abd
000001e0: 40c5 89bd 72fe 103d 8fde b1bd c1a3 af3d
000001f0: 3012 3abd 39dc 3d3d 4bb3 9cbd 1fc7 85bd
00000200: 78f7 2d3c dae4 0a3d 578b 983d d3d4 a43d
00000210: 9d6f b8bb 013c 4ebc 5604 833c 1c86 b6bc
00000220: d13e 553b b867 babd fde1 a1bd 1cb1 863d
00000230: d1d0 65bd 0309 9b3d 8696 2c3c 6342 c03c
00000240: 1833 b23d 4557 5dbd dd29 79bc 0f46 8a3c
00000250: 1ba1 033d f963 c0bd 01ad 093d 5db6 6abd
00000260: ca3d 483c 057f 843d 6f23 25bc 8208 56bb
00000270: ebeb f1bb c95d a33d 4d8e 5e3d bf32 833c
00000280: 3cde 6ebd 1b0d 57bd 3213 9c3d ecd8 8c3d
00000290: 61d5 633d fc36 9abd 3bd9 973d 9e84 1abc
000002a0: a683 903d 3cd0 a93d 3a6a 2b3c 8e4c 25bd
000002b0: 1638 b93d 0323 4ebd 1b40 803d e94e bdbd
000002c0: 4781 fabc 4a3d acbd cf57 31bd c390 263d
000002d0: f435 8ebd d287 abbd 7dfb 8c3d 0fa1 4e3d
000002e0: 50c4 e7ba 7401 8cbd eab0 d4bc 480e 03bd
000002f0: 359d 6f3d 1583 02bd c8f3 e3bc 4c1d 8cbd
00000300: d9be 3abd 2c72 533d 2dbe 7c3d 0485 603c
00000310: 4ec6 14bd 9027 bc3d 352c 963c 4092 19bd
00000320: 5fe5 08bd 1c9b 63bc dc99 383d 3986 0d3d
00000330: 8bf3 8d3d a03f abbb 2b47 a23d a82e 20bd
00000340: a8d7 34bd 9e7f 11bd b89b b8bd c719 81bd
00000350: 9516 b2bd fd4e bbbb 179d 8d3a 7bb3 cbbc
00000360: a66d 86bd cf0f b33d 74da 02bd 817e 3b3d
00000370: e05b 893d c487 81bd 9929 49bc 3d7e 633d
00000380: b494 be3d f2f5 42bc bfc0 8e3d 336e 9abd
00000390: 1f1a 80bd aacc a23d 647a 15bc eb3e c23d
000003a0: 1004 e13b edf4 22bd fb71 ba3d eba9 ab3d
000003b0: d5cd 103c b072 6fbd cc81 b1bb 4808 3ebd
000003c0: a8f3 8e3d 538a 8f3b ab4c a53c 052d 6e3d
000003d0: dd52 013d 24e2 75bd 13a2 a33d 8124 713d
000003e0: ccd1 73bd c143 953d 117b de3c e17f 9bbc
000003f0: 9438 8dbd ed1d 85bc fcd7 c0bd 60b3 5e3d
0.012241808 0.056631375 0.047831394 -0.04253968 -0.09156957 -0.08423253 -0.030524954 0.0014515822
-0.04316839 -0.076048225 0.010139007 -0.076316535 -0.073919736 -0.077977076 -0.026025528 0.084987
0.037536655 -0.011413364 0.019625632 0.038290758 0.00074179046 -0.07747445 -0.05918048 -0.0653375
-0.0025189407 -0.08804533 -0.017511534 -0.035249423 0.09433207 0.07824572 0.05587867 0.005489137
-0.031136906 0.024476212 -0.06650224 -0.04090966 -0.019257797 -0.022486182 -0.091175735 0.038012784
0.07919363 -0.05316918 0.025877124 -0.01093796 -0.0035106463 0.0054454976 0.08340045 0.01305666
-0.061080474 -0.034985285 0.046975322 0.029980583 0.0019476461 -0.012685525 -0.037480805 -0.034186307
-0.050713588 0.015656596 0.026826525 0.07359029 -0.021549782 0.0070937164 0.062273398 0.041839983
0.012356578 0.029569043 0.0049347533 -0.082664594 0.003648378 -0.020954607 0.086767726 0.086969614
0.019124895 0.08634581 -0.04939383 0.08356489 0.08278552 -0.003689432 -0.0771934 -0.030783225
-0.025743429 0.0016466858 -0.08737082 0.017936813 -0.040122993 -0.024477318 -0.049732886 -0.02025617
-0.089389406 -0.050988667 0.009069348 0.06325702 0.08754111 -0.07290869 0.040056143 -0.054096453
-0.07441972 -0.004143581 -0.055276066 -0.08286573 -0.089956395 -0.064352885 0.079014696 0.05356899
-0.038020115 -0.06435146 -0.07395396 -0.056829114 -0.03972265 0.057575356 0.031685755 -0.03735677
0.06609482 -0.05979766 -0.07834495 0.020701835 -0.053006656 0.027201802 0.08142465 -0.045584742
-0.067270756 0.035398908 -0.08685028 0.085761555 -0.0454275 0.0463526 -0.07651385 -0.0653212
0.010618083 0.033909656 0.07448452 0.080484055 -0.0056285397 -0.012587548 0.015993278 -0.022280745
0.0032538662 -0.09101814 -0.07904432 0.0657675 -0.056107346 0.07570078 0.010533934 0.023469156
0.087011516 -0.054038305 -0.015207735 0.01687911 0.032136064 -0.09394068 0.033612255 -0.05730282
0.012221763 0.064695396 -0.010079249 -0.003265888 -0.00738286 0.079768725 0.054334927 0.016015409
-0.058317408 -0.052502733 0.07620849 0.06877312 0.055623416 -0.07530019 0.0741448 -0.009431032
0.0705636 0.08291671 0.010462338 -0.04035621 0.09043901 -0.05032636 0.06262227 -0.092435665
-0.030579222 -0.084101275 -0.04329663 0.0406654 -0.069438845 -0.08375515 0.06883905 0.050446566
-0.0017682407 -0.06836215 -0.025963265 -0.03199604 0.058499534 -0.03186329 -0.027826205 -0.068415254
-0.045592163 0.051622555 0.061704803 0.013703588 -0.03632193 0.091872334 0.018331626 -0.03749299
-0.03342187 -0.013891961 0.045068607 0.034551833 0.06931218 -0.0052260906 0.079237305 -0.039106995
-0.04415098 -0.035522096 -0.09014076 -0.06303745 -0.086957134 -0.0057162032 0.0010804263 -0.024865856
-0.065638825 0.087432496 -0.031946614 0.04577494 0.06706977 -0.06324723 -0.012277984 0.055540312
0.093057066 -0.011899458 0.06970357 -0.0754055 -0.06254982 0.07949193 -0.0091234185 0.09484657
0.0068669394 -0.03978436 0.09103771 0.08382019 0.008838137 -0.058458984 -0.0054170843 -0.046394616
0.069800675 0.004380503 0.02017816 0.058148403 0.031573165 -0.060030118 0.079898976 0.058872703
-0.05952625 0.07288314 0.027158292 -0.018981876 -0.06895557 -0.016249621 -0.09416196 0.054370284

tpcnns.2.bias f4 [12]
00000000: 943c 223d 0292 bdbd afea c9bc 39a0 223d
00000010: 6947 1fbc f6c5 febc ab73 5abd 2e3f b53d
00000020: 5285 a1bd fccc 9dbd cd6c 873d 8f6b 6fbd
0.039608553 -0.092563644 -0.024648039 0.03970358 -0.009721615 -0.031100255 -0.053332966 0.08849941
-0.07886757 -0.07705113 0.06612549 -0.058452185

tpcnns.3.weight f4 [12, 12, 3, 3]
00000000: 9d07 6e3d fac8 58bd 7c25 56bc dc9f 3ebd
00000010: 37f1 a13d f187 883d 565a 993b 0902 283b
00000020: ae7c 14bd eb52 52bd 9427 15bd e46b 013d
00000030: 2be8 8dbc e435 863d b745 643c 0b73 883a
00000040: 7c04 75bd 53e7 1e3d 7cd3 b6bd 9394 b73c
00000050: cb88 0d3d a3d8 8e3c 8daa 8a3d ebcb bd3c
00000060: 727e dabc 22ce 89bd 31d0 b6bd d073 463d
00000070: 4a09 563d ed4b 96bd e8a4 d23c c587 10bd
00000080: ef26 a63d d6da 07bd 2928 a33d fb81 8b3d
00000090: 5e1e 5a3d 54cb 863d ceeb f53c b5cd 043d
000000a0: 899f a7bd 1efb b3bc a0bc 33bc d048 403d
000000b0: 39c3 18bd 7b08 343d 39bd 853d 1c4d 2a3d
000000c0: be32 4a3d 7515 55bc 0fc3 3c3d 5e5e 07bd
000000d0: d1bb aa3d 02a7 1dbb 124f b8bb ba70 adbd
000000e0: 0f4d b63d ef8a 5ebc 357e 923d a4f3 80bd
000000f0: 2d94 a4bd 9c6f 78bc ff3d 9dbd 50fd 973c
00000100: 4e1b b03a bb86 10bd 4c7d 763d 19c2 7e3d
00000110: b52d aebd 33c1 9dbd df5b 663d 8fef 6ebd
00000120: 81fd 973c a358 d0bc 84bf 8e3c 0eeb 59bd
00000130: fad4 073a dd4d 0bbd 5767 31bd 4532 40bd
00000140: 7219 b03c 4c7f 7f3d 4b10 24bb ce36 70ba
00000150: 6063 a23d 89f4 9e3d 8392 65bc 043b a1bd
00000160: a1b4 b83c 0de0 eb3c dab5 9bbd 9d81 b0bd
00000170: 2530 263c 7830 c03d dda9 b0bd 0184 40bd
00000180: 802e 08bd 6ad4 adbd 2cd3 72bd 9b9b 9a3d
00000190: b880 963d 1ff3 90bd 0deb 043b 8bac a0bd
000001a0: 56e6 233d 8eaf 86bd 92f2 48bd c5dc 36bd
000001b0: 5c6d 663c 5c62 833d be5a 24bd 3477 8f3c
000001c0: f9b4 9c3d 51b3 bdbb 65d5 213c 0626 e23b
000001d0: 60f8 a4ba 69e2 6b3d 0077 543d 7549 53bd
000001e0: 2fe7 bb3d 4f98 603d a090 76bc 7262 ab3d
000001f0: bd9a a73b f468 783d d999 a7bd 9e46 b03d
00000200: caa6 b93d c6c0 93bd bbce b0bd cba9 e5bc
00000210: 3bd5 72bd 1df5 cf3c f802 2f3d 1666 4abc
00000220: 724d 8a3d 3157 743b 73db e7bc 6057 a8bd
00000230: ddc9 fa3c c1c5 b9bd 6792 f1b9 c3e3 653c
00000240: fab3 5dbd 1c45 e93c e438 993c 3b8f 833d
00000250: 8037 743d 58bf 9fbd a4d9 92bd 2902 12bd
00000260: 2b36 8ebd 1663 f53c e8d4 81bd 50b3 96bd
00000270: 4ba8 e33c 7f3c 6c3d 0faa e6bc 8199 c4bd
00000280: 20d9 573c d873 493d b626 993d bf54 103c
00000290: 3eb7 883d 11da b0bd ee3c bb3d a0ac 7ebd
000002a0: 24e8 86bd 9d93 8c3d 5587 afbc ecf3 713d
000002b0: 5547 8abd 9298 943d 234e ba3d 7026 ec3c
000002c0: 1a21 9e3d 573e 8dbd 768e b0bc 2410 ee3c
000002d0: da10 5c3d fdfb 53bd fae6 7a3d 22b1 04bd
000002e0: fdfd 54bd e1ac 953c 2904 9ebd cf67 b6bd
000002f0: a085 ff3c c939 053d d57f 173d d3bb 50bc
00000300: ac77 90bd 29cb 9ebd d048 bc3d 2b0d abbd
00000310: a30d ed3c cc69 9f3d 977a 953d 1780 79bd
00000320: ad4c febc 3c3e 9ebd 66e0 743d 65bb b9bd
00000330: cb09 b6bd 7ab4 84bd 441d a03d 859e 7f3d
00000340: 6b2b 843d 5c1e 973d ac52 37bd 9174 5bbd
00000350: 0ddd 71bd b021 023d 60b1 193d e32c a43c
00000360: c086 97bd 529d 0d3c 14e4 50bd 5ea4 9abc
00000370: ee25 73bc 6fd8 a03b 0c04 adbd ef36 a83d
00000380: 07c2 27bd e894 f73c 309f 873d bf57 1f3d
00000390: cde7 893d 963b 5f3d 8254 903d 331b a63c
000003a0: cfc2 7b3d 241e 2bbd e7c1 54bd 83bd 3b3d
000003b0: 4d03 d03c a292 6bbb f356 a7bd 5a07 013d
000003c0: 2aef 7e3d 285d 37bc 4227 b53c 075e 2f3d
000003d0: 78da c2bd 69f4 81bc 7b48 12bd 89b9 49bd
000003e0: 09db 703d cd95 c33d f9f2 7a3c e231 753d
000003f0: 6909 92bd 35ee 8a3c 43ea 48bc 4b5d 73bd
0.05811273 -0.05292604 -0.01307046 -0.046539173 0.07907336 0.06666554 0.0046799583 0.0025635979
-0.036251716 -0.051348608 -0.036414698 0.031597033 -0.01732262 0.065532476 0.013932637 0.0010410262
-0.05981873 0.038794827 -0.08927056 0.022409713 0.034554284 0.017437285 0.06770811 0.023168525
-0.026671622 -0.0672877 -0.08926428 0.04845029 0.052254952 -0.073387004 0.025713399 -0.03528573
0.08112895 -0.033167683 0.07966644 0.06811901 0.053251617 0.065817505 0.030019667 0.03242274
-0.08184726 -0.021970328 -0.010970265 0.04694444 -0.037295554 0.0439534 0.06530232 0.041577443
0.049364798 -0.013005604 0.04608446 -0.03304898 0.083366044 -0.0024055843 -0.0056246603 -0.084687665
0.089014165 -0.013582929 0.07152978 -0.06296471 -0.08036075 -0.0151633285 -0.076778404 0.018553406
0.0013435872 -0.03528474 0.060178086 0.062196825 -0.08504812 -0.077028655 0.05623996 -0.05833393
0.018553497 -0.02543289 0.017425306 -0.05320268 0.0005181577 -0.034009803 -0.043311443 -0.04692294
0.021496508 0.06237726 -0.0025034125 -0.000916344 0.079291105 0.07761485 -0.014011982 -0.078725845
0.022547068 0.02879336 -0.07603045 -0.08618472 0.0101433145 0.09384245 -0.08626149 -0.04700089
-0.03324747 -0.084877804 -0.05928342 0.07549211 0.0734877 -0.07077622 0.0020281703 -0.0784541
0.040014587 -0.06576453 -0.049059458 -0.044644136 0.014064159 0.06415245 -0.0401256 0.017512895
0.07651705 -0.0057891984 0.009877537 0.0069015054 -0.0012586229 0.05758897 0.0518713 -0.051583726
0.09174954 0.054832753 -0.01504913 0.08368386 0.005114882 0.060646966 -0.08183641 0.08607219
0.090650156 -0.07214503 -0.08633181 -0.028035065 -0.059285384 0.025385434 0.04272744 -0.012353441
0.06753053 0.0037283415 -0.028302884 -0.082197905 0.030613834 -0.09070922 -0.0004607618 0.014031353
-0.054126717 0.028475337 0.018703885 0.064238034 0.05962324 -0.07800168 -0.07170418 -0.03564659
-0.069439255 0.029954474 -0.06339437 -0.0735842 0.02779021 0.05767488 -0.028157262 -0.09599591
0.013174325 0.049182743 0.07478087 0.008809268 0.06675576 -0.08635343 0.09142481 -0.062176347
-0.06587246 0.068640925 -0.021426836 0.059070513 -0.06751887 0.07255663 0.09096935 0.028826922
0.07721157 -0.06896656 -0.021552306 0.02906043 0.05372701 -0.051753987 0.061255433 -0.03239549
-0.052000035 0.018270912 -0.07715637 -0.08906519 0.031191647 0.03252581 0.036987145 -0.012740093
-0.070540756 -0.077535935 0.091935754 -0.08352121 0.028937167 0.07783851 0.07298773 -0.06091317
-0.031042421 -0.07726714 0.059784316 -0.09068946 -0.088885866 -0.06479736 0.07818082 0.062407035
0.06453594 0.073788375 -0.044756576 -0.053577963 -0.0590487 0.03177041 0.037522674 0.020040935
-0.073987484 0.008643465 -0.050998762 -0.018877205 -0.014840586 0.0049086134 -0.084480375 0.08213603
-0.040956523 0.030222371 0.066221595 0.03890204 0.067336656 0.054500185 0.070473686 0.020276641
0.06146508 -0.04177679 -0.051942732 0.04583503 0.025392199 -0.0035945554 -0.08170881 0.03150115
0.062239803 -0.011191644 0.022113446 0.04281428 -0.09514326 -0.015863614 -0.035713654 -0.049249206
0.05880264 0.095500566 0.015316718 0.059862025 -0.07130701 0.01695929 -0.012262884 -0.059415143

tpcnns.3.bias f4 [12]
00000000: 942d 033d 57c3 96bc 0c96 78bd dbdb 86bd
00000010: 6d04 9cbc 5cd6 e73c 6c1c 3f3d 1ab8 aebb
00000020: 02bc 9d3d 2db1 2bbd e2c4 7e3c adaa 46bd
0.03202589 -0.018403692 -0.06068997 -0.06584903 -0.01904508 0.028300457 0.046657965 -0.005332005
0.07701875 -0.041917015 0.01554987 -0.048502613

tpcnns.4.weight f4 [12, 12, 3, 3]
00000000: 4ad1 d33c 3831 a83d 081b 0a3d 4044 d33b
00000010: d90d 11bd 95af a1bd 2ddb 86bd 460b a9bd
00000020: d510 8c3d bb6c 24bd 87e4 6bbc 3f98 b0bd
00000030: 73cd dbbc b39e a73d b2ec 903c dac1 8cbc
00000040: 966d 4d3d 4dee 973d 3d5a 993d 83cf 91bd
00000050: 0962 e23b bcd3 a1bd b2df 87bd 7a53 973d
00000060: 3202 9dbd b84a 41bd 4e04 3d3d 27be bf3d
00000070: 976f bfbd 4f54 7ebd fc8d 1abd 37a9 983d
00000080: 30b1 653d 03b7 753d 4f8c 7c3d bb46 c5bc
00000090: 5a4e 913d ea34 31bb 671f 143c 6a0b d1bc
000000a0: 9232 273d d301 303d 761d 27bc cc7c ad3d
000000b0: 0c27 ccbc 2b85 c73c 60fd b23d 4410 5e3d
000000c0: 9c85 0fbd 7789 32bd 3222 983c d42c 3fba
000000d0: 70e9 dd3b b3e3 7d3d 4ec5 093d bc0c 5dbd
000000e0: 62e6 a0bd fa4f ba3d 0390 2dbc a746 1bbd
000000f0: 4abd 90bd b83d bd3d 58e2 463d a3db 79bd
00000100: ab33 aabd b032 ab3d 5ab1 293d 5994 67bc
00000110: fdc7 a3bd ace3 6e3d 45c6 85bd 31ae 413d
00000120: 082c bbbd 61b5 afbd 980d bdbd bea6 b23d
00000130: 8c15 b33d da27 a8bd 4d57 983d 3d91 6fbd
00000140: 8225 b7bd d7ae 3d3d fd6b 5f3d 8368 5f3d
00000150: 1957 8a3c e820 bd3d 28c4 a9bd fdd9 353d
00000160: e8ca f9bc f1b9 9b3b 82ea 873d 391f 8dbd
00000170: 4fb9 2c3d 2e73 9dbc b6ef 7e3d 4a99 25bb
00000180: e18b 433d 0516 bd3d 17ba 0cbd 3f1f c2bd
00000190: f4e3 b93d 05ff 58bd e324 b43c 1e21 753d
000001a0: 60d4 74bc 1e04 9a3d 316c 7f3d c1b3 9ebc
000001b0: 20ad ce3c 17f4 ee3b 52ca c03d c16f 883d
000001c0: 9041 83bd 55e7 173c f794 543d f2a8 963d
000001d0: 4092 063d d179 273d cb8a 91bc e9c7 083b
000001e0: 6d64 88bd 363c a23d 062e 9b3d c107 59bd
000001f0: 28b8 a8bd 01ac 993d 12aa aebd e7c4 7c3d
00000200: f4f3 bfbd 1181 49bd 34e0 26bd d434 b93d
00000210: 5c63 85bc 32fd a93d 0107 e53c bfea be3d
00000220: 3387 823d de22 913d 79d0 ab3d 9ee5 e8bc
00000230: 94bb d8bc 3cfd fd3c 379b ad3d be0b 11bd
00000240: 6904 9bbd cc28 9abd 7a17 36bd 0e90 7b3c
00000250: 7670 36bc 9137 d2bc 3442 38bd ab08 cd3c
00000260: 3b54 a2bd 7fe1 c13d 6c28 74bc 2c15 933c
00000270: 83d6 013d 065b 19bd 7686 9b3d ccf4 3aba
00000280: bb54 013c 179a bbbd f724 433c 2c3d 073d
00000290: 44b0 5b3c 403e 1cbc 31ce 943d b5cd 9b3d
000002a0: a6ac 873d 7fd0 88bc 9e2b 883c dd98 89bd
000002b0: ba88 93bd 2cc5 89bc fc37 303c 3b91 65bd
000002c0: 007e a4bd dd4c 333d 131a 103d 3934 82bd
000002d0: 0b23 833d 3e4d 93bd 2013 953d 2062 513d
000002e0: a134 05bd f19e bb3d 574c 5dbd e509 34bd
000002f0: 5c12 9d3d c61f cbbc 0d30 1fbd 9ff1 733c
00000300: 0733 85bc a74d 783d 86e4 a03d d151 2f3d
00000310: 957a aa3c 2e07 c63c 4b2f 243b 3025 393c
00000320: 857f ef3a 5561 863d c168 5c3d 0483 1ebc
00000330: 38d6 143d 5c62 ae3b 1548 0b3d 34cb a13d
00000340: b014 86bd cb0a 603c 63fe a3bc 5fa8 c0bd
00000350: 1b7f bfbd 8e6e 4ebc d70b 8d3d c3f1 81bd
00000360: a362 003d 5429 633d c0a3 8fbd b944 293d
00000370: 36c6 943c f569 b3bd a07e f2ba 8a02 b9bd
00000380: 404c ac3d a1b9 383d 0005 173d 7c4b 973d
00000390: 16b6 963d eda3 c33d 3a9d 223d 8d47 8ebd
000003a0: 720b b73d 99f8 da3c 7a5e 1bbd 2daf 12bd
000003b0: 8d67 b83d ee1b af3c 0e3d 8f3d bce8 f53b
000003c0: 080a b63d 9a33 90bd 4cdf bb3c d718 bc3c
000003d0: 5376 91ba b34e af3d 8b4b 9e3c 65ce aa3b
000003e0: 8281 863d d8ec f8bb 7eb9 cbbb ac79 a2bd
000003f0: 3a44 25ba 47f9 37bd e032 643d 0b70 ab3d
0.025856633 0.08212513 0.033717185 0.006447345 -0.035413597 -0.07894818 -0.06584773 -0.08254103
0.06839148 -0.040142756 -0.014397747 -0.08622789 -0.026831364 0.08184566 0.01769099 -0.01718228
0.050153337 0.07418499 0.07487915 -0.07119658 0.0069086594 -0.07901713 -0.06634463 0.07388969
-0.07666434 -0.047190398 0.046146683 0.093624406 -0.09347456 -0.06209212 -0.037733063 0.0745415
0.056077182 0.059988987 0.061657246 -0.024081578 0.070950225 -0.0027039596 0.00904069 -0.025518138
0.040819712 0.04297049 -0.010199895 0.08471069 -0.024920963 0.024355492 0.08739734 0.05421473
-0.03503953 -0.043588128 0.018570993 -0.00072927517 0.0067722127 0.06198473 0.03363543 -0.053967223
-0.07856442 0.090972856 -0.010593417 -0.037909176 -0.07067354 0.092402875 0.048555702 -0.061000478
-0.08310636 0.08359277 0.0414289 -0.01413449 -0.07997129 0.058322594 -0.065319575 0.047285262
-0.09139258 -0.08579517 -0.092311084 0.0872321 0.08744344 -0.08210726 0.07438526 -0.05848812
-0.08942701 0.04630932 0.054546345 0.05454303 0.016887235 0.09234792 -0.08289367 0.044397343
-0.030492261 0.0047523906 0.06636526 -0.06890721 0.04216891 -0.019219961 0.062240325 -0.002526837
0.04774082 0.092327155 -0.034357157 -0.09478616 0.09076682 -0.05297758 0.021990245 0.059846036
-0.014943212 0.075203165 0.06235904 -0.019372823 0.025229037 0.0072922814 0.094135895 0.0666194
-0.064089894 0.009271462 0.051899876 0.073564425 0.03285432 0.040887658 -0.017766377 0.002087111
-0.0665978 0.079216406 0.07577138 -0.05298591 -0.0823825 0.0750351 -0.08528532 0.06171122
-0.09372702 -0.049195353 -0.04074116 0.09043279 -0.01628273 0.08300246 0.027957441 0.09322118
0.063734435 0.070867285 0.083893724 -0.028429803 -0.026456632 0.03100454 0.084768705 -0.03541159
-0.075692005 -0.07527313 -0.044455983 0.0153541695 -0.011135211 -0.025661262 -0.04498501 0.025028547
-0.07926222 0.09466838 -0.014902215 0.017954431 0.031698715 -0.037440322 0.07594006 -0.00071318145
0.0078937365 -0.0916025 0.011910669 0.033017322 0.013408724 -0.009536326 0.072658904 0.07607595
0.06624727 -0.016700981 0.01662236 -0.067186095 -0.07203813 -0.016817652 0.010755535 -0.056046706
-0.08031845 0.043774474 0.035181116 -0.06357617 0.06403168 -0.07192467 0.072790384 0.05111897
-0.032520894 0.09161175 -0.05402788 -0.04395475 0.076695174 -0.024795424 -0.038864184 0.01488915
-0.016259683 0.06062093 0.078560874 0.042802636 0.020810405 0.024173345 0.0025052603 0.01130037
0.0018272257 0.06561533 0.05381084 -0.009674791 0.036337107 0.005321784 0.03400429 0.07900086
-0.065469146 0.013674448 -0.020018762 -0.09407114 -0.09350415 -0.0125996005 0.06887024 -0.063449405
0.031344067 0.055459335 -0.07013655 0.041325305 0.01816092 -0.08760444 -0.0018500872 -0.090336874
0.08412981 0.045098905 0.036870003 0.073874444 0.07358949 0.09552751 0.039700724 -0.06947241
0.0893773 0.026729869 -0.037931897 -0.035811592 0.09004126 0.021375623 0.06994067 0.0075045507
0.08888632 -0.07041092 0.022933625 0.022961063 -0.0011097885 0.085599326 0.019323131 0.0052125924
0.065676704 -0.0075965934 -0.0062171808 -0.07933363 -0.0006304417 -0.044915464 0.05571258 0.0837098

tpcnns.4.bias f4 [12]
00000000: 63f6 99bd 5980 dbb9 5ab1 54bd 8367 5fbd
00000010: 74c4 66bd e8cb 3ebd 9d66 6abd 848c 57bd
00000020: 9692 0fbd 4f10 b4bd 22be 9d3d 2f72 043d
-0.07517698 -0.00041866562 -0.051926948 -0.054542076 -0.056339696 -0.04658118 -0.057226766 -0.05262424
-0.035051905 -0.08792173 0.077022806 0.032335456

tpcnn_ouput.weight f4 [12, 12, 3, 3]
00000000: c0c8 c3bd 8c2f c5bd 16f0 45bd bdf9 173d
00000010: 131f b33d 4d50 79bc f6ba 6a3d 6217 54bd
00000020: dcdf a0bc 4546 74bc 9337 c0bd 9476 073a
00000030: 3fe6 d13c 31bc 703d 334f 98bd 3023 ebbc
00000040: 4c60 713b ac37 273c fcc8 823c 187f 92bd
00000050: 80e3 983d d37d b1bd 5638 07bd 960f 453d
00000060: 5bc0 c2bc 25f2 3cbd ee88 c1bd 3474 873d
00000070: ce25 0bbb 7a64 3e3d 1e49 793c ccfa 91bd
00000080: 2ffa 09bd 9d97 8c3d 51cc 3fbd b00c 35bd
00000090: 65f9 573d 51f5 2abd 1c3b 7d3c 0713 3fbd
000000a0: 7dd2 f13c d9df 203c 7a9a 9bbd edd9 94bd
000000b0: 766f 113d df69 01bd ee9e 573d c6da 9e3b
000000c0: 444c 06bd 08e8 89bc 946c 33bd 39ea 433d
000000d0: caf5 9c3d 802a 18bb 5279 7dbd 3477 8c3d
000000e0: fe59 9f3d 4c71 853d 5a49 ebba 9a1f bf3c
000000f0: ae21 b83b f1a2 12bd 56a1 c1bd 9043 3cbc
00000100: 52d7 293d f492 653d e083 b93c f7d3 323d
00000110: 86a3 753d 7fcc 97bc 9c01 813d 45f3 f1ba
00000120: 58bd 0abd 7572 19bd 71bb 64bd 7964 96bd
00000130: 77ee b33c b207 b53d 1c74 643c 828e 5a3c
00000140: f9c8 11bd 5798 1bbd da9b f7bc 14a4 083d
00000150: 5be7 863c 8368 0fbd b22c 9a3c 1ce4 85bc
00000160: 0317 cfbb 4a43 8b3d b1fa 22bd aa42 b73d
00000170: 2d26 57bd 674b b63d f645 133d 6855 1d3d
00000180: 8502 b3bc e08f d2bc 6d62 8ebd 22e1 bcbd
00000190: 50c9 893d 8914 bf3d 98eb e13c e349 18bd
000001a0: 1859 ad3c 1a91 6dbb 4c51 aabd 2219 9ebd
000001b0: 6c1a 093d 4d51 e5bc 36cc b9bc 1b6e 6cbd
000001c0: dda1 2d3d 123f 45bd b690 f9bc 9b35 533d
000001d0: fe8a bd3d a3ce af3d 51b9 1a3d 7603 4f3b
000001e0: b2d2 933d e76e ad3d 1c27 313d 9a12 e93c
000001f0: e0e4 bc3c 196c 1f3c 35b5 823d 2ddf e03c
00000200: c085 a5bd 9435 66bd 1741 b2bd bde0 ebbc
00000210: 2eb5 a83b 2e29 25bd 5182 b4bd 02c0 7ebd
00000220: 506a 283d aca9 dcbb 54b9 82bc 0082 813c
00000230: d446 a5bc 41f0 55bd c5a8 33bd 1937 20bd
00000240: 0fe1 b6bd 2232 b4bd ab57 14bd bd3c 143d
00000250: 7970 c03d eb8e 1fbb 2853 873d 483e 033d
00000260: 12cc 9cbd 008e 41bd 1ce9 ccbc b51a a0bd
00000270: 9e95 6d3c dd83 c13c bf7b 98bd d937 9fbc
00000280: 2369 abbd d9a0 c43d 35d4 6a3d 5305 13bd
00000290: f746 a93d d8c5 73bd ecfe a53d 126e 18bd
000002a0: b097 eb3c 4b30 883d 893d 373d b4f3 bf3c
000002b0: c99a 31bc 46d3 693a 02c3 a73d 10d3 00bd
000002c0: 707e fdbc ecb8 4a3c a4d5 3ebd e324 15bd
000002d0: e012 0a3c 025b 943d a9ab 013d b0fc 6ebd
000002e0: 2c7b 6e3d 3472 0fbd 44ff cf3c f4c0 c23b
000002f0: dec8 8c3d 6612 aebc 286c 1dbd 80fe 99bc
00000300: f020 a63a a246 38bd 6186 873d 15b8 51bd
00000310: 8391 7b3c 598e 96bd ef63 35bc 8f69 a2bc
00000320: 5b7e 1cbd 5a1b 513d 2089 aebd 97c8 293c
00000330: 7a84 04bc d887 4abd b0f1 983d fada 773d
00000340: cbbc ef3c 1903 e73a 9260 5a3d c6b5 2cbd
00000350: e01c a0bd d01d bd3d eaae 13bd c878 9e3c
00000360: f79d ea3a 24b4 a43d 23c4 c23d 7c65 84bd
00000370: e11b fdba fb7f a0bd 642e 7c3d 7b3f ba3d
00000380: 6590 19bd 197f 8c3c c536 b2bc 0b30 bfbc
00000390: 38eb 9b3d c574 b8bd 6277 62bc f38a e0b9
000003a0: feea adbd dd0b 213d 1597 823d c808 9dbd
000003b0: 9c74 143d 28e7 dfbb 723e b63d 514a bbbd
000003c0: f687 a53d 9e1d 16bd a3f0 a33d 05a3 49bd
000003d0: 00e5 813c 7b65 b63c cee1 713d 4e63 353d
000003e0: c469 593d 5720 a9bc d8f3 9cbd 45b9 2c3a
000003f0: d717 b23d a45b a73d 85d4 6bbd 044c 863d
-0.095597744 -0.096282095 -0.048324667 0.037103403 0.08746161 -0.015216899 0.057307206 -0.051780112
-0.019637994 -0.014909332 -0.093856 0.0005167511 0.025622485 0.058773223 -0.07436981 -0.028703302
0.003683108 0.010206144 0.015964977 -0.071531475 0.07465267 -0.08666577 -0.03301271 0.048110567
-0.023773363 -0.046129365 -0.094499454 0.06613961 -0.002123225 0.04648254 0.015215186 -0.07127914
-0.03368586 0.068648554 -0.04682571 -0.044201553 0.052728076 -0.04173786 0.015455987 -0.046649005
0.029519314 0.009818994 -0.075978234 -0.072681285 0.035506688 -0.031595107 0.0526418 0.004847857
-0.032787576 -0.016834274 -0.04380472 0.047830794 0.07664068 -0.0023218691 -0.06188328 0.06858674
0.077808365 0.0651575 -0.0017950938 0.023330498 0.0056192493 -0.035799924 -0.094546005 -0.0114907175
0.04146511 0.05604835 0.02264589 0.043659177 0.0599704 -0.018530129 0.06299135 -0.0018459341
-0.03387198 -0.03746267 -0.05584282 -0.073433824 0.021964295 0.088393584 0.013943698 0.013339641
-0.035592053 -0.03798708 -0.030225683 0.033359602 0.01646774 -0.03501178 0.01882014 -0.016344123
-0.006319882 0.06799944 -0.03978986 0.08948262 -0.05252664 0.089011006 0.03595539 0.038411528
-0.021851787 -0.02570337 -0.06952367 -0.09222628 0.067278504 0.09330089 0.02757816 -0.03717984
0.021160647 -0.0036249817 -0.083162874 -0.077196375 0.033472463 -0.027992869 -0.022680383 -0.057722192
0.042390693 -0.04815585 -0.030464511 0.051564794 0.09255026 0.08584335 0.037774388 0.0031587756
0.07217921 0.084684186 0.04325019 0.028451253 0.023058355 0.009730362 0.06382219 0.027450169
-0.080821514 -0.05620344 -0.08703821 -0.028793687 0.0051485514 -0.040322475 -0.088139184 -0.06219483
0.041117013 -0.0067340937 -0.015957512 0.01580906 -0.020175375 -0.052231077 -0.043862123 -0.039115045
-0.08929645 -0.087986246 -0.03621642 0.036190737 0.093964525 -0.002434666 0.06607658 0.032041818
-0.07656111 -0.047254562 -0.025013499 -0.07817594 0.014501004 0.023622448 -0.07445478 -0.01943581
-0.083696626 0.09600992 0.057331283 -0.03589375 0.082654886 -0.05951485 0.08105263 -0.037214346
0.028758854 0.06649836 0.04473642 0.023431636 -0.010840126 0.0008919727 0.08191492 -0.031451285
-0.03094408 0.01237319 -0.046590462 -0.03641213 0.008427352 0.07243921 0.03165785 -0.05834645
0.058222935 -0.035021022 0.025390275 0.005943412 0.0687425 -0.021249007 -0.038433224 -0.018798113
0.0012674611 -0.044989236 0.066174276 -0.051200945 0.015354517 -0.073513694 -0.011071189 -0.019825725
-0.03820644 0.051051475 -0.08522248 0.010362766 -0.0080882255 -0.049445957 0.07467973 0.060511567
0.029264828 0.0017624825 0.053314753 -0.04216554 -0.078180075 0.09234202 -0.036055483 0.019344702
0.001789986 0.080421716 0.09510066 -0.06464669 -0.0019310677 -0.0783691 0.06156768 0.09094139
-0.03749122 0.017150449 -0.021754632 -0.023338338 0.07613224 -0.09006647 -0.013822408 -0.00042828135
-0.08492087 0.039317954 0.06376473 -0.076676905 0.03624402 -0.006832976 0.08898629 -0.09145034
0.08082573 -0.03664934 0.08004882 -0.049227733 0.015856266 0.022265187 0.059053235 0.044284157
0.05307938 -0.020645304 -0.07663697 0.00065888866 0.08695953 0.08171776 -0.05757572 0.065574676

tpcnn_ouput.bias f4 [12]
00000000: 174c 7b3c 4db4 793c f616 b1bd 8387 a73d
00000010: 84ed 173d bf0f 0c3c 9dfe 153d 691c 30bc
00000020: d956 6fbd 5689 c1bc ba5b aabd 30e3 9e3d
0.015337965 0.015240741 -0.086469576 0.08180144 0.037091747 0.008548676 0.03661977 -0.010748961
-0.058432434 -0.023625057 -0.08318277 0.07758176
