checkpoint/tag/val_best.pth (torch, 43033 bytes, 30 tensors)

st_gcns.0.gcn.conv.weight f4 [5, 2, 1, 1]
0	0x3f032187	0.51223034
1	0xbdb7be85	-0.089718856
2	0xbeb90d0b	-0.36142763
3	0xbf0a0dd2	-0.5392734
4	0x3f31368c	0.69223857
5	0x3f0a47f5	0.5401605
6	0x3e92da13	0.28682002
7	0xbea1f0e2	-0.31629092
8	0xbd8f544c	-0.069985
9	0x3f120238	0.57034636

st_gcns.0.gcn.conv.bias f4 [5]
0	0x3f26e703	0.65196246
1	0x3e34b8c2	0.17648605
2	0x3f082f7b	0.5319745
3	0xbf284119	-0.6572433
4	0xbf2cca3d	-0.6749609

st_gcns.0.tcn.0.weight f4 [5]
0	0x3f80b5e8	1.0055513
1	0x3f818bd8	1.0120802
2	0x3f7b3ad1	0.9813662
3	0x3f7ef339	0.9958988
4	0x3f808d29	1.0043079

st_gcns.0.tcn.0.bias f4 [5]
0	0x3ac457c0	0.0014979765
1	0x3ca44735	0.020053485
2	0x3c9ca412	0.019121204
3	0x3d43efe5	0.047836203
4	0x3c6aca46	0.014330452

st_gcns.0.tcn.0.running_mean f4 [5]
0	0x3d4613e9	0.04835883
1	0x3c64fcdb	0.013976301
2	0x3d1d492f	0.03839987
3	0xbd44b690	-0.048025668
4	0xbd507ce6	-0.050900362

st_gcns.0.tcn.0.running_var f4 [5]
0	0x3c9aa84a	0.018879075
1	0x3ba1db52	0.004939475
2	0x3c9c5657	0.019084139
3	0x3c8f0830	0.017459959
4	0x3c8a656f	0.01689407

st_gcns.0.tcn.2.weight f4 [5, 5, 3, 1]
0	0xbd3fca6f	-0.046823915
1	0x3d2c44c1	0.042057756
2	0xbd1d4b7d	-0.03840207
3	0x3c293bd7	0.010329208
4	0x3e8a9fb0	0.27074957
5	0xbe1f1ca9	-0.15538277
6	0x3e25efa7	0.16204701
7	0xbd9b8e75	-0.07595531
8	0x3df819e8	0.12114316
9	0x3d6dd101	0.05806065
10	0xbc64f349	-0.013974019
11	0xbd960d3a	-0.073267415
12	0xbe2cc0c9	-0.16870417
13	0xbde8ce25	-0.11367444
14	0x3cadac85	0.021200428
15	0xbda3b04b	-0.079926096
16	0xbe242267	-0.16028748
17	0xbe56a08d	-0.20959683
18	0xbda66d2c	-0.08126292
19	0xbcccf1c6	-0.02501763
20	0xbe5f2d60	-0.21794653
21	0xbcfae18f	-0.030625133
22	0xbe20ddb7	-0.15709578
23	0xbde51784	-0.11186126
24	0xbcd75d95	-0.02628974
25	0xbd48c2a8	-0.049013764
26	0xbe671942	-0.22568229
27	0x3d024ead	0.031813312
28	0xbdb80e95	-0.08987156
29	0xbd9a72a7	-0.075413994
30	0x3dfdbb5c	0.123892516
31	0x3de56749	0.11201341
32	0xbce7bd29	-0.02828844
33	0xbe01878f	-0.12649368
34	0xbe996155	-0.2995707
35	0xbd06a6f2	-0.032874055
36	0xbe103a26	-0.14084682
37	0xbd675d62	-0.05648554
38	0xbd90eec8	-0.07076794
39	0x3dfb8bae	0.12282501
40	0x38d5ca63	0.00010194329
41	0xbe5b30a3	-0.21405272
42	0xbadb58e3	-0.0016734864
43	0x3d0a4a26	0.03376212
44	0x3dc00d1d	0.09377501
45	0x3e5307d7	0.2060846
46	0xbe0f3ec7	-0.13988791
47	0xbc590d3f	-0.013247787
48	0x3c87deea	0.016585786
49	0x3e10f4f9	0.1415595
50	0xbe14923b	-0.14508907
51	0x3da47218	0.08029574
52	0x3e76cbb2	0.24101141
53	0x3e3eebe7	0.18644677
54	0xbe73916d	-0.23785944
55	0x3e30de55	0.17272313
56	0xbd9db095	-0.07699696
57	0x3d31a4ea	0.043370165
58	0x3e8ff23a	0.28114492
59	0x3e4b3ccd	0.19847412
60	0xbd2f4464	-0.04278983
61	0xbe51d38f	-0.2049086
62	0x3d343025	0.043991227
63	0xbe40f54e	-0.18843576
64	0x3e5fd1b1	0.21857335
65	0xbbe1c74b	-0.0068902127
66	0xbc0345a9	-0.008012214
67	0x3d72ff79	0.05932567
68	0xbe89a2ca	-0.2688201
69	0xbe5c8376	-0.21534523
70	0x3d6b3f73	0.057433557
71	0xbe37819e	-0.17920539
72	0x3e33080a	0.17483535
73	0x3c3a6862	0.011377426
74	0x3d3ebc14	0.046566084

st_gcns.0.tcn.2.bias f4 [5]
0	0xbe808364	-0.25100243
1	0xbe4106e9	-0.18850292
2	0xbda0b165	-0.07846335
3	0x3ddd0759	0.10792417
4	0xbdec0f44	-0.11526349

st_gcns.0.tcn.3.weight f4 [5]
0	0x3f6bf36e	0.9216832
1	0x3f7c9031	0.9865752
2	0x3f75e4fb	0.9605252
3	0x3f68dcc2	0.9096185
4	0x3f73e35b	0.9526879

st_gcns.0.tcn.3.bias f4 [5]
0	0xbc07c9cf	-0.008287861
1	0x3998bd6d	0.00029132832
2	0xbcdab56a	-0.026697833
3	0x3b4b85be	0.0031055058
4	0xbb46e0b0	-0.0030346327

st_gcns.0.tcn.3.running_mean f4 [5]
0	0xbe82bd49	-0.25535038
1	0xbf2172df	-0.63065904
2	0xbe5bcec5	-0.21465595
3	0x3ec4493f	0.38337132
4	0xbe82b869	-0.2553132

st_gcns.0.tcn.3.running_var f4 [5]
0	0x3dbeef99	0.093230434
1	0x3e198a46	0.14994153
2	0x3dc2c6ce	0.09510575
3	0x3de145e3	0.10999658
4	0x3de83db5	0.11339895

st_gcns.0.residual.0.weight f4 [5, 2, 1, 1]
0	0x3e9466e8	0.2898476
1	0x3f15b3c2	0.58477414
2	0x3ef2a007	0.47387716
3	0x3f05a55b	0.5220544
4	0x3e0b1be5	0.1358486
5	0xbf0e9fbc	-0.55712485
6	0xbe460a2d	-0.19339819
7	0xbcf13588	-0.029444471
8	0x3d560b3e	0.052256815
9	0xbd56e52d	-0.052464653

st_gcns.0.residual.0.bias f4 [5]
0	0x3f126435	0.57184154
1	0xbe89fa4d	-0.26948777
2	0xbd850059	-0.06494207
3	0x3e4e4ff4	0.20147687
4	0x3efebf94	0.49755538

st_gcns.0.residual.1.weight f4 [5]
0	0x3f777573	0.9666359
1	0x3f7c84d8	0.98640203
2	0x3f6d54bc	0.9270742
3	0x3f836407	1.0264901
4	0x3f7d8aa9	0.99039704

st_gcns.0.residual.1.bias f4 [5]
0	0xbc07c9d1	-0.008287863
1	0x3998bd8d	0.00029132926
2	0xbcdab56b	-0.026697835
3	0x3b4b85cb	0.0031055089
4	0xbb46e0b2	-0.0030346331

st_gcns.0.residual.1.running_mean f4 [5]
0	0x3f0e15a8	0.55501795
1	0xbe97495d	-0.2954816
2	0xbd8f1f4f	-0.069883935
3	0x3e5885fd	0.21144862
4	0x3efd7b37	0.49508068

st_gcns.0.residual.1.running_var f4 [5]
0	0x3bdc7f4e	0.006729043
1	0x3c642c13	0.013926524
2	0x3b9295b3	0.004473412
3	0x3b10f82c	0.0022120578
4	0x395b9b9f	0.00020943441

tpcnns.0.weight f4 [12, 8, 3, 3]
0	0xbd2cd244	-0.042192712
1	0xbda3fa71	-0.08006752
2	0xbcfb8a1c	-0.030705504
3	0xbdcdcc9a	-0.1004879
4	0xbd554b41	-0.05207372
5	0xbdaf7df3	-0.08568945
6	0x3ca07017	0.019584699
7	0x3d0dafc4	0.03459145
8	0xbc5955bc	-0.01326507
9	0x3ba253dd	0.004953845
10	0x3dbcbb50	0.092154145
11	0x3d99e50a	0.07514389
12	0x3b93a50f	0.0045057605
13	0x3da72203	0.08160784
14	0x3d0a911a	0.033829786
15	0x3d7941a3	0.06085361
16	0x3db213da	0.08695193
17	0x3d866517	0.0656225
18	0x3b7c39fb	0.0038486707
19	0x3ca32d71	0.01991913
20	0x3dbb915a	0.09158583
21	0xbd6af151	-0.057359044
22	0xbd0cd5bf	-0.03438353
23	0x3c6376f0	0.013883337
24	0x3d6d10ee	0.057877474
25	0x3deb7bd1	0.114982255
26	0xbba3b1c2	-0.0049955556
27	0x3c7c8dff	0.015414714
28	0x3ddb2677	0.10700696
29	0xbd9b6ee7	-0.07589512
30	0x3da3f39a	0.08005448
31	0xbd4b7c92	-0.049679346
32	0xbdb78d8b	-0.08962544
33	0x3ceecda3	0.02915079
34	0x3d945bc7	0.07244068
35	0x3c010991	0.007875816
36	0xbd9b619f	-0.07586979
37	0x3dc2739d	0.09494708
38	0xbdad0c12	-0.08449568
39	0xbdcb33a3	-0.09921958
40	0x3c93918f	0.018013744
41	0x3d8cb893	0.06871142
42	0x3d2bb10f	0.041916903
43	0x3b0b0529	0.0021212792
44	0xbd6d1abe	-0.05788683
45	0xbbebcf71	-0.00719636
46	0xbddb6ec0	-0.10714483
47	0x3cb7813b	0.02240049
48	0x3cb490ad	0.022041643
49	0x3d0e1e5d	0.034696925
50	0xbd7ee6ff	-0.062232014
51	0x3d34d418	0.04414758
52	0x3d204965	0.039132494
53	0x3d446768	0.04795018
54	0xbc204c8a	-0.009783873
55	0x3d34985e	0.04409062
56	0x3c56d159	0.013111436
57	0x3ccd846e	0.025087561
58	0xbd1ec1a5	-0.038758893
59	0xbdbfeaf7	-0.09370988
60	0xbb226066	-0.0024776696
61	0xbdcab371	-0.09897507
62	0xbdb8e036	-0.0902714
63	0xbdcc70fd	-0.09982488
64	0x3c241da4	0.0100168325
65	0xbc9d105e	-0.019172844
66	0xbcf84d97	-0.030310435
67	0x3d0821aa	0.03323523
68	0xbdb180eb	-0.08667167
69	0x3d8a8b5a	0.067648605
70	0xbd0bb0a2	-0.034103997
71	0x3d99b243	0.07504704
72	0xbb40ee38	-0.0029438864
73	0x3d29e7c0	0.04148078
74	0xbde834a6	-0.11338167
75	0xbddb2fef	-0.10702502
76	0xbd9e1a7b	-0.077198945
77	0x3d47affd	0.04875182
78	0xbd096481	-0.033543114
79	0xbd39eb32	-0.045390315
80	0xbd732952	-0.059365578
81	0x3dfa907b	0.12234589
82	0x3dea3517	0.11435907
83	0x3cb4ca4c	0.022069119
84	0xbd8a810b	-0.06762894
85	0xbd8684f3	-0.06568327
86	0xbd3389ee	-0.043832712
87	0xbde825ae	-0.11335312
88	0xbdafd30e	-0.08585177
89	0xbddd9df1	-0.108211406
90	0x3d4fd1b4	0.050737098
91	0xbdba76e3	-0.09104707
92	0xbd8103ff	-0.0629959
93	0xbd620a9a	-0.05518589
94	0xbc7026f3	-0.014657724
95	0x3d0d1990	0.034448206
96	0x3dd48b63	0.103781484
97	0xbcad5653	-0.021159327
98	0xbc847005	-0.016166696
99	0xbd417339	-0.047229026
100	0xbd42d869	-0.047569666
101	0xbd48848c	-0.04895453
102	0x3b61b190	0.003443811
103	0x3d804eb6	0.06265013
104	0x3d8069b9	0.06270165
105	0xbd36acd3	-0.04459841
106	0xbd78f5f1	-0.060781423
107	0x3b6a577e	0.0035757716
108	0x3dcb4ab8	0.09926361
109	0x3d823903	0.0635853
110	0x3d901239	0.07034726
111	0xbda848a2	-0.082169786
112	0xbd677b2e	-0.056513958
113	0xbc877345	-0.016534457
114	0x3d4db207	0.05021861
115	0xbd2d1561	-0.042256717
116	0x3d371c9e	0.044705026
117	0x3dd40cbc	0.103539914
118	0xbd04ac48	-0.032390863
119	0xbdc482a5	-0.09595231
120	0xbd842fc5	-0.06454424
121	0xbdc6d8ac	-0.09709296
122	0xbd0015cf	-0.0312708
123	0xbc1358c7	-0.008993334
124	0x3d7b3d50	0.06133777
125	0x3d891a9e	0.0669453
126	0xbcab8ea0	-0.020942032
127	0xbc6b148d	-0.014348161
128	0x3d9d6951	0.07686103
129	0x3dbc4a25	0.091938294
130	0xbcdc7d60	-0.026915252
131	0xbdb832c4	-0.08994058
132	0xbd8b123a	-0.06790586
133	0xbd8e5e31	-0.06951559
134	0xbde34aa5	-0.11098222
135	0x3da6c3c2	0.081428066
136	0xba8fa1af	-0.001095822
137	0x3ce193e8	0.027536348
138	0xbca2d501	-0.019876959
139	0x3d93c9ea	0.072162464
140	0xbd8ea420	-0.06964898
141	0xbdb09484	-0.08622077
142	0x3d4a5bdd	0.049404014
143	0x3ccd52be	0.025063869
144	0xbcd35761	-0.025798501
145	0x3d155dc6	0.036466382
146	0xbd1ee315	-0.03879078
147	0x3d5adf3e	0.053435557
148	0xb9ef8032	-0.00045681145
149	0x3d99b4f2	0.07505216
150	0x3d5778a0	0.05260527
151	0x3d66f166	0.05638256
152	0xbcd9d814	-0.026592292
153	0xbdb9dd45	-0.09075407
154	0x3d90daab	0.070729576
155	0xbcf34c00	-0.029699326
156	0x3d0c5516	0.03426083
157	0x3c469d81	0.012122513
158	0xbdf21a0b	-0.118213736
159	0xbd7e16ba	-0.062033392
160	0x3c812dd4	0.015768923
161	0xbcfcaffb	-0.030845633
162	0x3ddbfaf5	0.10741226
163	0xbd47d631	-0.048788253
164	0xbcd2988c	-0.025707506
165	0xbd785900	-0.060631752
166	0xbd2b0d24	-0.04176058
167	0x3d38b7cb	0.045097154
168	0xbdbb99cb	-0.09160193
169	0x3e01c4bb	0.12672703
170	0x3d4f6037	0.050628867
171	0xbd1e199d	-0.038598645
172	0x3cfdb0e8	0.030968145
173	0xbcfa7bd3	-0.030576622
174	0x3bb39820	0.005480781
175	0x3c9b3541	0.018946292
176	0x3d591152	0.052995034
177	0xbdcb81c2	-0.09936859
178	0x3d8355d4	0.06412855
179	0x3d5606b9	0.052252505
180	0x3d88892f	0.06666791
181	0xba02ff84	-0.0004997181
182	0xbd21dee6	-0.039519213
183	0xbd7dd90a	-0.061974563
184	0x3dbe6791	0.092970975
185	0x3d467531	0.048451606
186	0x3d16b644	0.036794916
187	0x3e06c076	0.13159356
188	0xbd01e86c	-0.031715795
189	0xbcccdec8	-0.025008574
190	0xbced8b78	-0.028997168
191	0x3cc6af54	0.024253525
192	0xbd119a80	-0.035547733
193	0xbe05468f	-0.13015197
194	0xbda9e6d1	-0.08295978
195	0x3c7d31b3	0.015453744
196	0x3d606f90	0.054793894
197	0x3d348401	0.0440712
198	0xbba85260	-0.005136773
199	0xbc3fcbe1	-0.011706323
200	0x3b97f0f8	0.00463688
201	0xbd10c129	-0.035340462
202	0x3d857440	0.065163136
203	0xbd491b5b	-0.049098354
204	0x3dac202d	0.084045745
205	0xbd7dfb25	-0.06200709
206	0x3d2581f3	0.040407132
207	0x3d67d635	0.056600768
208	0x3ddb0cfd	0.10695837
209	0xbde04620	-0.10950875
210	0xbca2775b	-0.019832304
211	0xbc386587	-0.011254675
212	0xbd94dabf	-0.07268285
213	0x3d9c157f	0.076212876
214	0xbc00807a	-0.007843131
215	0x3d6f68b4	0.058449462
216	0xbcdb21c7	-0.026749505
217	0xbd20656d	-0.039159227
218	0xbc14eaeb	-0.009089212
219	0xbbe2c4d7	-0.006920438
220	0x3d02075e	0.031745307
221	0xbce77718	-0.02825503
222	0x3de2253b	0.110422574
223	0xbdd51301	-0.10404015
224	0xbdf0c525	-0.11756352
225	0xbda6c339	-0.081427045
226	0xbbc63554	-0.0060488377
227	0x3c006cb2	0.007838415
228	0x3de6d3ad	0.11270843
229	0xbdcea2ab	-0.1008962
230	0xbd8785b8	-0.06617302
231	0x3c200fb3	0.009769368
232	0x3cfe988d	0.031078601
233	0xbd2496ff	-0.040183064
234	0x3d837b0a	0.06419952
235	0x3dc68d0e	0.09694873
236	0xbdccc1f7	-0.09997933
237	0xbda743b4	-0.0816721
238	0x3dbfcd08	0.093652785
239	0xbe052050	-0.13000607
240	0x3c14bd01	0.009078265
241	0xbdb21943	-0.086962245
242	0xbd652472	-0.05594296
243	0x3d09fa2e	0.033685856
244	0xbd17646e	-0.03696101
245	0xbd53b107	-0.0516825
246	0x3c85b1f5	0.016320208
247	0xbd7aa561	-0.061192874
248	0x3ddcff03	0.10790827
249	0x3cbd8c78	0.02313827
250	0x3d0f4f19	0.034987543
251	0x3d733b9a	0.059383012
252	0xbcd67802	-0.026180271
253	0xbd6580bc	-0.056030974
254	0xbd129eee	-0.0357961
255	0xbc891ba6	-0.016736817

tpcnns.0.bias f4 [12]
0	0x3e167c3f	0.14695834
1	0x3acf9ecd	0.0015840173
2	0x3d3b86d6	0.045782886
3	0xbe1144be	-0.1418638
4	0xbcb7b424	-0.022424765
5	0xbd5ba9e7	-0.05362883
6	0x3b8374d1	0.0040117283
7	0xbd8b682c	-0.068069786
8	0x3e230407	0.15919505
9	0x3e8dd659	0.27702597
10	0xbe0a218c	-0.1348936
11	0x3e231c52	0.15928772

tpcnns.1.weight f4 [12, 12, 3, 3]
0	0xbccd5756	-0.02506606
1	0x3d0b8fbd	0.034072626
2	0x3d4a256e	0.049352102
3	0x3d649321	0.055804376
4	0xbcf96b45	-0.030446658
5	0x3d9336fa	0.0718822
6	0xbbabb214	-0.0052397344
7	0xbd6cf017	-0.057846155
8	0xbc8123a6	-0.015764069
9	0xbd989a4c	-0.07451305
10	0xbbe2129a	-0.00689919
11	0x3d6043ec	0.054752275
12	0x3d84dd2d	0.064874984
13	0x3d2d4ca6	0.042309426
14	0xbda0ad36	-0.07845537
15	0xbd5bbc8d	-0.053646613
16	0xbdae3399	-0.08505935
17	0x3d0cb373	0.034350824
18	0x3c7a8ffa	0.015293116
19	0x3d116f43	0.035506498
20	0xbd890eb6	-0.06692259
21	0xbd1a6b1b	-0.0376998
22	0xbd01ac80	-0.03165865
23	0x3d0c3a46	0.03423526
24	0x3d4a8ea0	0.049452424
25	0xbc4a4b1e	-0.012347011
26	0xbccafd17	-0.024778886
27	0xbce03ea0	-0.027373612
28	0x3da579a1	0.080798395
29	0x3d34a6e7	0.044104483
30	0x3d9e2bca	0.07723196
31	0x3d833c12	0.06407942
32	0xb9b0c4e2	-0.00033716025
33	0x3db2400c	0.08703622
34	0xbd8481d1	-0.06470073
35	0xbd4c1371	-0.04982323
36	0xbda0ab1b	-0.07845136
37	0x3945465d	0.00018813596
38	0x3d905740	0.070478916
39	0xbcec67f6	-0.028858166
40	0xbd6b8920	-0.05750382
41	0x3cece19b	0.02891617
42	0x3d6f9bb5	0.058498103
43	0xbd3f87b5	-0.04676028
44	0x3ce92978	0.028462157
45	0xbd8d5579	-0.06901068
46	0xbcc1bf37	-0.023650749
47	0xbdb24f64	-0.08706549
48	0xbda09aa0	-0.078419924
49	0x3d52f9a7	0.05150762
50	0xba3d880a	-0.0007230049
51	0x3caee548	0.021349564
52	0xbbbdab0e	-0.0057882136
53	0x3d18cccc	0.037304685
54	0x3d5ba802	0.05362702
55	0xbd402e4e	-0.04691916
56	0xbd60ed4c	-0.054913804
57	0xbdb014eb	-0.0859774
58	0x3a94bede	0.0011348387
59	0x3bdf2d53	0.006810823
60	0x3c8bbb57	0.017057104
61	0x3dce688d	0.10078535
62	0xbd84147f	-0.06449222
63	0xbdb23d0f	-0.08703052
64	0x3dbb5f32	0.091490164
65	0xbd914afa	-0.07094379
66	0xbbc86896	-0.0061159832
67	0x3dc26e5b	0.09493705
68	0x3d16625c	0.036714897
69	0x3bf2c372	0.007408553
70	0xbb17232f	-0.0023061743
71	0xbd38e791	-0.045142714
72	0xbc99d574	-0.01877854
73	0x3c7c68c2	0.015405836
74	0xbdc41005	-0.09573368
75	0x3d6f9a2b	0.058496635
76	0xbd2ea52c	-0.04263799
77	0xbb509250	-0.003182549
78	0xbcfc9b85	-0.030835876
79	0xbd6e61ce	-0.058198743
80	0x3a93fc8b	0.0011290474
81	0xbdb70a07	-0.089374594
82	0x3d72b86c	0.05925791
83	0xbd6b6bd1	-0.05747587
84	0x3c2d85f6	0.010591021
85	0x3dc51ca2	0.09624602
86	0xbcfa7a3d	-0.030575866
87	0x3d64f9c6	0.055902265
88	0xbc989a34	-0.018628217
89	0xbdb5f87a	-0.08885284
90	0xbdb13243	-0.08652165
91	0x3d50569b	0.050863843
92	0xbc901917	-0.017590089
93	0x3d5db181	0.05412436
94	0xbba8a8d9	-0.0051470813
95	0x3d6e4052	0.05816681
96	0x3cdafe4d	0.026732588
97	0xbd07f0f5	-0.03318878
98	0xbc9896e7	-0.018626643
99	0x3db35b46	0.087576434
100	0xbd816e10	-0.06319821
101	0xbce1675d	-0.027515108
102	0xbd76b5c7	-0.06023195
103	0xbdb47076	-0.08810513
104	0x3b0368fe	0.0020051594
105	0x3da8f643	0.08250096
106	0x3c0330ae	0.008007212
107	0x3cb2f556	0.0218455
108	0xbd86ce51	-0.065823205
109	0x3dc41826	0.095749184
110	0x3d504e23	0.050855767
111	0x3c4faf72	0.012676107
112	0xbd447657	-0.04796442
113	0xbc32f950	-0.010923699
114	0xbc4ed303	-0.012623551
115	0xbd8c3e69	-0.06847841
116	0xbc278679	-0.010224932
117	0xbd9e3827	-0.07725554
118	0xbdb590db	-0.088655196
119	0xbdaac440	-0.08338213
120	0x3dd2945d	0.10282204
121	0x3c24a007	0.010047919
122	0x3d79cda2	0.060987122
123	0xbd584697	-0.052801695
124	0xbda23a83	-0.079213165
125	0xbda7161f	-0.08158516
126	0x3cd1e452	0.025621567
127	0xbd47c2c7	-0.04876974
128	0xbdb5db7a	-0.088797525
129	0x3d8c7664	0.06858519
130	0x3d07b23d	0.033128966
131	0xbdd206be	-0.10255192
132	0xbbd4687f	-0.0064821835
133	0xbc8250d2	-0.015907679
134	0xbd3eecaa	-0.04661242
135	0xbda62a91	-0.08113588
136	0xbd12b043	-0.035812628
137	0xbc2658d5	-0.010153015
138	0xbda2e8f5	-0.07954589
139	0xbd8001d6	-0.0625035
140	0x3c5d04a0	0.013489872
141	0x3c0461e0	0.008079976
142	0xbc82b456	-0.015955132
143	0x3d23ce24	0.039991513
144	0xbd7fec81	-0.062481407
145	0xbd4b2260	-0.04959333
146	0xbdb8676b	-0.090041004
147	0xbd1e9ad9	-0.038721893
148	0xbd6845a3	-0.056707036
149	0xbc957190	-0.018242627
150	0x3c0b352e	0.008496566
151	0x3d1daf46	0.038497232
152	0xbdae022b	-0.08496507
153	0xbda4db83	-0.08049681
154	0xbd9d7b4f	-0.07689535
155	0x3ca639a0	0.02029115
156	0x3d017d0c	0.031613395
157	0xbca15ba6	-0.019697022
158	0x3c888b6d	0.016668046
159	0x3d9e06b9	0.07716126
160	0x3d510c9a	0.05103741
161	0x3d056f26	0.032576703
162	0x3d9fb2e6	0.07797794
163	0x3d1f49e0	0.038888812
164	0x3d20b1a0	0.039231896
165	0xbd3fc239	-0.046816085
166	0x3dae85d9	0.08521623
167	0x3d4a8476	0.04944273
168	0xbc067444	-0.008206431
169	0x3db83ca5	0.08995942
170	0xbbab0822	-0.0052194754
171	0xbd982a8d	-0.07429991
172	0x3c4ce7e5	0.01250646
173	0x3ce6b83c	0.028164022
174	0x3ca450d7	0.020058079
175	0xbdaf009a	-0.085450366
176	0xbca83723	-0.020534104
177	0x3927ada6	0.0001599105
178	0x3db0bed3	0.08630147
179	0x3d9b618d	0.07586966
180	0x3d99515e	0.07486223
181	0x3d0c1721	0.034201745
182	0xbd623bb3	-0.055232715
183	0xbdbd2260	-0.09235072
184	0x3ce20c9e	0.027593907
185	0xbc10536b	-0.008808951
186	0x3d66c909	0.056344066
187	0xbd92e59f	-0.07172703
188	0xbd5a46ba	-0.053290106
189	0x3d932915	0.0718557
190	0xbd3fbf6c	-0.046813414
191	0xbc5b9b54	-0.013403732
192	0xbd8e07c9	-0.06935079
193	0xbcc56a1a	-0.024098445
194	0xbd76bd98	-0.060239404
195	0x3d74f5e6	0.05980482
196	0xbd00754d	-0.031361867
197	0x3d17cb6a	0.037059225
198	0x3cbf42fc	0.02334737
199	0x3dac6663	0.08417966
200	0x3c92f1c7	0.017937554
201	0xbcb4b298	-0.022057816
202	0x3d9644a8	0.07337314
203	0x3d04a48d	0.03238349
204	0xbd2aa61e	-0.041662328
205	0xbd97bb1d	-0.07408736
206	0xbc22b2df	-0.0099303415
207	0xbdb93247	-0.09042793
208	0xbbcf90e4	-0.006334411
209	0x3dac0cdd	0.08400891
210	0xbd3955be	-0.045247786
211	0xbdc3701a	-0.09542866
212	0x3d3e01cf	0.046388444
213	0x3db13d99	0.08654327
214	0x3da61fba	0.0811152
215	0x3c39fdad	0.011351985
216	0xbd930af9	-0.07179827
217	0x3b818ab0	0.0039533004
218	0xbda27a8c	-0.0793353
219	0xbca1d5c4	-0.019755252
220	0x3d93e3c2	0.07221176
221	0x3d919096	0.07107656
222	0x3ce1d890	0.027569085
223	0xbd838841	-0.06422473
224	0xbdb9be9b	-0.09069558
225	0xbd8820b6	-0.06646864
226	0xbce071ae	-0.027397957
227	0x3dac5778	0.08415121
228	0xbdb3cc87	-0.08779245
229	0x3d49ff36	0.049315654
230	0x3d6c9f80	0.0577693
231	0x3cf0b187	0.029381527
232	0xbcf7cf1b	-0.030250123
233	0x3d2b3326	0.041796826
234	0x3d6a2fa9	0.05717436
235	0x3d1ee4ad	0.0387923
236	0xbdb8680a	-0.09004219
237	0x3d846296	0.06464116
238	0x3d316a24	0.043314114
239	0xbb1006e4	-0.0021976763
240	0x3cb3fdd4	0.02197162
241	0xbd95ac82	-0.07308294
242	0xbdbc5887	-0.09196573
243	0x3d11f6de	0.03563582
244	0xbcc6af27	-0.024253441
245	0xbd135459	-0.035969112
246	0x3bd294af	0.006426416
247	0x3db91798	0.09037703
248	0x3db1c435	0.08680002
249	0x3da41773	0.08012285
250	0xbc9bbd05	-0.01901103
251	0xbc6bddbb	-0.014396126
252	0xbd354f61	-0.044265155
253	0x3d9924de	0.07477735
254	0x3cee2594	0.029070653
255	0x3c717946	0.0147383865

tpcnns.1.bias f4 [12]
0	0x3e272985	0.16324432
1	0x3df2c401	0.11853791
2	0x3ca49b76	0.02009366
3	0x3c1ab57d	0.009442684
4	0x3c24fe5d	0.010070411
5	0xbd14a674	-0.036291555
6	0xbd8c9d44	-0.068659335
7	0x3d3b2829	0.045692597
8	0x3e650d21	0.2236829
9	0x3e0811ea	0.13288084
10	0x3d8bbd18	0.06823176
11	0x3dcd4243	0.10022404

tpcnns.2.weight f4 [12, 12, 3, 3]
0	0xbb7b4c07	-0.0038344876
1	0xbd223d3b	-0.039609175
2	0x3d8f1659	0.06986684
3	0xbdd5f639	-0.10447354
4	0xbd8a0d7a	-0.06740852
5	0x3ccb5d52	0.024824772
6	0xbc994dab	-0.018713793
7	0x3d5f517f	0.05452108
8	0xbbf0672d	-0.0073365183
9	0xbc9ead2d	-0.019369686
10	0xbd25dd64	-0.040494338
11	0x3dc27910	0.09495747
12	0x3c828ab2	0.015935276
13	0xbc82b837	-0.015956981
14	0xbac9c2e4	-0.0015393165
15	0x3b88ff96	0.004180859
16	0x3d6d7ff9	0.057983372
17	0x3b785d5e	0.0037897448
18	0xbd895afd	-0.06706808
19	0xbd1a1c60	-0.037624717
20	0x3b8069d0	0.003918864
21	0xbda174dd	-0.07883618
22	0xbdc3133c	-0.09525153
23	0xbd8edcd0	-0.069757104
24	0x3d5be4a0	0.05368483
25	0xbd79b628	-0.060964733
26	0xbc799fe1	-0.015235872
27	0xbdae780a	-0.085189894
28	0xbd912fb2	-0.07089175
29	0xbd933b95	-0.07189099
30	0x3d7c6e2d	0.06162851
31	0xbb5bc841	-0.0033536109
32	0xbdc5b2d8	-0.09653252
33	0x3d6f43d8	0.05841431
34	0xbd86fe34	-0.06591454
35	0xbdc24a2a	-0.09486802
36	0x3ce95b61	0.028485956
37	0xbd3c583e	-0.04598259
38	0xbcb85916	-0.022503417
39	0x3d20c834	0.03925343
40	0xbb37007f	-0.002792388
41	0xbd982520	-0.07428956
42	0xbc764ebb	-0.015033419
43	0xbd9c0b96	-0.07619397
44	0x3dae54fe	0.08512305
45	0xbdb7c421	-0.089729555
46	0x3dba94a8	0.09110385
47	0xbda4e088	-0.080506384
48	0xbd83fd9e	-0.06444858
49	0x3ced8870	0.028995723
50	0xbd946554	-0.07245889
51	0xbd850a38	-0.0649609
52	0x3d1396a0	0.03603232
53	0x3d2805c8	0.04102114
54	0x3c5f74ec	0.013638716
55	0x3d6146f9	0.054999325
56	0x3d575cae	0.05257862
57	0x3d1b13c5	0.03786065
58	0x3d8ab04a	0.06771906
59	0x3d39a60d	0.045324374
60	0xbd531ef3	-0.051543187
61	0xbbdb1d08	-0.0066868104
62	0xbd65c1e7	-0.056093123
63	0xbdb3be1e	-0.08776496
64	0x3c2827ef	0.010263427
65	0xbdaddbd5	-0.08489195
66	0x3d6fe2cf	0.05856591
67	0x3c80985c	0.01569765
68	0xbc632b6c	-0.013865333
69	0x3d0538fe	0.032525055
70	0x3db2028c	0.08691892
71	0xbd929049	-0.071564265
72	0x3dac9032	0.084259406
73	0x3d3862c4	0.045016065
74	0xbd44bd90	-0.048032343
75	0xbd6c79b7	-0.057733264
76	0x3d180317	0.03711232
77	0x3d86ac48	0.06575829
78	0x3d5c9b7c	0.05385922
79	0xbd0395f1	-0.032125417
80	0x3c1ad7ff	0.009450912
81	0x3cc07ebe	0.023497935
82	0xbd5f5486	-0.054523967
83	0xbd546d3b	-0.051861983
84	0xbdd6f36d	-0.104956485
85	0x3c99869f	0.01874095
86	0x3d3e8ad0	0.0465191
87	0x3d950f3b	0.072782956
88	0x3d8d3cbe	0.06896351
89	0x3c09fd6f	0.00842224
90	0xbd85317c	-0.06503579
91	0x3d1b773d	0.03795551
92	0x3dbfae31	0.09359396
93	0xbd4fe597	-0.050756063
94	0x3da2389d	0.079209544
95	0xbce57818	-0.028011367
96	0xbd9f9dc7	-0.077937655
97	0xbd423530	-0.047414005
98	0xbb838d46	-0.004014644
99	0xbdb2ba1b	-0.08726903
100	0xbd7994b5	-0.060932834
101	0xbd487d5e	-0.048947684
102	0xbdc2be7d	-0.09508989
103	0xbd9477a4	-0.07249382
104	0x3d44491c	0.047921285
105	0x3d1ed49a	0.03877697
106	0x3db84b50	0.0899874
107	0x3db6e784	0.08930877
108	0xbcd59ce0	-0.02607578
109	0xbc070ba8	-0.008242525
110	0xbd638f8f	-0.05555683
111	0xb9f326b3	-0.00046377405
112	0xbd23c128	-0.03997913
113	0xbd56f693	-0.052481245
114	0x3d5b228f	0.053499755
115	0xbd9d839c	-0.07691118
116	0xbd858250	-0.06518996
117	0x3bea528e	0.0071509546
118	0x3d1ff44c	0.03905134
119	0xbd3ee36e	-0.046603613
120	0x3d738777	0.05945536
121	0x3cc91477	0.024545891
122	0xbd7bb8b3	-0.06145544
123	0xbd36ef25	-0.04466166
124	0x3d8c6d86	0.068568274
125	0x3d9a4987	0.075335555
126	0xbc8a8d1a	-0.016912986
127	0xbd8d3172	-0.068941966
128	0x3d09f44a	0.033680238
129	0x3c1d372e	0.009595675
130	0x3d04041c	0.03223048
131	0xbb993b75	-0.0046762773
132	0x3da2c8fe	0.079484925
133	0x3d67524b	0.056474965
134	0xbd59c991	-0.053170744
135	0x3bd4d328	0.0064948983
136	0xbd401d92	-0.0469032
137	0xbc3c363d	-0.011487541
138	0x3c9e50c1	0.019325616
139	0xbbf4c4b6	-0.007469739
140	0x3d629526	0.05531802
141	0x3d6bfeb5	0.057615954
142	0x3d057fd2	0.032592602
143	0xbc88c098	-0.016693398
144	0x3dabcee0	0.08389068
145	0xbce63100	-0.028099537
146	0x3d6f4e10	0.058424056
147	0x3cb6dde5	0.022322604
148	0x3d421736	0.047385417
149	0xbda99997	-0.08281248
150	0xbdc7323b	-0.097263776
151	0x3c49da6c	0.012320142
152	0x3d3f28ba	0.0466697
153	0x3c6f6143	0.014610591
154	0xbd85b276	-0.06528179
155	0x3d0946e9	0.03351489
156	0xbda466c3	-0.08027413
157	0x3dbb5b60	0.09148288
158	0x3d4d9e9f	0.0502001
159	0xbd1c6903	-0.038186084
160	0x3c92b245	0.017907271
161	0xbd50fa0f	-0.051019724
162	0xbcdb39b9	-0.026760923
163	0xbd3d2996	-0.046182238
164	0x3d8848bb	0.06654497
165	0x3c8f990c	0.017529033
166	0x3c8ac753	0.016940748
167	0x3d63d540	0.055623293
168	0xbd588e24	-0.05286993
169	0x3b954005	0.004554751
170	0xbcf195d3	-0.029490387
171	0xbd43459f	-0.047673818
172	0xbd9175d0	-0.07102549
173	0xbdb5aa3d	-0.08870361
174	0x3da35d59	0.07976789
175	0xba4e3692	-0.0007866408
176	0x3cb89b24	0.022534914
177	0xbc30d775	-0.010793556
178	0xbd552e39	-0.052046034
179	0xbd99e321	-0.075140245
180	0xbbece17e	-0.007229029
181	0xbcc5d57b	-0.024149647
182	0x3dc99544	0.09842923
183	0xbd63bebd	-0.055601824
184	0x3daf9c70	0.0857476
185	0xbd90604b	-0.070496164
186	0x3d32d1eb	0.043657225
187	0x3b99708c	0.004682606
188	0xbcb7f991	-0.02245787
189	0xbcdc048c	-0.026857637
190	0x3cb6a81f	0.022296963
191	0x3d9effa6	0.07763605
192	0x3d913034	0.07089272
193	0x3d0c05ef	0.034185346
194	0x3d2c993b	0.04213832
195	0xbc6b25f4	-0.01435231
196	0x3b6bfe38	0.003600968
197	0x3813e1a4	3.5257675e-05
198	0xbd1ca9f9	-0.038248036
199	0x3dc8dbc2	0.098075405
200	0x3d7b3cb6	0.061337195
201	0x3cc65e14	0.024214782
202	0xbd331e4f	-0.043730076
203	0xbcb290e4	-0.021797605
204	0xbceebfca	-0.029144187
205	0x3d3c57bf	0.04598212
206	0x3c9ea322	0.019364897
207	0xbd59d0b3	-0.053177547
208	0xbd386973	-0.04502244
209	0x3d786354	0.0606416
210	0xbd03763f	-0.03209519
211	0x3dc348b0	0.095353484
212	0x3d90dae8	0.07073003
213	0xbd0e9cbe	-0.03481745
214	0xbd2db514	-0.042409018
215	0xbab6096f	-0.001388831
216	0x3d3f8c79	0.046764825
217	0xbd1617c5	-0.036643762
218	0xbd831759	-0.064009376
219	0xbdbc31cc	-0.091891855
220	0x3d91ade7	0.07113247
221	0xbdd6a9ff	-0.10481643
222	0x3d69542c	0.05696504
223	0xbc151f74	-0.009101737
224	0x3d7c57c9	0.061607156
225	0xbd51f6a0	-0.05126059
226	0x3d896c7b	0.06710144
227	0xbd6f340b	-0.05839924
228	0x3cc664f5	0.024218062
229	0xbd10c0dc	-0.035340175
230	0xbd09bcb4	-0.033627227
231	0x3cc04f59	0.023475336
232	0xbdb1f559	-0.086893745
233	0x3d50638f	0.050876196
234	0x3d92e6da	0.07172938
235	0xbcd26bce	-0.02568617
236	0xbd250546	-0.040288232
237	0x3d227033	0.039657783
238	0x3ca8d6c2	0.020610217
239	0x3d1ddbb8	0.03853962
240	0xbd3efffd	-0.04663085
241	0xbc9879a5	-0.018612692
242	0x3d6f0824	0.058357373
243	0xbda7d124	-0.08194187
244	0x3d36e4af	0.044651683
245	0xbd816e7b	-0.063199006
246	0xbda60e35	-0.081081785
247	0x3c99c340	0.01876986
248	0xbc488fe3	-0.0122413365
249	0x3d6c8434	0.057743266
250	0x3d37071d	0.044684518
251	0xbd52b941	-0.051446203
252	0xbd699760	-0.057029128
253	0xbb65c499	-0.0035059808
254	0x3c2073b2	0.009793209
255	0x3d1d6ebb	0.03843568

tpcnns.2.bias f4 [12]
0	0xbc5cd883	-0.013479355
1	0x3e2980e7	0.16553079
2	0x3d5ef755	0.054435093
3	0xbaf87554	-0.0018955865
4	0x3d7f2b74	0.0622973
5	0xbc412323	-0.011788162
6	0xbd70948c	-0.058735415
7	0x3e07b821	0.13253833
8	0xbcc3e905	-0.023914823
9	0x3e5eab7f	0.21745108
10	0xbd061218	-0.0327321
11	0xbd5637ea	-0.052299418

tpcnns.3.weight f4 [12, 12, 3, 3]
0	0xbd4c434c	-0.049868867
1	0x3cce400c	0.025177024
2	0xbcad60ea	-0.021164376
3	0xbd2e14c8	-0.042500287
4	0xbd4f6dc5	-0.050641794
5	0x3cfff6f2	0.031245682
6	0x3d9d603d	0.076843716
7	0x3cc89551	0.024485262
8	0xbdadc001	-0.084838875
9	0xbc5e56ee	-0.01357053
10	0x3da1f954	0.07908884
11	0x3d90c5eb	0.07069
12	0xbc08d6ed	-0.008352024
13	0x3d7a1ab4	0.061060622
14	0xbdc600ba	-0.09668107
15	0x3cfe2d9a	0.031027604
16	0xbc34025f	-0.010986893
17	0x3d4a4795	0.049384672
18	0xbc38931f	-0.011265545
19	0xbd636365	-0.055514712
20	0xbd849ca7	-0.064751916
21	0x3d197990	0.037469447
22	0x3d129b24	0.035792485
23	0xbd4f729d	-0.050646413
24	0xbd87e8c3	-0.06636193
25	0xbc8c2299	-0.017106341
26	0x3d7c61f8	0.061616868
27	0x3c858868	0.016300395
28	0x3da38d73	0.07985964
29	0x3d905350	0.070471406
30	0x3cf5a5fc	0.029986374
31	0x3d7f22e0	0.06228912
32	0x3d55c029	0.05218521
33	0xbd5246b0	-0.051336944
34	0x3d471b87	0.048610236
35	0x3b9adcb4	0.004726017
36	0xbd616d60	-0.05503595
37	0xbd9f8362	-0.07788731
38	0x3db615d7	0.08890884
39	0xbda92dd9	-0.08260698
40	0xbd176409	-0.036960635
41	0x3d0146de	0.031561725
42	0xbd53f389	-0.051745925
43	0xbda5611c	-0.08075163
44	0x3d26616f	0.040620264
45	0x3d22a85a	0.039711334
46	0x3d92d380	0.07169247
47	0x3da0fb57	0.07860439
48	0xbdcbe471	-0.09955681
49	0x3d659cc2	0.0560577
50	0xbd9de7c6	-0.07710223
51	0x3d299fd8	0.041412205
52	0xbdb42717	-0.08796518
53	0x3d98f23f	0.0746808
54	0xbdb79c90	-0.08965409
55	0x3da8cee5	0.08242587
56	0xbd908b74	-0.070578486
57	0x3d305e27	0.04305854
58	0x3dbaf7f1	0.09129322
59	0x3d53287c	0.05155228
60	0x3db327c1	0.08747817
61	0xbae2f97d	-0.0017316785
62	0xbda896e0	-0.08231902
63	0xbd8ccd97	-0.06875151
64	0x3d945cfb	0.07244297
65	0x3d2500ef	0.040284093
66	0xbcf028eb	-0.029316386
67	0x3d450801	0.048103336
68	0x3d990d36	0.07473223
69	0xbdacdec9	-0.084409304
70	0xbda2cfe8	-0.07949811
71	0x3c75140f	0.014958396
72	0x3d8218c7	0.06352382
73	0xbd1969fe	-0.037454598
74	0xbd4c2b36	-0.049845897
75	0xbd27db55	-0.040980656
76	0xbcfb12f1	-0.03064868
77	0x3d78541c	0.060627088
78	0x3d2567ab	0.04038207
79	0x3c5973c9	0.013272234
80	0x3d7352aa	0.059405006
81	0xbcc8abea	-0.024496038
82	0x3c1d0a09	0.009584912
83	0x3ca0877d	0.019595856
84	0xbccb0677	-0.024783356
85	0x3d5bd638	0.05367109
86	0x3d33b9c9	0.04387835
87	0xbcd6f0c5	-0.026237855
88	0xbd82538a	-0.0636359
89	0x3d5f87af	0.054572757
90	0x3c89c3dc	0.016817026
91	0xbcbec1b2	-0.02328572
92	0xbda6482b	-0.08119234
93	0xbceb9497	-0.028757377
94	0x3d8cd481	0.068764694
95	0x3d733024	0.059372082
96	0xba9e0ec1	-0.001205884
97	0xbda03455	-0.078224815
98	0xbd4bce56	-0.049757324
99	0x3db75859	0.08952398
100	0x3da07624	0.078350335
101	0xbd4609da	-0.04834924
102	0x3d23ccd2	0.039990254
103	0xbd6ee570	-0.058324277
104	0xbd21334a	-0.039355554
105	0x3d45e877	0.0483174
106	0xbd8e290f	-0.06941425
107	0x3dabc1af	0.083865516
108	0x3dbe9a0e	0.09306727
109	0x3c83ce31	0.01608953
110	0xbc27beb6	-0.01023834
111	0xbd48d945	-0.04903533
112	0xbd320627	-0.0434629
113	0x3d3ea0d3	0.046540093
114	0xbd52e0fc	-0.051484093
115	0x3d7ea78d	0.062171508
116	0xbd5b7035	-0.053573806
117	0xbc8a5dda	-0.016890455
118	0xbd7a91f2	-0.06117434
119	0xbd94a948	-0.0725885
120	0xbd527ae0	-0.051386714
121	0xbd7524a8	-0.05984941
122	0xbd667c39	-0.05627081
123	0x3dc86c3c	0.09786269
124	0x3c31c098	0.010849141
125	0xbdc48017	-0.09594744
126	0x3c8bbce5	0.017057845
127	0x3d885c78	0.06658262
128	0x3d86481a	0.06556721
129	0xbd2ac952	-0.0416959
130	0x3d748d90	0.059705317
131	0x3d1bf79a	0.038077928
132	0xbc8e986d	-0.017406667
133	0x3ce5eea7	0.0280679
134	0xbdc26b56	-0.09493129
135	0xbca03987	-0.019558681
136	0xbc909ad3	-0.017651951
137	0x3d496287	0.04916623
138	0x3aa37c0d	0.0012472883
139	0x3d12b3e9	0.035816107
140	0x3dbf7eec	0.0935038
141	0x3d7f1388	0.062274486
142	0xbd8da651	-0.06916488
143	0x3c917f52	0.017760906
144	0xbd4aa91f	-0.049477693
145	0xbd7cd570	-0.061726987
146	0xbcf28525	-0.029604504
147	0x3d82e1be	0.06390713
148	0xbd98bef9	-0.074583
149	0x3d390ca8	0.045178086
150	0x3b0703b7	0.002060158
151	0x3d9b5363	0.07584264
152	0x3c971e17	0.018446965
153	0x3ceac0a7	0.028656317
154	0x3ccb5704	0.024821766
155	0xbddc2c85	-0.10750679
156	0x3db776ee	0.08958231
157	0x3d17aa8d	0.037027884
158	0x3c644aef	0.013933881
159	0x3d84b0ea	0.06479056
160	0x3c970bf1	0.018438311
161	0x3b227717	0.0024790221
162	0x3d4e6749	0.05039147
163	0xbc745dbc	-0.014914926
164	0x3d9867ff	0.07441711
165	0xbcaa2d86	-0.02077366
166	0xbd919f2b	-0.07110437
167	0xbc850ec2	-0.016242389
168	0xbdbd29a7	-0.0923646
169	0xbd848ef3	-0.06472578
170	0x3cd6064d	0.026126051
171	0x3d49f8b0	0.049309433
172	0x3ba6fb34	0.0050958637
173	0xbd22e28e	-0.03976684
174	0x3c515408	0.012776382
175	0xbd08d4b6	-0.033405982
176	0x3daabffc	0.08337399
177	0x3d0ee7ca	0.03488902
178	0xbdb62220	-0.088932276
179	0x3c8564ad	0.016283358
180	0xbdaa3acb	-0.08311995
181	0x3db160fb	0.08661076
182	0x3dc0875b	0.09400817
183	0x3d37eb9e	0.044902436
184	0x3c50e4a2	0.012749823
185	0x3d79f5a9	0.061025295
186	0xbd94e8d4	-0.07270971
187	0x3d7ecb37	0.06220552
188	0x3d8aa102	0.06768991
189	0xbd8c65fe	-0.06855391
190	0x3d8b60de	0.06805585
191	0xbd4e1eee	-0.050322466
192	0xbd636b78	-0.055522412
193	0x3da633d8	0.08115357
194	0xbd5dca71	-0.05414814
195	0xbbcbe6c5	-0.006222578
196	0x3d167f5e	0.03674256
197	0xbce7f9a5	-0.028317282
198	0x3d981476	0.074257776
199	0x3d7817f8	0.060569733
200	0x3c293dc1	0.010329665
201	0xbdbb5dd8	-0.09148759
202	0x3da7eb3c	0.08199164
203	0xbcc3254a	-0.023821492
204	0x3d3d7d65	0.046262164
205	0xbdb0e9e6	-0.086383626
206	0x3d88c263	0.06677701
207	0x3cb50bcb	0.02210035
208	0x3d926979	0.071490236
209	0x3d991601	0.074749
210	0xbd689129	-0.05677906
211	0xbd979425	-0.07401303
212	0x3d066e51	0.03282005
213	0xbc0a5554	-0.008443195
214	0xbd58d643	-0.05293871
215	0xbdbb86ba	-0.091565564
216	0xbd8170bf	-0.06320333
217	0x3d0f386b	0.034965914
218	0x3d497e8c	0.04919295
219	0xbd0eda98	-0.034876436
220	0x3c174ffb	0.009235377
221	0x3d7220c6	0.059113286
222	0xbd8818ed	-0.06645379
223	0x3d9789f5	0.0739936
224	0xbdb909ce	-0.09035073
225	0xbbfc9308	-0.007707957
226	0xbd87577e	-0.06608485
227	0x3c4603fa	0.012085909
228	0x3d689d65	0.056790728
229	0x3aa376e6	0.0012471348
230	0xbd8de303	-0.06928065
231	0xbc9a687a	-0.018848646
232	0x3d7cd13f	0.06172299
233	0x3d977554	0.073954254
234	0x3d5a8f03	0.053359043
235	0x3c46d806	0.012136465
236	0xbdd93dab	-0.10607465
237	0xbd5f7a46	-0.05455997
238	0xbdd03841	-0.101669796
239	0xbda8c1e9	-0.082401104
240	0xbb21218d	-0.0024586648
241	0x3d8c9d28	0.06865913
242	0x3c9a1315	0.018807927
243	0x3d7ba03c	0.06143211
244	0x3c812a8b	0.015767356
245	0x3c1a537c	0.009419318
246	0xbdc4b070	-0.09603965
247	0x3cdbe2b2	0.026841495
248	0xbc37324d	-0.011181426
249	0x3cc2cf69	0.023780541
250	0xbc746ada	-0.0149180535
251	0xbd82915b	-0.063753806
252	0x3d500e36	0.050794803
253	0xbd3ceb7c	-0.046123013
254	0xbdaaca09	-0.083393164
255	0xbd8952c8	-0.067052424

tpcnns.3.bias f4 [12]
0	0x3de69531	0.11258925
1	0x3d396bc1	0.045268778
2	0x3cee5f62	0.029098216
3	0xbd43e1ac	-0.04782264
4	0x3b6caee5	0.0036114987
5	0xbda7689c	-0.081742495
6	0x3c04c3cc	0.008103322
7	0xbd81c775	-0.063368715
8	0xbd6c3dce	-0.05767613
9	0x3e0df9f6	0.13864884
10	0x3d2963ec	0.04135506
11	0x3c82b1b7	0.015953882

tpcnns.4.weight f4 [12, 12, 3, 3]
0	0xbcbf7555	-0.023371378
1	0x3a59cfb8	0.00083088456
2	0xbd1b034b	-0.037844937
3	0x3cbf1cdb	0.023329189
4	0xbd734ce5	-0.059399504
5	0xbc9d3c67	-0.019193841
6	0x3da83ac5	0.082143344
7	0x3d7eead7	0.06223568
8	0xbdbb97b0	-0.091597915
9	0x3d18c151	0.037293736
10	0xbd76cafc	-0.060252175
11	0xbd829530	-0.063761115
12	0x3cff2cae	0.031149235
13	0x3d7d0b57	0.061778393
14	0x3da70b4b	0.08156451
15	0xbd067f33	-0.03283615
16	0x3d8322ef	0.064031474
17	0x38f3c941	0.000116246294
18	0xbc7905ac	-0.015199106
19	0xbd6ea56a	-0.05826322
20	0xbd57109e	-0.05250608
21	0xbc3e2691	-0.011605875
22	0x3c0d136d	0.0086105885
23	0xbdbe8f46	-0.09304671
24	0xbc61e476	-0.0137873795
25	0x3dc135ee	0.094341144
26	0x3c8df9d6	0.017331045
27	0xbd97b835	-0.074081816
28	0x3da0eb4c	0.07857379
29	0x3d70b5fa	0.058767296
30	0x3dad6b71	0.084677584
31	0x3d8c7380	0.068579674
32	0x3d6296f3	0.055319738
33	0x3d84637f	0.0646429
34	0x3d4d87bf	0.050178286
35	0x3cf8fbe1	0.030393543
36	0x3d5a4a40	0.053293467
37	0x3d29bc67	0.04143944
38	0x3da67958	0.08128613
39	0x3b003034	0.0019559981
40	0xbd93606c	-0.071961254
41	0xbce2a963	-0.02766866
42	0xbdbbf0af	-0.09176766
43	0x3d83ce21	0.064358
44	0x3dc1f48b	0.09470471
45	0x3d7a4b2a	0.06110684
46	0xbcd61500	-0.02613306
47	0xbd9e0ba5	-0.07717065
48	0x3dbb56eb	0.09147438
49	0xbcc8e837	-0.024524791
50	0x3dae27bf	0.08503675
51	0xbd46f6ce	-0.048575215
52	0xbc9988a9	-0.018741922
53	0x3c98bd00	0.01864481
54	0xbd0317e7	-0.032005217
55	0x3d23cff5	0.039993245
56	0x3d80c204	0.062870055
57	0xbd974978	-0.0738706
58	0x3d422ff0	0.047408998
59	0x3db9966a	0.09061892
60	0xbd5cc180	-0.053895473
61	0xbc51055a	-0.012757624
62	0xbd68e38c	-0.05685763
63	0x3d354356	0.04425367
64	0xbdb52936	-0.08845751
65	0xbd8eee77	-0.06979077
66	0xbcf8c9d8	-0.030369684
67	0xbd476bfe	-0.048686974
68	0x3d252566	0.04031887
69	0xbd7572a7	-0.059923794
70	0x3c074578	0.008256309
71	0x3cb2f873	0.021846985
72	0x3c8c846f	0.017152993
73	0x3a13f9e0	0.0005644839
74	0x3dbe092b	0.092790924
75	0xbd268212	-0.04065139
76	0x3dbf8d8f	0.09353172
77	0xbd990245	-0.07471136
78	0xbdb4bfc1	-0.08825637
79	0xbd4bbac2	-0.049738653
80	0xbdb9588d	-0.09050093
81	0xbcbcfbb1	-0.023069235
82	0x3d9ad87e	0.07560824
83	0xbdaf71f4	-0.08566657
84	0x3d01c621	0.03168309
85	0xbd7a7ee5	-0.061156172
86	0x3da11c35	0.07866708
87	0xbdc041a6	-0.093875214
88	0x3cd6a3a7	0.026201082
89	0x3a83d15b	0.00100569
90	0xbdb27e74	-0.08715525
91	0xbc8fbf1b	-0.01754718
92	0xbdbd1c03	-0.092338584
93	0x3c8a5e2c	0.016890608
94	0x3dab0295	0.08350102
95	0x3b4c843d	0.003120675
96	0xbd04b481	-0.032398704
97	0x3ba81cbf	0.00513038
98	0xbd3632d1	-0.044482056
99	0xbc0a82a4	-0.008453999
100	0x3d7cbbfa	0.061702706
101	0x3ba1777d	0.004927574
102	0x3d2f7d08	0.04284385
103	0x3d127626	0.035757206
104	0xbca48ecc	-0.020087622
105	0xbb88a74a	-0.004170333
106	0xbd8f068a	-0.06983669
107	0xbd4c9571	-0.049947206
108	0x3d8ea62d	0.06965289
109	0xbcf00cec	-0.029303037
110	0xbd2cc71b	-0.04218207
111	0x3c131cf1	0.008979068
112	0xbda94510	-0.08265126
113	0x3d51198f	0.051049765
114	0x3da4c729	0.08045799
115	0xbd231663	-0.03981627
116	0xbd8eef78	-0.06979269
117	0x3d33e8ea	0.043923296
118	0xbd272607	-0.04080775
119	0x3c244a6e	0.010027511
120	0xbd57c1ae	-0.05267494
121	0x3da2ab0c	0.07942781
122	0x3d68d284	0.05684139
123	0x3dc2dfac	0.09515318
124	0xbdac2a59	-0.08406515
125	0xbda7ed79	-0.08199591
126	0x3d934a66	0.07191925
127	0x3c86722f	0.016411869
128	0xbd569c88	-0.052395374
129	0xbc1fcbdd	-0.009753195
130	0xbda499b9	-0.08037133
131	0x3d937bf1	0.07201374
132	0xbd822aab	-0.063557945
133	0xbcdfbf86	-0.027313005
134	0x3ca0b4d3	0.019617474
135	0x3dacf921	0.08445955
136	0xbd3d07bb	-0.04614995
137	0xbdb06709	-0.086134024
138	0x3d13b2e3	0.03605927
139	0x3d822ac5	0.06355814
140	0xbda3eaff	-0.08003806
141	0xbd12b574	-0.03581758
142	0x3cc41904	0.02393771
143	0x3daccfc7	0.08438068
144	0x3c21673a	0.009851271
145	0xbd48d40b	-0.049030345
146	0xbd417478	-0.047230214
147	0x3da26be3	0.07930734
148	0x3db469f1	0.08809269
149	0xbbab30bc	-0.0052243154
150	0x3cb6e246	0.022324692
151	0xbc406c89	-0.011744627
152	0xbd1c982f	-0.03823107
153	0xbd65e8c2	-0.05613018
154	0xbd92831a	-0.07153912
155	0xbd7071c7	-0.058702257
156	0x3c803d44	0.015654214
157	0x3d2039d0	0.039117634
158	0xbd4c6b70	-0.049907148
159	0x3c231a68	0.009955026
160	0x3d79e85d	0.061012615
161	0xbdc48c37	-0.09597056
162	0xbb365130	-0.0027819388
163	0xbaa769de	-0.001277264
164	0xb9ec887f	-0.00045115125
165	0x3dafa390	0.08576119
166	0xbd4fede7	-0.05076399
167	0xbbf187cf	-0.007370926
168	0xbd9cdbd8	-0.07659119
169	0xbd0bbb65	-0.03411426
170	0x3b6c504d	0.0036058605
171	0x3da02dc5	0.0782123
172	0xbd9aaa19	-0.07551975
173	0xbd06f0e0	-0.03294456
174	0xbdc30f93	-0.09524455
175	0x3d638462	0.055546172
176	0xbc2af09a	-0.01043334
177	0x3ce545dd	0.027987415
178	0x3c20233d	0.009774026
179	0x3d839c0d	0.06426249
180	0xbd3d9e68	-0.046293646
181	0xbd5764a8	-0.052586228
182	0xbd57ebe6	-0.052715205
183	0xbcf84430	-0.030305952
184	0xbd8f6a83	-0.070027374
185	0xbcd4a06a	-0.025955398
186	0x3cc69e91	0.024245532
187	0xbd645189	-0.05574182
188	0x3bc0453a	0.0058676274
189	0xbb94cac8	-0.004540775
190	0x3c6ec5ff	0.014573573
191	0x3d81fffb	0.063476525
192	0xbd1dfa9e	-0.038569085
193	0x3d6cc916	0.057808958
194	0x3d802bb2	0.06258334
195	0x3d0e9391	0.0348087
196	0xbd83098c	-0.06398305
197	0x3d989d29	0.07451851
198	0xbda532cb	-0.080663286
199	0x3d959e56	0.07305591
200	0xbda69b05	-0.081350364
201	0xbdc3e863	-0.095658086
202	0xbd123278	-0.035692662
203	0x3cf3644b	0.02971091
204	0xbb8adcce	-0.0042377478
205	0xbd88b9d6	-0.066760704
206	0xbaea876d	-0.0017893143
207	0x3d56f780	0.05248213
208	0x3d969847	0.07353263
209	0xbd2d3dae	-0.04229515
210	0xbb874c1c	-0.004128946
211	0xbd9d6057	-0.07684391
212	0x3d7d3ac1	0.06182361
213	0xbd8bfe93	-0.068356656
214	0xbd5ff51b	-0.05467711
215	0x3d9641f8	0.07336801
216	0xbd2937d8	-0.041313022
217	0x3ceffef2	0.029296372
218	0xbd9b380c	-0.075790495
219	0xbda8a24d	-0.082340814
220	0xbdae87b5	-0.08521978
221	0x3c06ffb5	0.008239676
222	0x3d2c8cb5	0.042126376
223	0x3b92eced	0.00448381
224	0x3c187d65	0.00930724
225	0x3d9e0d41	0.07717372
226	0xbd0c2f12	-0.034224577
227	0xbd75b75f	-0.05998933
228	0x3d149249	0.03627232
229	0xbd92b0e7	-0.07162648
230	0x3db1e1ae	0.08685623
231	0xbd7c48ad	-0.061592747
232	0x3d5f5aa1	0.05452979
233	0x3d4d9435	0.05019017
234	0xbd68e0a9	-0.056854878
235	0x3d831fc8	0.06402546
236	0x3dc09409	0.094032355
237	0x3d9820a1	0.074280985
238	0xbdbf5ba7	-0.09343653
239	0xbccc04c4	-0.024904616
240	0xbd1d1daf	-0.038358387
241	0xbdba8fb1	-0.09109438
242	0xbc7c229b	-0.01538911
243	0x3d5d745b	0.054066043
244	0x3d89a58f	0.06721031
245	0x3d893417	0.066993885
246	0xbd7dd4a4	-0.061970368
247	0xbd52fd8f	-0.051511344
248	0x3c4d36c9	0.012525269
249	0x3dbcf8e5	0.0922716
250	0x3ccf1aa1	0.025281252
251	0xbd6ae9ef	-0.057352003
252	0xbc54b577	-0.012982718
253	0x3d0ce3b9	0.03439686
254	0xbd85d561	-0.065348394
255	0xbbb530ff	-0.0055295224

tpcnns.4.bias f4 [12]
0	0xbda0dc47	-0.078545146
1	0xbd9f5663	-0.07780149
2	0x3d88a12b	0.06671365
3	0x3d54d30b	0.05195908
4	0x3c56e8ab	0.013116996
5	0xbbfb1f79	-0.007663664
6	0xbc5645c3	-0.013078156
7	0xbd6c1f9d	-0.057647336
8	0xbd7b2732	-0.061316676
9	0xbda4f659	-0.080547996
10	0x3d718032	0.058960147
11	0x3d9baafa	0.076009706

tpcnn_ouput.weight f4 [12, 12, 3, 3]
0	0xbba04aa6	-0.0048917113
1	0x3d602324	0.054721013
2	0xbd58001b	-0.052734476
3	0xbd9d7344	-0.07688001
4	0x3d80b403	0.062843345
5	0xbdacec8b	-0.084435545
6	0x3b194c39	0.002339138
7	0xbb8ae20e	-0.0042383736
8	0xbdca5d19	-0.09881038
9	0xbda39491	-0.07987321
10	0x3d878913	0.06617942
11	0x3d6135c0	0.0549829
12	0xbd8ae5a5	-0.067820825
13	0x3d3c4247	0.045961645
14	0xbdad6215	-0.08465973
15	0xbb4ff6aa	-0.0031732717
16	0xbd45219c	-0.048127756
17	0x3d482bd3	0.04886992
18	0xbcae7669	-0.021296697
19	0x3d7601dd	0.06006037
20	0x3b63c1c8	0.0034752954
21	0xbdbedaed	-0.093191005
22	0x3dacf207	0.084446006
23	0x3c479ab5	0.012182881
24	0x3cfc89b4	0.03082738
25	0x3d7abdd5	0.061216194
26	0x3d43f06f	0.047836717
27	0xba90b42a	-0.0011040021
28	0xbd3b3148	-0.045701295
29	0xbc92cf8e	-0.017921235
30	0xbd590316	-0.05298146
31	0x3db8e9b8	0.09028953
32	0xbc05ed08	-0.008174188
33	0xbd878bde	-0.066184744
34	0x3d868776	0.06568806
35	0x3d2ae0bf	0.04171824
36	0xbd33e609	-0.04392055
37	0x3bcb72fc	0.0062087756
38	0xbd86d746	-0.06584029
39	0x3d02d768	0.03194371
40	0x3d05cd8f	0.03266674
41	0x3da78a17	0.081806354
42	0xbd811e3e	-0.06304596
43	0xbc08eb99	-0.008356952
44	0x3d2746e6	0.0408391
45	0x3d5b009c	0.053467378
46	0xbd151d4a	-0.036404885
47	0xbd893755	-0.06700007
48	0x3c614c67	0.013751126
49	0xbd9f9106	-0.07791333
50	0x3cca5f78	0.024703726
51	0xb9c869be	-0.00038225757
52	0xbdb63bd8	-0.08898133
53	0x3d9736fc	0.07383534
54	0xbd03e2ed	-0.032198835
55	0xbde5b969	-0.11217005
56	0x3d8e2a6b	0.06941684
57	0xbd50a4f7	-0.050938573
58	0xbcbbc828	-0.02292259
59	0x3c76796d	0.015043599
60	0xbd5c4a29	-0.053781662
61	0xbd64d338	-0.055865496
62	0xbc008a88	-0.007845528
63	0xbd09e522	-0.033665784
64	0x3d884cce	0.06655274
65	0x3d96c6c1	0.07362128
66	0x3d2f5af3	0.042811345
67	0xbd8b8fc5	-0.06814531
68	0xbba318bf	-0.004977315
69	0x3b266266	0.002538824
70	0xbd57a8fc	-0.05265139
71	0xbcd334d8	-0.025782034
72	0x3d871b44	0.065969974
73	0x3c4f494b	0.012651752
74	0x3d048df7	0.03236195
75	0xbb7872de	-0.0037910263
76	0xbc21eb12	-0.009882705
77	0x3d8c5668	0.06852418
78	0xbd155d31	-0.036465827
79	0x3ddf405f	0.1090095
80	0x3d133454	0.035938576
81	0x3d8ca79f	0.06867909
82	0x3d530f27	0.051528122
83	0xbd919129	-0.07107765
84	0x3dcd85f8	0.10035318
85	0xbd160fac	-0.03663604
86	0xbb2e61de	-0.0026608626
87	0xbb7358c5	-0.0037131768
88	0xbc4a0bc2	-0.012331905
89	0x3c7c6490	0.015404835
90	0x3c662ea3	0.014049205
91	0x3db14ed8	0.086576164
92	0x3d2979bb	0.041375857
93	0x3cfbda39	0.030743705
94	0x3ab1ea95	0.0013573939
95	0x3d3eacd3	0.046551537
96	0x3da4e34e	0.080511674
97	0xbd337b04	-0.04381849
98	0x39b01527	0.00033585096
99	0xbdd28387	-0.10278993
100	0xbd376741	-0.044776205
101	0xbd744d90	-0.059644282
102	0x3cca5614	0.024699248
103	0xbdba48b0	-0.09095895
104	0xbd048c94	-0.03236063
105	0xbd37e9a0	-0.044900537
106	0xbd01a47b	-0.031651
107	0xbd076f13	-0.033064913
108	0x3d3f6294	0.04672487
109	0x3d09b2fa	0.03361795
110	0xbaf74720	-0.0018865801
111	0xbca27cd4	-0.019834913
112	0x3b5eec47	0.0034015344
113	0xbcb97c0d	-0.02264216
114	0x3ce156bc	0.027507178
115	0x3c227290	0.009915009
116	0xbdc9617b	-0.09833046
117	0xbd85dfb0	-0.06536806
118	0x3d9b5e2c	0.07586321
119	0x3c59a48b	0.013283859
120	0x3d607d38	0.054806918
121	0xbdb4731e	-0.08811019
122	0x3d4dc8b5	0.050240237
123	0xbc90c89c	-0.017673783
124	0x3d098faf	0.033584293
125	0xbd77fcd4	-0.06054385
126	0x3c64636c	0.01393972
127	0x3cc1728f	0.023614196
128	0x3d138908	0.036019355
129	0xbd4e3d7e	-0.050351612
130	0x3ce80c91	0.028326305
131	0x3d243bb8	0.040096015
132	0x3cddf364	0.027093597
133	0x3db701ca	0.08935888
134	0x3d1d42de	0.038393848
135	0x3d54bc17	0.05193719
136	0x3c5935e5	0.013257478
137	0xbd13ad82	-0.03605414
138	0xbd881a95	-0.06645695
139	0x3be15963	0.006877111
140	0xbc86ae7c	-0.016440623
141	0xbd762f4c	-0.0601037
142	0xbd80e06c	-0.06292805
143	0x3d348748	0.044074327
144	0xbd3654c7	-0.044514444
145	0x3b76b0e1	0.003764205
146	0xbd907c90	-0.070550084
147	0xbd3ab22b	-0.04558007
148	0x3d8df83b	0.06932112
149	0xbd89e86e	-0.067337856
150	0xbda2ff0f	-0.07958805
151	0x3d812f16	0.06307809
152	0x3d3c26ac	0.045935318
153	0x3cc6ee9b	0.024283698
154	0xbd29136b	-0.041278284
155	0x3c419130	0.011814401
156	0x3d921332	0.071325675
157	0xbd218d28	-0.039441258
158	0xbda2a4a4	-0.07941559
159	0x3d933973	0.07188692
160	0xbc8f9b6a	-0.017530162
161	0x3bd43ab2	0.0064767236
162	0x3c1840c2	0.009292783
163	0xbd72e420	-0.05929959
164	0xbce36722	-0.027759138
165	0xbd2937a9	-0.041312847
166	0x3b2c93c6	0.0026333197
167	0x3d0e68af	0.034767803
168	0xbce7fe96	-0.028319638
169	0x3c9a8990	0.018864423
170	0xbc80e27c	-0.015732996
171	0x3d82449b	0.06360742
172	0x3db4084a	0.087906435
173	0xbce6bb7e	-0.028165575
174	0xbcae1ee7	-0.02125497
175	0x3c8ae3d7	0.016954346
176	0x3cc9f656	0.024653595
177	0x3abca4b0	0.0014392342
178	0x3d999014	0.07498184
179	0x3c688d57	0.014193854
180	0x3d372261	0.04471052
181	0x3d01d5c2	0.031697996
182	0x3ca402d4	0.02002088
183	0xbd51c87c	-0.051216587
184	0x3b5d3ddc	0.0033758795
185	0x3d218baa	0.039439835
186	0x3c8e4acf	0.017369656
187	0xbd78a5f0	-0.060705125
188	0xbb39f123	-0.0028372488
189	0x3cf12f90	0.029441625
190	0xbc2aa3f1	-0.010415063
191	0xbce4a685	-0.027911434
192	0x3daf6719	0.08564586
193	0x3cfb40f4	0.03067062
194	0xbc4b14c2	-0.012395086
195	0xbc9299c6	-0.01789559
196	0x3c95b9d2	0.018277083
197	0xbc2f6e69	-0.010707476
198	0xbd0afcb1	-0.03393239
199	0x3dbff05c	0.09372017
200	0xbd06692d	-0.032815147
201	0x3d3bf8b4	0.04589148
202	0x3d9b3c6b	0.07579883
203	0x3d2bfb42	0.041987665
204	0xbd9b03e9	-0.07569105
205	0x3d1858d5	0.03719409
206	0x3c75806b	0.0149842305
207	0xbdba045e	-0.09082864
208	0xbe0efc76	-0.13963494
209	0x3c3e828b	0.011627804
210	0xbdf37efd	-0.118894555
211	0xbdf71870	-0.12065208
212	0x3d22affa	0.039718606
213	0xbc6c3381	-0.014416576
214	0xbce875eb	-0.02837654
215	0xbd887ea2	-0.06664778
216	0xbcb7573a	-0.02238046
217	0xbb6e3db9	-0.0036352708
218	0x3bbec6c7	0.005822036
219	0x3cc15b1f	0.02360302
220	0x3d5bade4	0.053632632
221	0xbcdb6d3c	-0.026785485
222	0x3d0f296b	0.03495161
223	0x3d01df96	0.03170737
224	0x3ca049e5	0.019566486
225	0xbd2109a6	-0.039315842
226	0x3d7a490e	0.061104827
227	0x3d131d2f	0.035916504
228	0x3b08c67c	0.002087026
229	0xbd3ab208	-0.04557994
230	0xbd1bb020	-0.038009763
231	0xbc3831c5	-0.011242335
232	0x3b3c4d43	0.0028732575
233	0xbd1a0aaa	-0.037607826
234	0xbcc067b2	-0.023486946
235	0x3c7dc56a	0.015488962
236	0x3ac0b2c2	0.0014701711
237	0x3d2a2d33	0.04154701
238	0xbcddfe50	-0.027098805
239	0xbcd2fdc2	-0.025755767
240	0x3b001fb9	0.0019550158
241	0x3d8fea91	0.07027162
242	0xbd373152	-0.04472477
243	0xbd2db094	-0.042404726
244	0x3d8fdbd3	0.0702435
245	0xbc97feb7	-0.018554075
246	0xbccabf04	-0.024749286
247	0xbd7d7385	-0.061877746
248	0x3b8190e5	0.0039540404
249	0xbd9ee743	-0.077589534
250	0x3d157c4b	0.036495488
251	0x3cd3253a	0.025774587
252	0xbd11eeb5	-0.03562804
253	0xbbb2bf53	-0.0054549365
254	0x3cf6777b	0.03008627
255	0x3d8e5b39	0.06950993

tpcnn_ouput.bias f4 [12]
0	0xbcfafedf	-0.03063911
1	0xbce35cae	-0.027754154
2	0xbd3da4b9	-0.04629967
3	0x3ca1d0a3	0.019752806
4	0xbe0f49e4	-0.13993031
5	0xbe58dea6	-0.21178684
6	0xbe12cd45	-0.14336117
7	0xbea990cf	-0.33118293
8	0xbe985840	-0.2975483
9	0xbdf69088	-0.12039286
10	0x3d35def2	0.04440207
11	0xbdc0158a	-0.09379108
